checkpoints/epoch=0-step=4-v5.ckpt (torch, 11504 bytes, 12 tensors)

network.0.weight f4 [20, 10]
0	0x3e96831d	0.29396906
1	0xbe74f75c	-0.23922485
2	0xbd558c7c	-0.05213593
3	0xbb999ce5	-0.0046878927
4	0xbdb92a2e	-0.09041248
5	0xbe5b1c48	-0.21397507
6	0xbd39ec20	-0.045391202
7	0x3d8bf2fa	0.068334535
8	0xbe2e3383	-0.17011838
9	0x3e441dfb	0.19152062
10	0xbe4bce4b	-0.19902913
11	0x3e552a02	0.20816806
12	0xbd867628	-0.06565505
13	0xbd8d430f	-0.06897556
14	0x3e7c5c22	0.24644521
15	0x3e61d5e1	0.22054245
16	0x3e2d0725	0.16897257
17	0xbe817744	-0.25286305
18	0x3de22aa1	0.11043287
19	0xbcf00dca	-0.02930345
20	0x3cde1cb1	0.02711329
21	0xbe1ebf2b	-0.15502612
22	0x3e91377f	0.28362653
23	0x3cf4545c	0.029825382
24	0x3def48c6	0.11683802
25	0x3e0a7599	0.13521422
26	0xbe639563	-0.22224955
27	0x3e68ef46	0.22747526
28	0xbdf83238	-0.121189535
29	0xbe649447	-0.22322188
30	0x3d052cdd	0.032513488
31	0x3e8034bf	0.25040242
32	0xbe3ba370	-0.18324065
33	0xbe703836	-0.23458943
34	0xbd897e61	-0.06713558
35	0x3e99d9d8	0.30049014
36	0xbc9ad7a5	-0.018901655
37	0xbe1106ff	-0.14162825
38	0x3d55cd9b	0.052198034
39	0x3e7e132e	0.24812004
40	0xbe836d3b	-0.25669274
41	0xbe5c7a81	-0.21531107
42	0xbea0346b	-0.31289992
43	0xbe929fb3	-0.28637466
44	0x3ea2d982	0.3180657
45	0xbe31a35d	-0.17347474
46	0xbd3f5184	-0.0467086
47	0x3d3f0760	0.046637893
48	0x3e5e9605	0.21736915
49	0x3e9e29b6	0.30891198
50	0xbe9b0593	-0.3027769
51	0x3e770fb8	0.2412709
52	0xbe0b6858	-0.13614023
53	0x3e25ec0a	0.16203323
54	0xbc000402	-0.007813456
55	0xbdbcd306	-0.09219937
56	0x3e38a653	0.18032198
57	0x3de64cb9	0.112451024
58	0xbc0fa408	-0.008767135
59	0x3e675ab3	0.22593193
60	0x3e46799b	0.19382326
61	0x3d8c247c	0.06842896
62	0xbe2a9fe7	-0.1666256
63	0x3e6ecf20	0.233212
64	0x3d0aba0d	0.033868838
65	0x3da0c7e1	0.07850624
66	0x3e9e6909	0.3093951
67	0x3e49e14d	0.19714852
68	0x3e93cfa7	0.28869364
69	0xbd2cc2e5	-0.042178053
70	0xbe925635	-0.28581396
71	0xbcb5600b	-0.022140523
72	0x3e85cffd	0.26135245
73	0xbe607940	-0.21921253
74	0xbe56dfce	-0.20983812
75	0xbe46a7b7	-0.19399916
76	0xbd08ff04	-0.033446327
77	0xbcfcd3b3	-0.030862665
78	0x3d5ac60e	0.053411536
79	0x3d01239b	0.031528097
80	0x3e59c963	0.21268229
81	0x3e577f18	0.21044576
82	0xbe953273	-0.29140052
83	0xbe2961b8	-0.16541183
84	0x3e8cd814	0.27508605
85	0xbe833127	-0.25623438
86	0xbc3dc29d	-0.011582044
87	0xbe47d58f	-0.1951506
88	0x3e9ff309	0.3124011
89	0x3e0af610	0.13570428
90	0xbe9866e0	-0.29765987
91	0x3e347558	0.17622888
92	0xbe59c540	-0.21266651
93	0xbe408eae	-0.18804428
94	0x3e809113	0.25110683
95	0x3e89dfac	0.2692846
96	0x3e93006b	0.28711256
97	0x3e4df570	0.20113158
98	0xbd90c9da	-0.0706975
99	0x3e96d31d	0.29457942
100	0x3e9ffc1c	0.31247032
101	0xbd0c22ce	-0.03421288
102	0xbde25a07	-0.110523276
103	0xbe374512	-0.17897442
104	0xbe119a21	-0.14218952
105	0xbe9ff892	-0.31244332
106	0xbe8fa30a	-0.28054076
107	0x3def4452	0.11682953
108	0xbc3a172c	-0.011358064
109	0x3e276259	0.1634611
110	0x3dc6d3c2	0.09708358
111	0xbcf8064e	-0.030276444
112	0x3e7c6647	0.2464839
113	0xbe5db743	-0.2165194
114	0x3c73df61	0.014884801
115	0xbe339430	-0.17536998
116	0xbe405c34	-0.18785173
117	0x3e9a7c35	0.30172887
118	0x3e4a3618	0.19747198
119	0x3d828fa9	0.06375057
120	0xbe511b9e	-0.20420691
121	0x3d445404	0.047931686
122	0xbe59111b	-0.21197931
123	0xbd7bfb77	-0.061519112
124	0xbe8aba3a	-0.27095205
125	0x3e85485c	0.26031768
126	0xbe2e0a0d	-0.16996022
127	0x3d3d4d52	0.046216317
128	0x3e8bbdc6	0.27293223
129	0xbe98a0af	-0.29810092
130	0xbc466a20	-0.012110263
131	0x3db4085e	0.087906584
132	0x3d2e13c3	0.042499315
133	0x3deca64f	0.11555158
134	0x3e846627	0.25859186
135	0xbd8e6ee6	-0.06954746
136	0xbe84ac62	-0.25912768
137	0xbde58223	-0.11206462
138	0xbe449c78	-0.19200313
139	0x3e080e5e	0.1328673
140	0x3d90e0e2	0.07074143
141	0xbd3fb97e	-0.04680776
142	0xbe271c57	-0.16319405
143	0xbdfe91b5	-0.12430135
144	0x3dc5d29e	0.09659313
145	0x3e1d3d67	0.15355454
146	0x3dd7db35	0.10539857
147	0x3d94dbb2	0.07268466
148	0x3dff59bf	0.124682896
149	0xbe7c04e4	-0.2461124
150	0xbe90e289	-0.28297833
151	0x3e34fcd2	0.17674568
152	0x3e8cfbf8	0.27535987
153	0x3e87bdbd	0.26511946
154	0xbd194d04	-0.037426963
155	0x3e5b5b6d	0.21421595
156	0xbd5ab3e5	-0.053394217
157	0x3de052b0	0.109532714
158	0xbe3a038b	-0.18165414
159	0x3e428f79	0.19000043
160	0x3e232c3e	0.15934846
161	0xbe4f0be9	-0.20219387
162	0xbe80ea5e	-0.25178808
163	0x3d08543b	0.033283453
164	0x3d87624c	0.066105455
165	0x3e6d15e0	0.23152876
166	0xbe756d93	-0.2396758
167	0x3e9d0b30	0.30672598
168	0xbdb8db1d	-0.090261675
169	0xbc8666f5	-0.016406516
170	0xbe823a10	-0.25434923
171	0xbe4b86f7	-0.19875704
172	0x3e0a96a5	0.13534029
173	0xbc6ef90e	-0.014585746
174	0x3e800ea8	0.25011182
175	0x3e682ae9	0.22672619
176	0xbe9a4e8c	-0.30138052
177	0xbd26724f	-0.040636357
178	0x3ce36a26	0.027760576
179	0x3e959971	0.2921863
180	0x3d8ce085	0.06878761
181	0xbdcc976a	-0.099898174
182	0x3e2e31ad	0.17011137
183	0xbd5ad942	-0.05342985
184	0x3dec2289	0.115300246
185	0xbd2560ba	-0.04037545
186	0xbe5cc7af	-0.21560548
187	0x3e1a10c8	0.15045464
188	0xbe45d2a3	-0.19318633
189	0x3d5ac8d7	0.053414192
190	0x3e4035a6	0.18770465
191	0xbe3479a5	-0.17624529
192	0xbe1eb4f9	-0.15498723
193	0x3b8ced08	0.0043007173
194	0x3e812446	0.25222987
195	0xbe39c4d7	-0.18141495
196	0x3e97cbbf	0.29647633
197	0x3e4adef0	0.19811606
198	0x3db0e1e8	0.08636838
199	0x3d374caf	0.044750866

network.0.bias f4 [20]
0	0x3dab1d75	0.08355228
1	0xbea06a72	-0.3133121
2	0x3d76f7ec	0.06029503
3	0xbe341d37	-0.1758927
4	0xbe3d542a	-0.18489137
5	0xbea11acb	-0.31465754
6	0xbe2d51ed	-0.16925783
7	0xbd0998e3	-0.03359307
8	0x3df125f4	0.11774817
9	0x3e967d19	0.29392317
10	0xbdeff79e	-0.11717151
11	0x3e60146a	0.21882787
12	0xbe260fcc	-0.16216964
13	0x3de5f6ee	0.11228739
14	0xbe1b8e13	-0.15190916
15	0xbdf006fd	-0.11720083
16	0xbe947c06	-0.29000872
17	0x3b854ea4	0.0040682126
18	0x3d3b1ab6	0.04567977
19	0xbc42bb6c	-0.011885505

network.2.weight f4 [5, 20]
0	0xbe50178b	-0.20321481
1	0x3c44aab7	0.012003592
2	0xbd8e71cf	-0.06955301
3	0x3e1c0f15	0.15240128
4	0xbe167164	-0.14691693
5	0x3d11d97f	0.03560781
6	0x3e09e247	0.13465224
7	0x3e4d3964	0.20041424
8	0x3d131f86	0.035918735
9	0x3d8ec64e	0.06971417
10	0x3de06630	0.10956991
11	0x3d1ddabb	0.038538676
12	0x3e1a2d1d	0.15056272
13	0x3d533a78	0.051569432
14	0x3cbbf62d	0.022944534
15	0x3dd629db	0.10457202
16	0xbe495e77	-0.19664942
17	0x3e507dd8	0.20360506
18	0xbc47f9b7	-0.012205533
19	0x3d27d698	0.040976137
20	0xbd820776	-0.06349079
21	0xbc899f19	-0.016799496
22	0x3e42ee8e	0.19036314
23	0x3c2e7dd7	0.01065012
24	0x3de48206	0.111576125
25	0x3e09a53d	0.1344194
26	0x3e49f0a7	0.19720708
27	0xbdc9b913	-0.09849753
28	0x3e606d01	0.21916582
29	0xbd63d6a1	-0.055624608
30	0x3dbc6dfd	0.09200666
31	0xbc12a85a	-0.008951271
32	0xbc81af12	-0.01583055
33	0xbc0be290	-0.008537903
34	0x3d7972fb	0.06090067
35	0x3de4996a	0.11162074
36	0xbe16fee9	-0.14745678
37	0x3e16bbee	0.14720127
38	0xbe24d3dd	-0.16096444
39	0x3c3703cf	0.011170342
40	0xbe367322	-0.17817357
41	0x3e6384c7	0.2221862
42	0x3e45f2d4	0.19330913
43	0x3dc4449f	0.09583401
44	0xbdb21d61	-0.0869701
45	0x3e2135ca	0.15743175
46	0xbde41328	-0.11136466
47	0xbdf42e3d	-0.11922882
48	0xbdc287a1	-0.094985254
49	0x3cf18913	0.029484307
50	0xbe064b37	-0.1311463
51	0x3e423f2b	0.18969409
52	0xbd134d82	-0.03596259
53	0x3d001e15	0.03127869
54	0xbe08050b	-0.13283174
55	0x3d4fd36a	0.05073873
56	0x3e4ca4a8	0.19984686
57	0xbac2e540	-0.0014869347
58	0xbddb7da4	-0.107173234
59	0xbdad0e04	-0.08449939
60	0x3ca22b14	0.019795932
61	0xbe575872	-0.21029833
62	0xbe3b6842	-0.1830149
63	0xbe196ceb	-0.14982955
64	0x3d402a55	0.04691537
65	0xbe63f447	-0.22261153
66	0x3e2cbd52	0.16869095
67	0xbd242dcd	-0.04008274
68	0xbd94cd4f	-0.07265722
69	0xbcdd5ecc	-0.027022742
70	0x3d0bc232	0.034120746
71	0xbd120c9f	-0.035656568
72	0xbe4ef0ab	-0.20208995
73	0x3e595b67	0.21226273
74	0x3b1c8e3b	0.0023888487
75	0x3da4436a	0.08020671
76	0xbe5e7505	-0.21724327
77	0xbd0d972f	-0.034568008
78	0x3c8de7ee	0.017322507
79	0x3e44cda9	0.19219078
80	0x3de50a22	0.11183573
81	0x3c51f80c	0.012815487
82	0xbdd5243d	-0.104073025
83	0x3e34fda6	0.17674884
84	0xbe370136	-0.17871556
85	0x3b47867c	0.003044515
86	0xbd986010	-0.074401975
87	0x3cd9ff5c	0.026611023
88	0xbe30c869	-0.1726395
89	0xbc6bb1a3	-0.014385614
90	0x3c2fc995	0.010729213
91	0xbdcc2935	-0.09968797
92	0xbd8553f2	-0.06510152
93	0x3d049d2f	0.032376464
94	0xbe56a1c2	-0.20960143
95	0xbbe62164	-0.0070230234
96	0x3d97591c	0.07390043
97	0xbe421d79	-0.18956555
98	0xbe3b844c	-0.18312186
99	0xbe2d9056	-0.16949591

network.2.bias f4 [5]
0	0xbd47ce4e	-0.04878073
1	0x3d93e468	0.072212994
2	0xbd2c4c0e	-0.04206472
3	0xbe490e2a	-0.1963431
4	0xbd57c819	-0.052681062

exp_avg f4 [20, 10]
0	0x3a81f334	0.0009914399
1	0xbbb03e39	-0.0053785113
2	0xbafe2e7f	-0.0019392519
3	0xbbff3dc8	-0.0077893473
4	0xbb055f69	-0.0020351058
5	0xbb477095	-0.0030432094
6	0xbc4510c9	-0.012027928
7	0xbaa4b095	-0.0012564833
8	0xb9b17c2f	-0.00033852595
9	0xbaebc706	-0.0017988391
10	0xbb48c417	-0.0030634457
11	0x3b16d64b	0.0023015912
12	0xba6c4abf	-0.00090138236
13	0xbb8ad53e	-0.004236846
14	0xba88514c	-0.0010400205
15	0x3bb42a3d	0.0054981993
16	0x3bd78712	0.006577381
17	0xbb4aa750	-0.003092248
18	0xbb9cdc48	-0.0047870018
19	0xba4ba9f3	-0.000776916
20	0xbb942e16	-0.0045220954
21	0x3b455b4c	0.0030114232
22	0x3aa4351b	0.0012528034
23	0xbb0c9718	-0.0021452364
24	0x3b295247	0.0025836395
25	0x3bd779e9	0.006575812
26	0x3b4ddd3b	0.0031412381
27	0xba978de4	-0.0011562672
28	0xbbd50d46	-0.0065018265
29	0xbc4be6f9	-0.012445205
30	0x3ab6918a	0.0013928872
31	0x3c41004d	0.011779857
32	0xbb804b8e	-0.003915257
33	0xba658a45	-0.00087562605
34	0x3b99fd7c	0.004699407
35	0x3b828ad7	0.003983836
36	0x3bced21b	0.0063116676
37	0xbb946982	-0.004529179
38	0x3ae5ef3e	0.0017542613
39	0xba5f5bb7	-0.00085204415
40	0xbae1a26d	-0.0017214544
41	0xba821037	-0.0009923045
42	0x3ba34d75	0.004983599
43	0x398c7259	0.00026788077
44	0xba70c501	-0.00091846293
45	0x3b27c7fd	0.002560138
46	0x3ab0b2dc	0.0013481039
47	0x3b62d5a8	0.0034612212
48	0xbab85096	-0.0014062102
49	0x3b27a4c3	0.0025580383
50	0xbb29ab91	-0.0025889615
51	0x3b44e257	0.0030042136
52	0x388cbb01	6.7105524e-05
53	0xb934ad53	-0.00017230706
54	0x3a3bfa4c	0.0007170781
55	0x3b0ff3f0	0.0021965466
56	0x3b8c0f1a	0.004274261
57	0xba87734f	-0.0010334047
58	0xbacf4157	-0.001581232
59	0x3b4ae6da	0.0030960352
60	0x3b87fde8	0.004150141
61	0xbb7d3172	-0.0038634208
62	0x3b830d50	0.0039993897
63	0x3c2ec8b5	0.0106679695
64	0xbb79e816	-0.0038132719
65	0x3ae82ce8	0.0017713578
66	0x3c0a05db	0.008424248
67	0x3c1aa747	0.009439296
68	0x39ba1143	0.00035489546
69	0xbb9189b6	-0.0044414653
70	0x3a8e91b7	0.0010877167
71	0x3a657f11	0.0008754591
72	0x3b0a2c4a	0.0021083527
73	0xbb6f2b58	-0.003649434
74	0x3bbd3945	0.0057746493
75	0xbae0b170	-0.0017142724
76	0xbb67def5	-0.0035380695
77	0x3a60929c	0.00085667684
78	0x3b259a84	0.00252691
79	0xbb8a0741	-0.0042122905
80	0xb899987e	-7.3240124e-05
81	0xbae84dc2	-0.0017723369
82	0x3baf2753	0.005345264
83	0x3b2bc152	0.0026207757
84	0x3b4877d6	0.0030589006
85	0x3b3df8c3	0.0028987385
86	0x3c009386	0.007847672
87	0xbb36fd9a	-0.0027922154
88	0xbb81f940	-0.0039664805
89	0x3a9f5c68	0.0012158277
90	0x3af88ba0	0.001896251
91	0x3b64cb83	0.0034911341
92	0xba181510	-0.00058014784
93	0xbb84c373	-0.0040516197
94	0x3b8e6080	0.004345
95	0x3a6198b3	0.0008605823
96	0xbabc4ba7	-0.0014365808
97	0x3aadcbab	0.001325955
98	0x3a1cd36a	0.0005982431
99	0xba1efe73	-0.00060651376
100	0x3baa954c	0.005205786
101	0xbad3f8b5	-0.0016172143
102	0x39881364	0.0002595439
103	0xba248246	-0.0006275516
104	0x3a907cb8	0.0011023497
105	0xba8bb465	-0.001065862
106	0xba99f771	-0.0011746717
107	0x3acdb3d3	0.0015693851
108	0xba827004	-0.0009951596
109	0x3b1bd378	0.0023777168
110	0xbb7d2a84	-0.0038630078
111	0x3b75ea49	0.0037523678
112	0x3a988b06	0.0011638112
113	0xbb88a8a1	-0.0041704928
114	0x3b9bf18b	0.004759019
115	0x3ad84720	0.0016500689
116	0x3b269c8d	0.0025422901
117	0x3b7e40d1	0.0038795958
118	0xbb851d1c	-0.004062308
119	0xbbc776ce	-0.0060871607
120	0xb913bb10	-0.00014088699
121	0xba0a298f	-0.0005270475
122	0x3b8d7b0d	0.0043176473
123	0xbbebf058	-0.007200282
124	0x3b700434	0.00366236
125	0x3c2f67cd	0.0107059
126	0x3b6f92d7	0.003655603
127	0xbb89ffb0	-0.0042113885
128	0x3b087d9e	0.0020826827
129	0xbb30e6ef	-0.0026993116
130	0x3a849af5	0.0010116982
131	0x39ad39e5	0.00033040266
132	0x3b7e9904	0.0038848529
133	0xbacb02f1	-0.0015488548
134	0xbabf2cc4	-0.0014585485
135	0xbb8db439	-0.0043244627
136	0xb9f26f25	-0.00046240646
137	0xba0609a9	-0.0005113134
138	0x3b7483a5	0.0037309912
139	0xba03f8c0	-0.000503432
140	0xb99bfb47	-0.0002975112
141	0xba9e415e	-0.0012073924
142	0x3b4d3683	0.003131301
143	0x3ba8ea51	0.005154886
144	0xba910927	-0.001106535
145	0x3b0133de	0.0019714753
146	0x3bf9af30	0.007619761
147	0x3b94bb07	0.004538897
148	0x3acc4e23	0.0015587251
149	0x3a5914b6	0.0008280979
150	0x3b06c5cf	0.002056468
151	0x3b924746	0.004464063
152	0x3b1c8f1f	0.0023889018
153	0x3b24c867	0.0025143863
154	0x3acb7000	0.001552105
155	0xbac3af60	-0.0014929585
156	0x3aa2ac6b	0.0012411004
157	0x3b661698	0.0035108682
158	0xbac2bd11	-0.0014857372
159	0xb91f3a73	-0.00015185196
160	0xbc04e211	-0.008110539
161	0x3bb1bbaa	0.0054239826
162	0xbaef54fd	-0.0018259581
163	0x3aafb69d	0.0013405863
164	0x37c51b41	2.3496921e-05
165	0xbb3e52a7	-0.0029040964
166	0xbb908aa9	-0.004411061
167	0xbc055fab	-0.008140485
168	0x3bb60275	0.005554492
169	0xbb1b77e5	-0.0023722586
170	0x3759e1e1	1.2986799e-05
171	0x3a0a696c	0.00052799913
172	0x3b8b92d2	0.0042594457
173	0x3aa1d2cd	0.0012346149
174	0x3aba4988	0.0014212588
175	0x3c35eb57	0.011103473
176	0x3b7f9590	0.0038999058
177	0xbbbc2043	-0.0057411506
178	0xbb9625eb	-0.004582157
179	0x3b822041	0.00397113
180	0xba9b9363	-0.0011869486
181	0xbc5e8261	-0.013580889
182	0xb91c341e	-0.00014896735
183	0x3ae27f1c	0.0017280313
184	0xbac86fea	-0.0015292142
185	0xba3e4a5a	-0.0007259004
186	0xbbba1a74	-0.005679423
187	0x3ba1662d	0.0049255104
188	0x3ba61bfc	0.005069254
189	0x3c1e3ef3	0.009658563
190	0x3b8ff568	0.0043932684
191	0xbc11c672	-0.008897411
192	0x3b3b28dc	0.002855829
193	0x3bfe6925	0.007763999
194	0xbb515720	-0.00319428
195	0x3a59effe	0.00083136547
196	0x3b9d9770	0.0048093125
197	0x3befdfb3	0.007320368
198	0xb9cae7fb	-0.0003870128
199	0x3ba34602	0.004982711

exp_avg_sq f4 [20, 10]
0	0x36aab7d2	5.0877943e-06
1	0x368b5a00	4.153e-06
2	0x34e678d8	4.2928764e-07
3	0x368326a6	3.9086035e-06
4	0x360420b0	1.968856e-06
5	0x35255090	6.1584524e-07
6	0x37216d4b	9.621795e-06
7	0x36a01d41	4.771777e-06
8	0x34d345fc	3.9352733e-07
9	0x35df3e9a	1.6633014e-06
10	0x35364ab6	6.7909e-07
11	0x35023e72	4.8519644e-07
12	0x35265820	6.196806e-07
13	0x358701c6	1.00588e-06
14	0x3516f9ec	5.624304e-07
15	0x367d617f	3.7756688e-06
16	0x3664d941	3.4101106e-06
17	0x35ed43ed	1.7677645e-06
18	0x36580f5d	3.219545e-06
19	0x3477d6ee	2.3081859e-07
20	0x37171750	9.005729e-06
21	0x37e6dfb9	2.7522316e-05
22	0x35bee41f	1.4222495e-06
23	0x36091850	2.0428743e-06
24	0x362ccf9f	2.5750849e-06
25	0x36cd385e	6.116038e-06
26	0x35eadbc7	1.7498322e-06
27	0x36800214	3.814939e-06
28	0x36516a04	3.1205136e-06
29	0x370baf28	8.325827e-06
30	0x3617ab4d	2.2600464e-06
31	0x3700da2c	7.680192e-06
32	0x358a073c	1.0283907e-06
33	0x35128f1d	5.4597496e-07
34	0x3629bbb4	2.529222e-06
35	0x3602582d	1.9422835e-06
36	0x36b3cee3	5.3587005e-06
37	0x3698bbd9	4.5518213e-06
38	0x361002ee	2.1459377e-06
39	0x36000707	1.9077577e-06
40	0x34f182b2	4.4984841e-07
41	0x33b3c122	8.370468e-08
42	0x3643fa98	2.920313e-06
43	0x31a1780d	4.699365e-09
44	0x330a934c	3.2264595e-08
45	0x357f0458	9.5001224e-07
46	0x346a6805	2.183079e-07
47	0x359ba5b2	1.1596624e-06
48	0x34dc04d4	4.0981706e-07
49	0x352fd88f	6.5507714e-07
50	0x3578c00a	9.2666653e-07
51	0x35513427	7.793446e-07
52	0x34c1b92b	3.608378e-07
53	0x34e74039	4.307383e-07
54	0x35703945	8.9490305e-07
55	0x34cbaba0	3.793657e-07
56	0x35d687ee	1.5983803e-06
57	0x34d72903	4.007671e-07
58	0x3486966b	2.5068888e-07
59	0x3528a23a	6.282095e-07
60	0x3686ff47	4.0232294e-06
61	0x3652c859	3.1409056e-06
62	0x359641da	1.1195036e-06
63	0x36ab6da6	5.108962e-06
64	0x359c1b37	1.1630826e-06
65	0x3516a08c	5.611298e-07
66	0x3713bcd6	8.80585e-06
67	0x36c3d394	5.836084e-06
68	0x35929d3b	1.0923608e-06
69	0x35b16b8e	1.321883e-06
70	0x346d49cf	2.2099196e-07
71	0x346b39b4	2.1907073e-07
72	0x3501400f	4.814946e-07
73	0x3582e890	9.753439e-07
74	0x35e5e014	1.7127045e-06
75	0x350aa284	5.16455e-07
76	0x35637a98	8.474249e-07
77	0x353b00c2	6.966403e-07
78	0x354234a2	7.234722e-07
79	0x3580579f	9.562244e-07
80	0x362b341a	2.5511313e-06
81	0x357e9466	9.483832e-07
82	0x36825ace	3.884873e-06
83	0x35850c61	9.912875e-07
84	0x35b1dcd1	1.3251794e-06
85	0x3680f8a5	3.8436433e-06
86	0x36956d9c	4.4533062e-06
87	0x36e904c6	6.944497e-06
88	0x36a123d1	4.8023435e-06
89	0x346f7ad9	2.2303301e-07
90	0x34b43a98	3.3570245e-07
91	0x3604cf5b	1.979023e-06
92	0x34a90e90	3.14893e-07
93	0x3582d74c	9.748414e-07
94	0x35695aa1	8.6931146e-07
95	0x3494be16	2.7705454e-07
96	0x35898fd5	1.0249156e-06
97	0x34d49aeb	3.9600795e-07
98	0x34978a89	2.822674e-07
99	0x34caa56e	3.7745798e-07
100	0x363277e0	2.6593843e-06
101	0x36499580	3.0038354e-06
102	0x342b9865	1.5981057e-07
103	0x359ead8d	1.1822427e-06
104	0x359d6e73	1.1729556e-06
105	0x359b8ecd	1.158996e-06
106	0x35534a6d	7.871193e-07
107	0x35e013e3	1.6695088e-06
108	0x340b4ad7	1.297261e-07
109	0x35803db8	9.554706e-07
110	0x3673d34d	3.6332815e-06
111	0x36d7ba9a	6.4292226e-06
112	0x359fcbb0	1.1905704e-06
113	0x354eddda	7.7063817e-07
114	0x36873376	4.0293044e-06
115	0x35b58d3d	1.3526657e-06
116	0x35a5e36c	1.2359646e-06
117	0x3723a990	9.755036e-06
118	0x35af7421	1.3072314e-06
119	0x36018d30	1.930468e-06
120	0x3518d702	5.693729e-07
121	0x358d0ce6	1.0509073e-06
122	0x36245355	2.448641e-06
123	0x3678c6db	3.707063e-06
124	0x359b0229	1.1549029e-06
125	0x37129fc2	8.739475e-06
126	0x35982a81	1.1337253e-06
127	0x36ac72bf	5.1393577e-06
128	0x34aa6815	3.1740697e-07
129	0x35002b9b	4.774717e-07
130	0x35c1b369	1.4431836e-06
131	0x35f8d1ae	1.8538465e-06
132	0x35c5707f	1.4710384e-06
133	0x352f2ea1	6.5260434e-07
134	0x355ea3d6	8.293986e-07
135	0x3701746d	7.716107e-06
136	0x3538dea6	6.886934e-07
137	0x36d88b93	6.45355e-06
138	0x365053a3	3.1043098e-06
139	0x3649a713	3.0048584e-06
140	0x35bb4b23	1.3954453e-06
141	0x3505e0ee	4.9873677e-07
142	0x353d1558	7.0439046e-07
143	0x35e1449f	1.6783778e-06
144	0x347649ce	2.2937385e-07
145	0x3484a23e	2.4704963e-07
146	0x369164ee	4.3330865e-06
147	0x36491377	2.9962664e-06
148	0x3556b84f	7.9989417e-07
149	0x33e79899	1.0784533e-07
150	0x355a52ef	8.133201e-07
151	0x355452a0	7.909639e-07
152	0x35405c8d	7.1660253e-07
153	0x356da98f	8.853612e-07
154	0x3527d221	6.2518126e-07
155	0x3595e386	1.1167583e-06
156	0x35c54756	1.4698405e-06
157	0x36398a40	2.764762e-06
158	0x354dd821	7.668296e-07
159	0x35027f42	4.861396e-07
160	0x36a3ec7b	4.8853085e-06
161	0x36ba13ee	5.545552e-06
162	0x360ba9d6	2.0811472e-06
163	0x35f25383	1.805471e-06
164	0x34f347e3	4.5314582e-07
165	0x3680bdaf	3.8367793e-06
166	0x369f6406	4.7502135e-06
167	0x36bdefd7	5.66056e-06
168	0x36895af3	4.093506e-06
169	0x3657089e	3.2042512e-06
170	0x344d0b6f	1.9096272e-07
171	0x35516ec4	7.801975e-07
172	0x35647e7b	8.512067e-07
173	0x35f2e32d	1.8096522e-06
174	0x3493c770	2.7525994e-07
175	0x370eed86	8.519162e-06
176	0x356d73c7	8.845786e-07
177	0x36c2c6a4	5.8047754e-06
178	0x35d80029	1.6093301e-06
179	0x35f23988	1.8047149e-06
180	0x35e542b1	1.7081239e-06
181	0x371f09d9	9.479431e-06
182	0x368034c4	3.82084e-06
183	0x3605a3d4	1.9913905e-06
184	0x34d1f3d2	3.9106686e-07
185	0x35e2c135	1.6894543e-06
186	0x36d5375b	6.354339e-06
187	0x369c01e2	4.6493815e-06
188	0x36367919	2.7190601e-06
189	0x36f8129d	7.393143e-06
190	0x360bb6cb	2.0819014e-06
191	0x36b0abb8	5.2651994e-06
192	0x35cc8281	1.5237166e-06
193	0x3698d8df	4.5552e-06
194	0x3642272e	2.8931058e-06
195	0x35047900	4.934991e-07
196	0x3700b0f5	7.670596e-06
197	0x3712925e	8.736357e-06
198	0x35536bbb	7.8760394e-07
199	0x35dace17	1.6302246e-06

exp_avg f4 [20]
0	0xba98484f	-0.0011618229
1	0x3b0473f2	0.002021071
2	0x3b48e014	0.003065114
3	0x3b5a34af	0.0033295562
4	0xbb1380b4	-0.0022507133
5	0x3b5c1977	0.0033584514
6	0x3c14938b	0.00906838
7	0x3755e9c4	1.2750217e-05
8	0x3a2a3831	0.00064933585
9	0x3b0857fb	0.0020804394
10	0x3b655cf1	0.0034998024
11	0xbada41b2	-0.0016651659
12	0x3ba6cee9	0.0050905836
13	0xb9bc2554	-0.00035885966
14	0x3b5739bc	0.003284081
15	0x3b2f9693	0.002679263
16	0xbbe51367	-0.0069908383
17	0x3c178883	0.0092488555
18	0x3a43a244	0.0007462839
19	0x3b99a983	0.004689397

exp_avg_sq f4 [20]
0	0x365801d3	3.218757e-06
1	0x34fc9a9e	4.7051157e-07
2	0x371dc90f	9.404742e-06
3	0x3554609d	7.9116745e-07
4	0x3530b995	6.5835167e-07
5	0x35885a1b	1.0159014e-06
6	0x3678bc34	3.7064428e-06
7	0x3568843d	8.6619167e-07
8	0x3654f2bd	3.1731754e-06
9	0x353cc88e	7.0327303e-07
10	0x35dfa5ae	1.6663014e-06
11	0x366f32ad	3.5643272e-06
12	0x35b1cfc4	1.3247995e-06
13	0x35b54ec6	1.3508477e-06
14	0x35fab96a	1.8680414e-06
15	0x36156cb3	2.2266001e-06
16	0x36738cf9	3.6291879e-06
17	0x3650b1fe	3.109802e-06
18	0x367fd30a	3.8120802e-06
19	0x368574fa	3.9773267e-06

exp_avg f4 [5, 20]
0	0xba2de20c	-0.000663311
1	0x3c166c36	0.009181073
2	0x3c2e881d	0.010652569
3	0x3c91b661	0.01778716
4	0x3bbde705	0.005795362
5	0xbb8d8163	-0.0043184026
6	0x3c12ceab	0.008960406
7	0x3a391d9f	0.0007061604
8	0x3c63b60c	0.013898384
9	0x3cc3d27b	0.023904076
10	0x3ac72ab9	0.0015195227
11	0x3c8b7f98	0.017028615
12	0x3af80f61	0.0018925482
13	0x3c55405b	0.013015832
14	0x3c05dfa7	0.008170999
15	0x3be64c0b	0.007028108
16	0xbb8e7f8e	-0.004348702
17	0x3b09a69a	0.0021003843
18	0x3bf48f89	0.0074634
19	0x3c2c1a23	0.010504278
20	0x3b246c14	0.0025088834
21	0x3b2118bc	0.0024581393
22	0x3bfa2ed3	0.0076349764
23	0x3a5979fc	0.000829607
24	0xbc5dff60	-0.013549656
25	0x3c048752	0.0080889035
26	0x3c69a275	0.014259924
27	0xbab19b77	-0.001355036
28	0xbc685b4e	-0.014181925
29	0x3bfac22d	0.007652542
30	0xbb7a320f	-0.003817681
31	0xbc150579	-0.009095543
32	0x3aba75d4	0.0014225789
33	0x3b5274c1	0.0032113048
34	0x3b6d6e3a	0.003622903
35	0x3c78bcc8	0.015181728
36	0x3aa7dcca	0.0012806889
37	0xbc214e90	-0.009845391
38	0x3ae22df8	0.0017256131
39	0x3b7def70	0.0038747452
40	0xbcc63d52	-0.024199162
41	0xbb04feed	-0.002029355
42	0xba82ffd9	-0.0009994461
43	0xbaa98036	-0.0012931887
44	0xbc3a6a26	-0.011377847
45	0x3a33e1f1	0.0006861976
46	0x3be21f69	0.006900717
47	0x3b01eea1	0.0019826072
48	0xbc077400	-0.008267403
49	0x39abc5dc	0.00032763078
50	0xbc9e965c	-0.019358806
51	0xbc3ff7b3	-0.011716771
52	0xbaf58886	-0.0018732704
53	0xbc09c13f	-0.00840789
54	0x3b9f3ed0	0.0048597828
55	0xbb9f3e01	-0.0048596864
56	0xbc84dbd8	-0.01621811
57	0xbc683dda	-0.014174903
58	0xbbcdc4b6	-0.0062795533
59	0xbb6656ce	-0.0035146954
60	0x3abd5b14	0.0014446699
61	0xbc896e72	-0.016776297
62	0xbbef7d3c	-0.0073086303
63	0xbc3a59f3	-0.011373985
64	0xbb39f3cd	-0.0028374076
65	0xbb1b746b	-0.0023720514
66	0x3bd68bd0	0.0065474287
67	0xb9eaadaa	-0.00044761348
68	0x3b6c000e	0.0036010775
69	0xbcfb34fa	-0.03066491
70	0x3a2dd307	0.0006630872
71	0x39aa6ef5	0.00032507596
72	0xbb66fe8e	-0.0035246941
73	0xbb9c2e47	-0.004766259
74	0xbb83c3fa	-0.004021165
75	0xbc24917d	-0.010044453
76	0xbb3245e4	-0.0027202303
77	0x3a3d8c57	0.000723069
78	0xbaa614cc	-0.0012670993
79	0x3afb8f9b	0.0019192578
80	0xbc786626	-0.015161073
81	0x3a4a1d80	0.00077100843
82	0xbc902b3f	-0.017598746
83	0x3afb8bc5	0.0019191435
84	0xbb8a742e	-0.0042252755
85	0x3ba99d6a	0.005176236
86	0xbc86748d	-0.016412998
87	0x3bea3f22	0.0071486393
88	0x3b8f6062	0.0043755034
89	0xbca2fe19	-0.019896554
90	0x3b9d3208	0.004797224
91	0xbc34580a	-0.011007318
92	0xba8e8a5b	-0.0010874973
93	0xbb5a241b	-0.003328568
94	0x38b40c86	8.5854015e-05
95	0xbafd0cc4	-0.0019306173
96	0xbbb8de97	-0.005641769
97	0xbcc034bb	-0.023462644
98	0xbc4e140a	-0.01257802
99	0xbc8c8eab	-0.017157873

exp_avg_sq f4 [5, 20]
0	0x379b1f26	1.8491945e-05
1	0x37b3e93a	2.1447067e-05
2	0x37d4ae57	2.5353553e-05
3	0x37a90e97	2.0153164e-05
4	0x36224e16	2.4185333e-06
5	0x35c5380a	1.4693953e-06
6	0x36e0fe1f	6.705304e-06
7	0x35647392	8.5104796e-07
8	0x376c3788	1.40796255e-05
9	0x38a469a9	7.83981e-05
10	0x3763b9e3	1.35735345e-05
11	0x38025229	3.1070933e-05
12	0x36ce9afe	6.157322e-06
13	0x373eb1fd	1.1366324e-05
14	0x3690a23e	4.310422e-06
15	0x36611392	3.3539004e-06
16	0x3793c823	1.7616961e-05
17	0x375b42ce	1.3068971e-05
18	0x374f9d32	1.2374761e-05
19	0x3727f896	1.0011854e-05
20	0x3654edcf	3.1728885e-06
21	0x3552fff0	7.8603534e-07
22	0x36cbba76	6.0715784e-06
23	0x36357ee2	2.7044957e-06
24	0x3709dfb0	8.217918e-06
25	0x365304d6	3.1444265e-06
26	0x376ede9e	1.4237738e-05
27	0x36ae96d5	5.2031633e-06
28	0x388334b8	6.2563864e-05
29	0x36972ce2	4.5053757e-06
30	0x3600589d	1.9125066e-06
31	0x3746025e	1.1802271e-05
32	0x360ad3e8	2.0686948e-06
33	0x37397e81	1.1056313e-05
34	0x35c97fd8	1.5012874e-06
35	0x373f4bed	1.1402165e-05
36	0x340c54dd	1.3069389e-07
37	0x375054cc	1.2417509e-05
38	0x3625813c	2.466214e-06
39	0x35b89b04	1.3754184e-06
40	0x37c7d3b6	2.3821234e-05
41	0x353f8505	7.1346614e-07
42	0x373586fb	1.0819868e-05
43	0x356e1cf0	8.870402e-07
44	0x36a6ec3e	4.9746877e-06
45	0x34b84417	3.4322213e-07
46	0x37fd3386	3.0183943e-05
47	0x360b716a	2.077863e-06
48	0x38048c63	3.1601998e-05
49	0x3757622f	1.2837859e-05
50	0x37a472df	1.9603815e-05
51	0x380c21a5	3.3409935e-05
52	0x35a1d83d	1.2058368e-06
53	0x37a70da0	1.9914296e-05
54	0x364c9533	3.0485214e-06
55	0x36845eb1	3.94493e-06
56	0x3760d4a8	1.3400953e-05
57	0x3729bedf	1.0117626e-05
58	0x3718de29	9.111632e-06
59	0x37e43e1c	2.720864e-05
60	0x378afd3d	1.6568805e-05
61	0x37adecb6	2.0733434e-05
62	0x37f38ebd	2.9034325e-05
63	0x37494960	1.1997618e-05
64	0x34cf3d17	3.8601203e-07
65	0x3675b4ee	3.661316e-06
66	0x372ffaf0	1.0489239e-05
67	0x3699450a	4.5677925e-06
68	0x36d1f472	6.2571426e-06
69	0x382f7f57	4.1841846e-05
70	0x37168407	8.971437e-06
71	0x376e4eaa	1.4204221e-05
72	0x35e6d838	1.7199263e-06
73	0x364178dc	2.882959e-06
74	0x35b0cf86	1.3173419e-06
75	0x37447e29	1.1711884e-05
76	0x3772689b	1.4448679e-05
77	0x378879de	1.6269212e-05
78	0x378ade30	1.6554346e-05
79	0x36e6b774	6.875891e-06
80	0x380472b0	3.1578063e-05
81	0x34c28c05	3.6237194e-07
82	0x387df895	6.055141e-05
83	0x35f6ff64	1.8402757e-06
84	0x360c8b93	2.0942869e-06
85	0x363a6cb5	2.7779436e-06
86	0x38985f4b	7.2656745e-05
87	0x365e0e81	3.308902e-06
88	0x37f8dc5f	2.9666522e-05
89	0x37f3c68a	2.906031e-05
90	0x379507f5	1.776589e-05
91	0x3886148c	6.393445e-05
92	0x35bc83e9	1.4045482e-06
93	0x36d7cc66	6.4312944e-06
94	0x364f66b3	3.0905182e-06
95	0x37187682	9.087498e-06
96	0x37c5c652	2.357658e-05
97	0x37dff52d	2.669784e-05
98	0x3819fccd	3.671348e-05
99	0x388d987d	6.751807e-05

exp_avg f4 [5]
0	0x3d010ed2	0.031508274
1	0x3c8e3260	0.017358005
2	0xbc596910	-0.013269678
3	0xbc87ea7f	-0.016591309
4	0xbcbc5409	-0.02298929

exp_avg_sq f4 [5]
0	0x38d05cfb	9.935532e-05
1	0x37d881fe	2.5809739e-05
2	0x388ba498	6.6586945e-05
3	0x38002ccf	3.055931e-05
4	0x393e3a5c	0.00018141553
