checkpoints/epoch=0-step=4-v3.ckpt (torch, 11504 bytes, 12 tensors)

network.0.weight f4 [20, 10]
0	0x3e380e67	0.17974244
1	0x3e90d3c4	0.28286564
2	0x3e61cba8	0.22050345
3	0x3e30313c	0.17206281
4	0xbd136d75	-0.03599306
5	0x3bdfe6d6	0.0068329377
6	0xbe4b41dc	-0.19849342
7	0x3e6c721e	0.23090407
8	0xbbd6ab9f	-0.0065512205
9	0xbd308655	-0.04309686
10	0x3e9cfbbc	0.30660808
11	0xbe761df7	-0.24034868
12	0xbe42c477	-0.19020258
13	0xbe79839d	-0.24366613
14	0x3e03dbcc	0.12876815
15	0x3e7eab78	0.24870098
16	0xbc82e04c	-0.015976094
17	0xbbe38622	-0.00694348
18	0x3d1729ac	0.036904976
19	0x3d047935	0.032342155
20	0x3e114a5d	0.14188524
21	0xbdae4152	-0.085085526
22	0xbe5ab31d	-0.21357389
23	0xbd91e4f1	-0.07123745
24	0x3e860cc9	0.2618163
25	0x3d46232d	0.04837339
26	0x3e9183e4	0.28420937
27	0xbdbe773a	-0.093000844
28	0xbd81829e	-0.063237414
29	0xbca0989e	-0.019604024
30	0xbe9c2fec	-0.3050531
31	0x3e0ef6e7	0.13961373
32	0x3cb81523	0.022471016
33	0x3e9d7588	0.30753732
34	0x3de205c5	0.11036257
35	0xbc3e7522	-0.011624606
36	0xbe8faf24	-0.2806331
37	0x3e533236	0.20624623
38	0xbdbc10a4	-0.091828614
39	0xbb84c5fd	-0.0040519224
40	0x3e8b4105	0.27198043
41	0x3e7ada6c	0.24497384
42	0xbd699b60	-0.057032943
43	0x3e1165f0	0.14199042
44	0x3e2a5305	0.16633232
45	0xbdce5f92	-0.10076822
46	0x3e9270e0	0.28601742
47	0xbe8f8113	-0.28028163
48	0xbe4dbf14	-0.20092422
49	0x3e849c36	0.2590043
50	0x3e48ecd1	0.19621588
51	0xbd6e207a	-0.05813644
52	0x3e505205	0.20343788
53	0xbd9f2ca0	-0.077721834
54	0xbe97a2ac	-0.29616296
55	0xbe709744	-0.23495203
56	0x3e960bca	0.2930587
57	0xbe6ef039	-0.23333825
58	0xbe158ae9	-0.14603771
59	0xbbe318fc	-0.0069304686
60	0xbe9e652b	-0.3093656
61	0xbe95b043	-0.2923604
62	0x3e3fe676	0.18740258
63	0x3e60ab35	0.2194031
64	0xbe962c19	-0.2933052
65	0xbea23a47	-0.31685087
66	0x3c673976	0.014112821
67	0x3e0538e4	0.13009983
68	0x3c830e00	0.015997887
69	0x3de680ca	0.11255033
70	0x3e4c03a9	0.19923271
71	0xbc826bfe	-0.015920635
72	0x3e63b55d	0.22237153
73	0x3e9a2998	0.3010986
74	0x3e0435dc	0.1291117
75	0x3e298f0e	0.16558477
76	0xbb9a9dc0	-0.0047185123
77	0x3c9a0a4d	0.01880374
78	0xbe962713	-0.29326686
79	0xbd9ca38e	-0.07648383
80	0x3d2a697f	0.041604515
81	0x3e698749	0.22805513
82	0x3b949c3f	0.0045352275
83	0x3ea081b8	0.31348968
84	0x3daed84f	0.08537351
85	0x3e873487	0.26407263
86	0x3da72897	0.08162039
87	0x3e9496f5	0.2902142
88	0xbe0de5ba	-0.13857165
89	0x3dd7a0e7	0.105287366
90	0xbe376fac	-0.17913693
91	0x3d5b5880	0.053551197
92	0x3de06c02	0.10958101
93	0xbe7c7519	-0.24654044
94	0xbe1373c2	-0.14399627
95	0xbe6a036c	-0.22852868
96	0x3e85d680	0.26140213
97	0xbdd1c5aa	-0.102427796
98	0xbd9adace	-0.07561265
99	0x3e2a63a9	0.1663958
100	0x3e44267e	0.19155309
101	0x3dc10a74	0.09425822
102	0xbd94915c	-0.072542876
103	0xbe978b21	-0.29598334
104	0xbd77ad4e	-0.06046801
105	0x3e147f13	0.145016
106	0x3e12f0c4	0.14349657
107	0x3e718f52	0.23589829
108	0x3cf2cdc2	0.029639129
109	0x3dc74c62	0.09731366
110	0x3e987cb9	0.29782656
111	0xbdefc510	-0.117075086
112	0x3e97cad9	0.29646948
113	0x3e992b91	0.2991605
114	0xbe85bd46	-0.26120967
115	0xbe799ad7	-0.24375473
116	0xbe98180f	-0.29705855
117	0x3da9d6c6	0.08292918
118	0x3db6193d	0.088915326
119	0xbe32fab5	-0.1747845
120	0x3e8648bb	0.26227364
121	0x3df985cd	0.121837236
122	0xbe766027	-0.24060117
123	0x3e321195	0.1738952
124	0x3e7d9d11	0.24766947
125	0x3e9e176b	0.30877241
126	0x3e753533	0.23946075
127	0x3df21a58	0.11821431
128	0xbb67b39c	-0.0035354858
129	0x3e3ee062	0.18640283
130	0x3e191153	0.14948015
131	0xbe4c1767	-0.19930802
132	0xbdf698df	-0.120408766
133	0xbe4b7d02	-0.19871905
134	0xbd20b847	-0.03923824
135	0xbdc2efd2	-0.09518398
136	0xbdbbd889	-0.0917216
137	0x3da77ecb	0.08178481
138	0x3e307d08	0.17235196
139	0xbd00b1f0	-0.031419694
140	0x3b4c46d0	0.0031170137
141	0x3dea3593	0.11436
142	0x3e95b432	0.2923904
143	0xbb93763b	-0.004500178
144	0xbe50317f	-0.20331381
145	0xbda5106c	-0.08059773
146	0x3e199e3c	0.15001768
147	0x3e627c5a	0.22117749
148	0x3e898599	0.2685974
149	0x3e81422a	0.25245792
150	0xbe5bb372	-0.21455172
151	0x3d1fc2be	0.03900408
152	0xbd9ad586	-0.075602576
153	0x3e9ae4ba	0.3025263
154	0x3e14bb19	0.14524497
155	0xbe793129	-0.2433516
156	0xbcb40818	-0.021976516
157	0xbc86bb7d	-0.016446823
158	0xbe5ebd6a	-0.21751943
159	0x3e193ba0	0.14964151
160	0x3e7aa76f	0.24477933
161	0x3d46a6af	0.048498806
162	0x3dfc8603	0.12330248
163	0xbde1f6c4	-0.11033395
164	0x3e625d62	0.22105935
165	0x3d618fa9	0.055068646
166	0x3e62ba06	0.22141275
167	0x3e4fbb8f	0.20286392
168	0xbdb7ea94	-0.08980289
169	0x3dc2ad3c	0.09505698
170	0xbde571c7	-0.11203342
171	0xbe57b06e	-0.21063396
172	0xbe284bab	-0.16435115
173	0xbe7b52b6	-0.2454327
174	0x3ced46a6	0.028964352
175	0xbe5e850b	-0.2173044
176	0xbe43103c	-0.19049162
177	0x3e8c7fb0	0.27441168
178	0x3da6aa72	0.081379786
179	0xbd5f34f3	-0.054493856
180	0xbe9e08a9	-0.30865982
181	0xbe8068f1	-0.25080064
182	0x3d2ac817	0.041694727
183	0x3e418ba3	0.18900923
184	0x3e03ef54	0.12884265
185	0xbe38e459	-0.18055858
186	0x3e305ef1	0.17223717
187	0xbd12836b	-0.03576986
188	0xbd8d9132	-0.069124594
189	0xbe90dfa3	-0.2829562
190	0xbe296439	-0.16542138
191	0x3e4c7848	0.19967759
192	0x3e88bf88	0.26708627
193	0xbe8f07ad	-0.27935544
194	0x3e3033cf	0.17207263
195	0x3e366c19	0.17814673
196	0xbe15a57b	-0.14613907
197	0xbe9758bb	-0.29559883
198	0xbe4d95aa	-0.20076624
199	0x3db14337	0.08655398

network.0.bias f4 [20]
0	0xbd3f01f5	-0.046632726
1	0xbcdc14fc	-0.026865475
2	0x3e45d52a	0.19319597
3	0xbe213867	-0.15744172
4	0x3e76a60a	0.24086776
5	0xbddbff18	-0.10742015
6	0x3e207b20	0.15671968
7	0x3e93edcf	0.2889237
8	0x3d2d4df9	0.04231069
9	0x3dbe4d26	0.09292059
10	0xbdf6b376	-0.12045948
11	0xbdf339f7	-0.1187629
12	0x3cac313c	0.02101957
13	0x3e818586	0.25297183
14	0xbe99b970	-0.3002429
15	0x3e00c0c3	0.12573533
16	0x3da62f8f	0.0811454
17	0xbe3097c1	-0.1724539
18	0xbe450f0e	-0.19244024
19	0xbe625667	-0.22103272

network.2.weight f4 [5, 20]
0	0x3d1f738f	0.038928565
1	0x3cec6e4b	0.028861186
2	0x3e57b807	0.21066295
3	0xbe3b6a82	-0.18302348
4	0x3d046095	0.03231867
5	0x3df5fb81	0.12010861
6	0xbe42219f	-0.18958138
7	0x3e2b333c	0.16718763
8	0xbd9d5302	-0.07681848
9	0xbe1697b9	-0.14706315
10	0x3dd60070	0.10449302
11	0x3d9494ca	0.07254942
12	0xbe12d54a	-0.14339176
13	0x3e2f77eb	0.17135589
14	0xbd2d0cbd	-0.042248476
15	0xbe2c9084	-0.16852003
16	0x3e55b016	0.20867953
17	0xbcfcb4cb	-0.030847928
18	0x3e18fc67	0.14940034
19	0x3bf6d146	0.0075322716
20	0x3cbf2ef7	0.023337824
21	0x3e5335d1	0.20625998
22	0x3e36c922	0.17850164
23	0xbdab4831	-0.08363379
24	0x3c84947a	0.01618408
25	0x3e1da146	0.15393552
26	0xbd0977ad	-0.033561397
27	0xbd42a5c5	-0.04752137
28	0xbd1fc9dd	-0.03901087
29	0xbe1eeb43	-0.15519433
30	0xbdbc0862	-0.091812864
31	0xbe4d602b	-0.20056216
32	0xbdd5c1ec	-0.10437378
33	0xbd54d121	-0.051957253
34	0x3d6da89d	0.05802213
35	0x3e33e8c8	0.17569268
36	0xbdf27332	-0.11838378
37	0xbd66ebfb	-0.056377392
38	0x3e4f0fc3	0.20220856
39	0x3b577816	0.0032877973
40	0xbdc5fa97	-0.09666937
41	0xbd76ef7e	-0.06028699
42	0x3d83ab0b	0.06429108
43	0xbd163b13	-0.03667743
44	0xbd5aebe5	-0.053447623
45	0xbc3ed1f3	-0.0116467355
46	0x3e157194	0.14594108
47	0xbe49000b	-0.19628923
48	0xbd328649	-0.043585096
49	0x3d494356	0.049136482
50	0xbd7ba1de	-0.061433665
51	0xbe0c8270	-0.13721633
52	0x3e54a837	0.20767294
53	0x3e5e8026	0.21728572
54	0x3db84d29	0.08999092
55	0xbd87fc5a	-0.06639929
56	0x3d807d35	0.06273881
57	0xbd63f432	-0.055652805
58	0x3dd1320e	0.10214625
59	0x3d567ba7	0.052364018
60	0xbe426c8e	-0.18986723
61	0xbd0d3229	-0.034471665
62	0x3c835fe5	0.016036937
63	0xbe46be69	-0.19408573
64	0xbe442a36	-0.19156727
65	0xbd0311ba	-0.031999327
66	0xbe240a0f	-0.16019462
67	0x3e1f5719	0.15560569
68	0xbd6ee4b1	-0.058323566
69	0xbd2cfdb3	-0.042234134
70	0xbe3a9d74	-0.18224126
71	0x3e040faa	0.128966
72	0x3dc55eb2	0.09637202
73	0x3d43602f	0.04769915
74	0xbd3588e4	-0.044320002
75	0x3e3daebc	0.18523687
76	0x3d47d1a7	0.048783924
77	0x3e4a724a	0.1977016
78	0x3def9bb8	0.11699623
79	0xbd337b83	-0.04381896
80	0xbe07284a	-0.13198963
81	0xbe573659	-0.21016826
82	0x3d2ba8a5	0.04190888
83	0x3db039e2	0.0860479
84	0xbd6a2d0f	-0.057171877
85	0xbd41b580	-0.047292233
86	0x3e0472dd	0.12934442
87	0xbe206112	-0.1566203
88	0x3d07cfd5	0.03315719
89	0x3de1faf4	0.11034194
90	0xbe172352	-0.14759567
91	0xbe567b66	-0.2094551
92	0xbd69a341	-0.057040457
93	0x3d7d5808	0.06185153
94	0x3c03e720	0.00805071
95	0xbde13304	-0.109960586
96	0xbdb57f4e	-0.08862172
97	0x3b724f31	0.0036973471
98	0x3e4ec2ec	0.20191544
99	0xbe36b6e9	-0.17843212

network.2.bias f4 [5]
0	0x3deb7bda	0.11498232
1	0xbd6b4391	-0.057437483
2	0x3e1e7afa	0.154766
3	0x3d12a56f	0.0358023
4	0x3d4dbd7a	0.050229527

exp_avg f4 [20, 10]
0	0x3b4cf38e	0.00312731
1	0x3ab13a4d	0.0013521403
2	0x3bbfc9f0	0.0058529302
3	0xba9a8e62	-0.0011791701
4	0xbaf01528	-0.0018316852
5	0xbb715d11	-0.0036829154
6	0xba940b88	-0.001129494
7	0xbace0c0d	-0.0015720144
8	0xbb32a763	-0.0027260415
9	0x3b7533df	0.003741495
10	0x3c1f198f	0.0097106835
11	0x3bb1c904	0.0054255743
12	0x3a5cf538	0.00084288744
13	0xba718f22	-0.0009214749
14	0xbaa5b774	-0.0012643174
15	0x3b142360	0.0022604093
16	0xbbceba1a	-0.006308806
17	0x3b964a11	0.004586466
18	0x3a14ae23	0.00056717003
19	0x3990c1b2	0.00027610135
20	0x3b0e504b	0.0021715339
21	0x3b6c9207	0.0036097781
22	0xbb085720	-0.0020803884
23	0xba1e9928	-0.0006050044
24	0x3b482f5b	0.0030545804
25	0xbb0230c1	-0.0019865485
26	0x3acbcde6	0.0015549033
27	0x39e95ed5	0.00044511879
28	0xbaeafb07	-0.0017927595
29	0x3b9edbcd	0.0048479796
30	0xba3dc608	-0.0007239287
31	0x3b90eb0e	0.004422552
32	0x3ae50479	0.0017472646
33	0x3bbed7f7	0.005824085
34	0xba85d544	-0.0010210653
35	0xbb7d5482	-0.0038655107
36	0x3b898db1	0.004197799
37	0xb9570b70	-0.00020508259
38	0x3aa7763b	0.0012776324
39	0x3ac30a5e	0.0014880409
40	0xbaea48a3	-0.0017874431
41	0xbaf0611f	-0.0018339491
42	0x3b9252b7	0.004465427
43	0x3b974c80	0.004617274
44	0xb9dd7fa4	-0.00042247504
45	0xbb32ed0f	-0.0027301942
46	0x3b344e11	0.0027512352
47	0xbbbd5da8	-0.005778987
48	0x3a089d31	0.00052114116
49	0x39d768ba	0.00041086023
50	0x3b6e9bc4	0.0036408762
51	0x3b831d22	0.0040012756
52	0x3b8ff524	0.0043932367
53	0xbb035b74	-0.0020043524
54	0xbb0b0450	-0.0021212287
55	0xbba47818	-0.005019199
56	0xbac83d23	-0.0015277009
57	0xbb0f47ef	-0.0021862944
58	0x3b2c0bc4	0.002625213
59	0xba002865	-0.0004888832
60	0xbbefd098	-0.0073185675
61	0xba80d977	-0.0009830435
62	0xbc419df6	-0.011817446
63	0x3b1362df	0.0022489352
64	0xbb2faf8a	-0.002680751
65	0x3b029a2e	0.0019928324
66	0x3c3169a4	0.010828409
67	0xbbfbed2e	-0.007688186
68	0xbb019a4a	-0.0019775801
69	0xbbd88610	-0.0066077784
70	0x3c705ae3	0.014670107
71	0x3c5240ee	0.012832863
72	0x3c90962e	0.017649736
73	0xbbb40ec9	-0.0054949266
74	0x3ba3c848	0.0049982406
75	0xbbff1b60	-0.007785246
76	0xbc809a7a	-0.01569866
77	0x3c892244	0.016739972
78	0x3c15fba2	0.009154232
79	0x3c115817	0.0088711
80	0xbb18492b	-0.002323697
81	0x3ad7ef9e	0.001647461
82	0x3b20a60c	0.0024513034
83	0x3b1d5275	0.0024005447
84	0x3a8c225f	0.0010691396
85	0xba0481e7	-0.00050547573
86	0x3a993779	0.0011689506
87	0xbb12211c	-0.0022297567
88	0x39f95dca	0.0004756286
89	0xba5c61a9	-0.00084068865
90	0x3b5e91e9	0.003396148
91	0x3bb271d5	0.0054456987
92	0xbb126d3b	-0.0022342938
93	0xbb63153e	-0.0034650113
94	0xb972202c	-0.00023090903
95	0x3bfa7e4a	0.0076444494
96	0xbb251dee	-0.0025194841
97	0x392d4611	0.00016524667
98	0x3b129a5d	0.002236984
99	0xbb817422	-0.0039506117
100	0xba950528	-0.0011369335
101	0xba97577c	-0.0011546458
102	0x3a6b1d05	0.0008968863
103	0x39f6596a	0.00046987395
104	0x3b53ebed	0.0032336668
105	0x3a9d4bd9	0.0012000754
106	0xb9412b25	-0.00018421987
107	0x3a5bcdc8	0.0008384851
108	0x39fd4c3c	0.0004831272
109	0x370c8da6	8.37763e-06
110	0x3c39546c	0.011311632
111	0x3aea586e	0.0017879137
112	0x3c5db03e	0.013530789
113	0xbb71f4b5	-0.0036919538
114	0xbac42faf	-0.0014967824
115	0xbb32d431	-0.002728712
116	0xbc8b2596	-0.016985696
117	0x3c20d1d9	0.009815657
118	0x3be518a4	0.006991463
119	0x3b2ef187	0.0026694254
120	0x3ae3da34	0.0017383755
121	0xbb26cc03	-0.002545119
122	0xbba5311b	-0.005041254
123	0x3ad7baf0	0.001645891
124	0xbb6a1a98	-0.0035721418
125	0x3aec1553	0.0018011726
126	0xba1bcee2	-0.00059436087
127	0xba4e8976	-0.00078787596
128	0xbac0b279	-0.0014701626
129	0xbc041f51	-0.008064107
130	0x3b673e2b	0.0035284858
131	0x3be9e970	0.0071384236
132	0xbc151890	-0.009100094
133	0xbbd6578f	-0.0065411995
134	0xbacd0807	-0.0015642651
135	0x3c75f4b2	0.015011953
136	0xbb92815b	-0.004470987
137	0xbbb07a22	-0.005385653
138	0xbc08a0eb	-0.008339147
139	0xbba8cd53	-0.0051514297
140	0xba8662ee	-0.0010252872
141	0xbaa01bd6	-0.0012215327
142	0xbb8632e7	-0.0040954235
143	0xb990a69a	-0.00027589948
144	0x39ef1827	0.00045603627
145	0xb9a43644	-0.0003132095
146	0x3ad6ca42	0.0016387182
147	0xb8c3f093	-9.343135e-05
148	0xbab131ce	-0.0013518871
149	0xba0f0672	-0.00054559775
150	0x3b1713e9	0.002305264
151	0xbbb096b5	-0.0053890594
152	0x3b453972	0.0030094055
153	0xbb941fa6	-0.0045203744
154	0xbb6eb549	-0.0036423972
155	0xbc0bed53	-0.008540469
156	0x3b0d561d	0.002156622
157	0x3b2b4f4f	0.00261398
158	0x3b592f9e	0.0033139954
159	0x3bf2ec6d	0.007413438
160	0x3b179414	0.0023129033
161	0x3b093f01	0.0020942094
162	0x3a5642f1	0.0008173427
163	0x39be9f4f	0.00036358318
164	0x3ba7a539	0.0051161316
165	0x3a11667d	0.0005546583
166	0x3b8bfdf3	0.0042722165
167	0xb9ad5ac1	-0.00033064748
168	0xbaa191eb	-0.0012326812
169	0xbae8bcce	-0.0017756463
170	0x399c433d	0.00029804735
171	0x3a834217	0.0010014203
172	0xba8367ea	-0.0010025476
173	0xb958f337	-0.0002068997
174	0xbaf28a8a	-0.0018504423
175	0xb98caf5f	-0.00026833543
176	0xb8f73aa5	-0.00011788801
177	0x3b0e3d30	0.002170395
178	0x3a5e1654	0.0008471955
179	0xbacf3585	-0.0015808797
180	0x3b2eed8c	0.0026691882
181	0x3bbdd061	0.005792663
182	0xbbd1c2a6	-0.0064013777
183	0xbbbab283	-0.00569755
184	0xba3c830e	-0.00071911595
185	0xbaa7b647	-0.0012795412
186	0xba1dd317	-0.00060205295
187	0x3a6ac979	0.00089564134
188	0x3ad1e3fb	0.0016013378
189	0x3b8df28e	0.0043318933
190	0x3b09ab43	0.002100662
191	0xb9b19c30	-0.0003387644
192	0xbb729c4b	-0.0037019427
193	0xbb1e5fb0	-0.002416592
194	0x3a426ef3	0.00074170454
195	0xba4aba19	-0.0007733419
196	0xbb440bd3	-0.0029914274
197	0xbbf0c512	-0.0073477114
198	0xba249e31	-0.0006279676
199	0xbc077e87	-0.008269913

exp_avg_sq f4 [20, 10]
0	0x35ec32cb	1.7598153e-06
1	0x351afd12	5.7737736e-07
2	0x3613d148	2.2026525e-06
3	0x352b8626	6.3897676e-07
4	0x3508080e	5.067567e-07
5	0x35936bb6	1.0983701e-06
6	0x352fa1c2	6.542797e-07
7	0x34ef925f	4.4623718e-07
8	0x362fc1dd	2.6189875e-06
9	0x368dd7da	4.227256e-06
10	0x368c2f14	4.1778057e-06
11	0x36952006	4.444274e-06
12	0x34f19fbe	4.5005976e-07
13	0x355ff40b	8.3429103e-07
14	0x36bde4ef	5.6592903e-06
15	0x3641e198	2.8890554e-06
16	0x36627235	3.3743102e-06
17	0x362cdf39	2.575993e-06
18	0x343fc5d7	1.7860235e-07
19	0x367c7468	3.7618684e-06
20	0x3567a0f2	8.628841e-07
21	0x3656486c	3.193064e-06
22	0x35a2c806	1.2128155e-06
23	0x358d89d7	1.0545435e-06
24	0x373b9831	1.1181503e-05
25	0x35977246	1.1283635e-06
26	0x34a6e6ad	3.1087748e-07
27	0x3680cb3c	3.838357e-06
28	0x345479b5	1.9788315e-07
29	0x366a32a5	3.4898196e-06
30	0x355362ff	7.8747684e-07
31	0x365c3ea3	3.2819014e-06
32	0x3610e079	2.1588332e-06
33	0x3631b5c8	2.6480866e-06
34	0x34bb07fb	3.483727e-07
35	0x3617f288	2.2641925e-06
36	0x360a9b3d	2.0653963e-06
37	0x35124bcb	5.449953e-07
38	0x34d2b187	3.9244716e-07
39	0x35f2582f	1.805607e-06
40	0x35643ca5	8.502487e-07
41	0x364e583b	3.074775e-06
42	0x35744330	9.0994854e-07
43	0x363cba95	2.8122788e-06
44	0x3492fd1a	2.7378775e-07
45	0x358029f4	9.548953e-07
46	0x35412099	7.194554e-07
47	0x35b8efd8	1.3778872e-06
48	0x3645718b	2.9421378e-06
49	0x36868ebe	4.0101286e-06
50	0x35e8053b	1.7286869e-06
51	0x358b74fc	1.0390354e-06
52	0x356c17a9	8.795128e-07
53	0x35191eb1	5.7041603e-07
54	0x3502d6d4	4.874139e-07
55	0x35c37f78	1.456573e-06
56	0x361d2c4a	2.3420603e-06
57	0x351a7a6b	5.754761e-07
58	0x354d17ab	7.640289e-07
59	0x35500eb2	7.750742e-07
60	0x3720e54a	9.590129e-06
61	0x3657a0f3	3.2131181e-06
62	0x36c78cc6	5.9470503e-06
63	0x36b2c215	5.3274075e-06
64	0x368c19b3	4.175317e-06
65	0x35ba9543	1.3901521e-06
66	0x379eed5f	1.8945602e-05
67	0x3687af59	4.0437267e-06
68	0x356b9424	8.7759895e-07
69	0x363b91b0	2.7949973e-06
70	0x3736ce3e	1.0896065e-05
71	0x3758dc78	1.2925935e-05
72	0x3762acf1	1.3510916e-05
73	0x370f7069	8.549637e-06
74	0x37245c20	9.796611e-06
75	0x361d1a0b	2.3409982e-06
76	0x3802a210	3.1145348e-05
77	0x374e248f	1.2287069e-05
78	0x36a7f7ce	5.005836e-06
79	0x36cac460	6.04293e-06
80	0x351d701c	5.86502e-07
81	0x34ab17b3	3.1868476e-07
82	0x347778ad	2.3047569e-07
83	0x352e13fb	6.4849127e-07
84	0x34ab7db3	3.194269e-07
85	0x346b7d23	2.1931605e-07
86	0x34dd3189	4.12005e-07
87	0x34e4d16a	4.2620678e-07
88	0x341e3c6b	1.4736877e-07
89	0x35293dfb	6.30476e-07
90	0x35788d37	9.2592694e-07
91	0x35e045ca	1.6709612e-06
92	0x352c952b	6.429206e-07
93	0x35767b21	9.182132e-07
94	0x33e43535	1.0626756e-07
95	0x36738377	3.6286344e-06
96	0x35e2774d	1.6873033e-06
97	0x3506a963	5.016538e-07
98	0x34ad3065	3.2258973e-07
99	0x361a24eb	2.2969277e-06
100	0x344398f8	1.821644e-07
101	0x34bee860	3.5559333e-07
102	0x34519f28	1.9522543e-07
103	0x3441533a	1.8004803e-07
104	0x352438ad	6.1177235e-07
105	0x339da156	7.340229e-08
106	0x32cad1a1	2.3611223e-08
107	0x348b50b1	2.5949478e-07
108	0x33b0d6ad	8.234688e-08
109	0x331ba402	3.6237914e-08
110	0x36bb5b8b	5.5836913e-06
111	0x36b09b39	5.263279e-06
112	0x370d8e4e	8.437388e-06
113	0x364349d5	2.910024e-06
114	0x36243cb5	2.447324e-06
115	0x369b1de3	4.6228392e-06
116	0x3781910e	1.5445545e-05
117	0x36c6b279	5.921637e-06
118	0x36676c19	3.4484603e-06
119	0x36d1988c	6.246444e-06
120	0x359b02bc	1.1549196e-06
121	0x35d0ac1a	1.5547296e-06
122	0x36336e81	2.67374e-06
123	0x3492a42a	2.7314064e-07
124	0x35901b0f	1.0736711e-06
125	0x350df764	5.2886594e-07
126	0x35de4cc8	1.6562635e-06
127	0x3526f021	6.218925e-07
128	0x358835f4	1.0148492e-06
129	0x3719e0e4	9.171872e-06
130	0x3651eacd	3.12801e-06
131	0x36b35998	5.345046e-06
132	0x36f959ef	7.431248e-06
133	0x367dbcc6	3.7809818e-06
134	0x3615f3b6	2.2344589e-06
135	0x3702bd7a	7.79272e-06
136	0x36608130	3.3453798e-06
137	0x365414a6	3.160248e-06
138	0x362c7332	2.569705e-06
139	0x35f239d1	1.8047232e-06
140	0x3387335c	6.2957696e-08
141	0x34a550eb	3.079252e-07
142	0x354a638a	7.539571e-07
143	0x32ade0a3	2.0242004e-08
144	0x3480a309	2.3960482e-07
145	0x34677bbe	2.1558569e-07
146	0x3467b8b7	2.158075e-07
147	0x3397f3a8	7.075806e-08
148	0x343bce61	1.7490812e-07
149	0x33b6d6bf	8.5140975e-08
150	0x354cf313	7.634964e-07
151	0x35d44afa	1.5817052e-06
152	0x3500390c	4.776673e-07
153	0x369f3c9f	4.7456265e-06
154	0x359ae07d	1.1539229e-06
155	0x36524e2e	3.1337945e-06
156	0x35bdee5a	1.4150967e-06
157	0x368fbada	4.2834845e-06
158	0x353a35f3	6.9368906e-07
159	0x364519e1	2.937035e-06
160	0x35d67084	1.5976989e-06
161	0x34e9f05f	4.3574525e-07
162	0x3574b330	9.1157835e-07
163	0x3514eba0	5.5477176e-07
164	0x35c5751a	1.4711725e-06
165	0x332da900	4.0433406e-08
166	0x3603e351	1.9652837e-06
167	0x35b353e0	1.336095e-06
168	0x34a3a020	3.0477622e-07
169	0x35f2b392	1.8082667e-06
170	0x332559e8	3.8498825e-08
171	0x343b639f	1.7451974e-07
172	0x33bcf3e8	8.7987985e-08
173	0x334080ea	4.482073e-08
174	0x348482ef	2.4682183e-07
175	0x34d4e241	3.9652699e-07
176	0x3325688d	3.8512145e-08
177	0x34ea2515	4.3612877e-07
178	0x34e16a2d	4.198677e-07
179	0x3432822d	1.66249e-07
180	0x366d00b5	3.5316164e-06
181	0x35bb9383	1.3975517e-06
182	0x365d96f0	3.3019423e-06
183	0x36d1b22a	6.2494264e-06
184	0x35b50175	1.3485975e-06
185	0x36d25d04	6.269316e-06
186	0x36533a4c	3.1475383e-06
187	0x3504a90e	4.941984e-07
188	0x36435e4c	2.9112152e-06
189	0x361455da	2.210369e-06
190	0x35c186c4	1.4418843e-06
191	0x36643fbf	3.4011753e-06
192	0x3596b5d2	1.1228788e-06
193	0x35e11af7	1.6771654e-06
194	0x35c8a376	1.4948735e-06
195	0x3666a342	3.43677e-06
196	0x35a06d34	1.1952711e-06
197	0x36291ac5	2.5198544e-06
198	0x35af7a1b	1.3074053e-06
199	0x3622da05	2.4266785e-06

exp_avg f4 [20]
0	0x3aa9a6d6	0.0012943398
1	0x3b973270	0.004614167
2	0x3ba22c2c	0.0049491134
3	0x3afb8cab	0.0019191703
4	0x3b41b97e	0.0029560025
5	0x3bb88f59	0.0056323227
6	0xbaf503af	-0.0018693114
7	0x3c44f858	0.0120221
8	0xba224f8c	-0.0006191663
9	0xbba356e6	-0.0049847243
10	0xbaa9f27b	-0.0012965942
11	0x3be8f882	0.0071097026
12	0xb79a4cb6	-1.8393952e-05
13	0x3b9174bc	0.0044389647
14	0xbae09ae2	-0.0017136002
15	0xba6f4051	-0.00091267104
16	0x3bd6b509	0.006552343
17	0x3a736230	0.00092843454
18	0xbc233512	-0.009961383
19	0x3b637fb5	0.003471357

exp_avg_sq f4 [20]
0	0x3401584e	1.2046186e-07
1	0x3588ff5f	1.0207112e-06
2	0x368c0cb7	4.1738053e-06
3	0x35a20f1b	1.2074337e-06
4	0x3526bb72	6.211259e-07
5	0x35d17293	1.5605059e-06
6	0x35ae58f5	1.29899e-06
7	0x372d5770	1.0331962e-05
8	0x33c6e0e6	9.261002e-08
9	0x35d4b52d	1.584796e-06
10	0x34bdc710	3.534883e-07
11	0x36ce9c1d	6.1574524e-06
12	0x358285e3	9.724721e-07
13	0x36fd2a03	7.5448784e-06
14	0x34500cd8	1.9376182e-07
15	0x354f5ab9	7.724553e-07
16	0x3685e2fc	3.9901333e-06
17	0x33ba97b7	8.688897e-08
18	0x36c5865f	5.8867004e-06
19	0x3590a473	1.0776697e-06

exp_avg f4 [5, 20]
0	0x3c3c1e1c	0.011481788
1	0x3bc02f89	0.0058650416
2	0x3c3f505b	0.011676873
3	0x3a18af70	0.0005824482
4	0x3c844e0a	0.016150493
5	0x3b716f3b	0.003683998
6	0xbc52310c	-0.0128290765
7	0x3c8c517b	0.017128697
8	0x3c061876	0.008184543
9	0x3b3b92f1	0.002862152
10	0x3b94e8c7	0.004544351
11	0x3c554c88	0.013018735
12	0x3c55b14e	0.013042761
13	0x3b8bd57f	0.004267394
14	0x3a2a8fdf	0.0006506424
15	0xbad89f8b	-0.001652704
16	0x3c333838	0.010938697
17	0xbb0e763b	-0.0021737951
18	0xbbd8d4bf	-0.006617158
19	0x3a3ae776	0.0007129827
20	0xbbea9aec	-0.0071595814
21	0x3b23a580	0.0024970472
22	0xba8c0cae	-0.0010684931
23	0xbc89883f	-0.0167886
24	0xbbc3db91	-0.005977102
25	0x3c0d9eae	0.008643789
26	0x3c34f93e	0.011045752
27	0xbcd2c286	-0.025727522
28	0xbc92c1bb	-0.017914644
29	0x3c2c9084	0.010532502
30	0x3b33d998	0.0027442928
31	0x3b4115a8	0.002946237
32	0xbba6e0db	-0.005092723
33	0xbba27b7e	-0.004958569
34	0x3b2544e5	0.0025218066
35	0xbb55f86a	-0.0032649287
36	0x3a210082	0.0006141738
37	0xbbe54dd1	-0.006997802
38	0x3b358a5a	0.0027700872
39	0xbc2e0462	-0.010621162
40	0xbcafac8e	-0.021444585
41	0x3c2a1e43	0.0103831915
42	0x3c6f100b	0.014591227
43	0xbc10133a	-0.0087936465
44	0x3c05136a	0.008122304
45	0x3c1f4687	0.009721405
46	0xbca1abb8	-0.019735202
47	0x3b963c82	0.00458485
48	0xbc00ee12	-0.00786926
49	0x3b01c7aa	0.0019802847
50	0xbb38e3d4	-0.0028211968
51	0xbca3be83	-0.019988304
52	0x3a57dd70	0.0008234596
53	0x39db7f90	0.00041865977
54	0xbc703c74	-0.014662851
55	0xbc48d04e	-0.012256695
56	0xbc150b13	-0.009096879
57	0xbbd36ed9	-0.006452423
58	0x3b244591	0.002506588
59	0xbac0dbc4	-0.0014713933
60	0x3c94b1fb	0.018151274
61	0x39e11b16	0.00042935525
62	0xbb828de6	-0.003984201
63	0x3b933059	0.0044918475
64	0xbc2f5dc6	-0.01070351
65	0xbc2c8815	-0.010530491
66	0xbc8f6ff8	-0.017509446
67	0xbbaff1ab	-0.0053693852
68	0x3ae9cc5f	0.0017837397
69	0xbc16140e	-0.009160055
70	0x3c20dc5a	0.009818161
71	0x3c44e100	0.012016535
72	0x3b3583f7	0.0027697065
73	0x3b89a537	0.0042006033
74	0xbb03a9fb	-0.002009033
75	0xbc23d635	-0.009999801
76	0x3bb8c29b	0.005638433
77	0xbaa68dab	-0.0012707015
78	0xbc9aab59	-0.018880533
79	0xbb9336bc	-0.004492609
80	0xbca912dc	-0.020638876
81	0xbc217bf8	-0.009856217
82	0xbc6dd453	-0.014515954
83	0x3b29ba38	0.0025898349
84	0xbc4a00af	-0.012329265
85	0xbc0ecb17	-0.008715413
86	0xbcb9dd2a	-0.022688467
87	0xbc855dd6	-0.016280096
88	0xbb1b8821	-0.0023732262
89	0xbc86123a	-0.016366113
90	0xbbfe3290	-0.0077574924
91	0xbd159f8f	-0.03652912
92	0xbc05b2c8	-0.008160301
93	0xbca84369	-0.020539956
94	0xbc14bc0c	-0.009078037
95	0xbbec525a	-0.0072119655
96	0xbc6e42e7	-0.014542318
97	0x3a7981ab	0.0009517918
98	0xbb4d2a52	-0.0031305742
99	0xbb2b12eb	-0.0026103805

exp_avg_sq f4 [5, 20]
0	0x3738df38	1.1019227e-05
1	0x367b4a07	3.7445004e-06
2	0x378b67d1	1.6618435e-05
3	0x34958a65	2.7854108e-07
4	0x37b2f6e1	2.1334215e-05
5	0x36bc04e9	5.603408e-06
6	0x3700caef	7.676644e-06
7	0x378a83e0	1.6512291e-05
8	0x36e5e9e0	6.8519585e-06
9	0x369d817e	4.6940395e-06
10	0x36daf427	6.5253294e-06
11	0x381d681c	3.7528676e-05
12	0x37947d8b	1.7701435e-05
13	0x369dcf80	4.703121e-06
14	0x35ebe9b0	1.7576876e-06
15	0x35996563	1.1428896e-06
16	0x37e1fc67	2.6939624e-05
17	0x35e3db01	1.6976556e-06
18	0x369a1547	4.5920347e-06
19	0x34111e73	1.3515255e-07
20	0x36d0b51a	6.219966e-06
21	0x360cd41e	2.0985094e-06
22	0x369c13df	4.6514756e-06
23	0x378cb7aa	1.6774826e-05
24	0x378c041e	1.6691218e-05
25	0x3751aad1	1.2497142e-05
26	0x3813a336	3.5199533e-05
27	0x38368711	4.351797e-05
28	0x37c240b3	2.315673e-05
29	0x3784ae4f	1.5816795e-05
30	0x36526a2d	3.135424e-06
31	0x369de26d	4.705324e-06
32	0x36fd57c4	7.550205e-06
33	0x36bd552d	5.6425547e-06
34	0x35602826	8.3504926e-07
35	0x37caeed4	2.419149e-05
36	0x363374fa	2.6741168e-06
37	0x3708030c	8.106941e-06
38	0x37bed0e6	2.2747041e-05
39	0x36e88a53	6.930242e-06
40	0x37c98593	2.4023268e-05
41	0x3724fcd0	9.834024e-06
42	0x375fed98	1.3347155e-05
43	0x3700e487	7.682603e-06
44	0x3753bbc0	1.2620294e-05
45	0x368f409f	4.269255e-06
46	0x379565b0	1.7809536e-05
47	0x37b5dec7	2.168062e-05
48	0x36c869d0	5.9727827e-06
49	0x36e5ae54	6.8450263e-06
50	0x35dce31d	1.6457376e-06
51	0x37eb0ce2	2.8020182e-05
52	0x36b24b4b	5.3135786e-06
53	0x3707f047	8.102571e-06
54	0x373f1bee	1.139099e-05
55	0x372946c6	1.0089663e-05
56	0x36448368	2.9282764e-06
57	0x368f8602	4.2773327e-06
58	0x37b44129	2.1488015e-05
59	0x366d0997	3.5321334e-06
60	0x3758ae9f	1.291526e-05
61	0x36939118	4.3978325e-06
62	0x36b9899b	5.529449e-06
63	0x36a65b55	4.957818e-06
64	0x37856c92	1.5905393e-05
65	0x37266a25	9.919085e-06
66	0x37acfc08	2.0621359e-05
67	0x37aa9341	2.033415e-05
68	0x3728eafc	1.0068292e-05
69	0x378e6464	1.6974467e-05
70	0x36d066b7	6.2108406e-06
71	0x381fc514	3.8092097e-05
72	0x36381663	2.7431167e-06
73	0x36843145	3.9396423e-06
74	0x35db23a0	1.632714e-06
75	0x3764065f	1.3591342e-05
76	0x36c95a86	6.000805e-06
77	0x358424cd	9.845477e-07
78	0x37d593de	2.5460435e-05
79	0x36547888	3.166062e-06
80	0x37a5c0fc	1.9759398e-05
81	0x36d21a96	6.2615827e-06
82	0x37a43162	1.957332e-05
83	0x363e8558	2.8389823e-06
84	0x37e80c6c	2.766234e-05
85	0x37734501	1.4499995e-05
86	0x380ee8de	3.4072313e-05
87	0x37ef541a	2.8530183e-05
88	0x375b917d	1.3087291e-05
89	0x377915c9	1.4846629e-05
90	0x372d9d8d	1.0348286e-05
91	0x389e5ece	7.551686e-05
92	0x378a9b3b	1.6523167e-05
93	0x37c6028d	2.3604627e-05
94	0x373a24ea	1.1095059e-05
95	0x373114bc	1.055485e-05
96	0x378a670b	1.6498865e-05
97	0x36ee1cf0	7.0963215e-06
98	0x3761e9f6	1.3465518e-05
99	0x35db1c65	1.6325035e-06

exp_avg f4 [5]
0	0x3cb9dd81	0.02268863
1	0xbccd14ec	-0.02503439
2	0x3c489eb5	0.01224487
3	0xbbea16c2	-0.007143826
4	0xbd4b8aa6	-0.049692772

exp_avg_sq f4 [5]
0	0x386ff74e	5.721236e-05
1	0x3883e413	6.289049e-05
2	0x38679703	5.5215332e-05
3	0x374cecf8	1.2214521e-05
4	0x3900a8a5	0.00012269856
