checkpoints/epoch=1-step=8.ckpt (torch, 11504 bytes, 12 tensors)

network.0.weight f4 [20, 10]
0	0x3d8bc93a	0.0682549
1	0xbde5cc89	-0.112206526
2	0xbe00406b	-0.12524574
3	0x3e9a575b	0.30144772
4	0x3e01f902	0.12692645
5	0xbe3c7fb8	-0.18408096
6	0xbd13067c	-0.035894856
7	0xbe706cb5	-0.23478968
8	0x3df48bd3	0.11940732
9	0x3dba8681	0.09107686
10	0xbdde4fd5	-0.108550705
11	0x3cbfd734	0.023418047
12	0x3d93c178	0.072146356
13	0xbe8cafd6	-0.27477902
14	0xbe25b596	-0.16182551
15	0x3e356670	0.17714858
16	0xbe64504d	-0.22296257
17	0xbda0d9cc	-0.078540415
18	0x3e1fee58	0.15618265
19	0x3c89948a	0.016794462
20	0xbd2eff5a	-0.04272399
21	0x3d355024	0.04426588
22	0x3e5f815f	0.21826695
23	0xbe8f175c	-0.2794751
24	0x3d1112dc	0.035418376
25	0x3e7562a0	0.23963404
26	0x3e9979aa	0.29975635
27	0x3d6c4ef6	0.05769249
28	0xbe21e930	-0.1581161
29	0x3e58ce18	0.21172369
30	0x3da21222	0.07913615
31	0xbe2d69c7	-0.16934882
32	0xbe91da2f	-0.28486773
33	0xbd5e1939	-0.054223273
34	0x3e7959be	0.2435064
35	0xbe32bbcb	-0.1745445
36	0xbe9dcadd	-0.30818835
37	0x3e7b28f8	0.24527347
38	0xbc6700e3	-0.0140993325
39	0x3e51a361	0.2047248
40	0x3e5a7010	0.21331811
41	0x3e86f92c	0.26361978
42	0xbe4440d0	-0.19165349
43	0x3e88af22	0.26696116
44	0x3e16cc5c	0.14726394
45	0xbe9cfb1c	-0.3066033
46	0x3e4ed576	0.20198616
47	0xbd9a7842	-0.075424686
48	0xbca7c093	-0.020477569
49	0x3e9bd55a	0.30436212
50	0xbe0d761c	-0.13814586
51	0x3dac83a3	0.08423545
52	0xbe802279	-0.250263
53	0x3e5e5117	0.21710621
54	0xbcb24662	-0.021762077
55	0x3e2736fa	0.16329566
56	0x3e90d977	0.28290913
57	0xbe841c29	-0.25802734
58	0x3cf245f1	0.029574366
59	0x3e3d4dd1	0.18486716
60	0xbdfa4fb1	-0.12222231
61	0x3e5bc635	0.21462329
62	0xbe8c5e70	-0.274158
63	0x3e3ca74f	0.18423198
64	0xbe51882a	-0.20462099
65	0xbdeec444	-0.116585284
66	0x3e10e0da	0.14148274
67	0xbe718049	-0.23584093
68	0xbe1df64f	-0.1542599
69	0x3e8ca08d	0.2746624
70	0x3e09ab04	0.13444144
71	0xbe8d7d39	-0.276346
72	0xbd4c8fc3	-0.04994179
73	0xbe45506b	-0.19268958
74	0x3d6a4905	0.057198543
75	0x3e72016b	0.23633353
76	0x3e047ec1	0.12938978
77	0x3e92025f	0.28517434
78	0x3e230d95	0.1592315
79	0x3e2412c6	0.16022786
80	0xba789996	-0.00094833353
81	0xbdea5be8	-0.11443311
82	0x3e031d38	0.12804115
83	0xbe1022c4	-0.14075762
84	0xbd7820c5	-0.060578126
85	0xbd0db3af	-0.034595188
86	0x3db0016a	0.0859402
87	0xbe193d05	-0.14964683
88	0x3e86a6ec	0.26299226
89	0x3d8d2f38	0.06893772
90	0xbe8f7db6	-0.28025597
91	0x3e106b85	0.14103515
92	0x3e98803f	0.29785344
93	0x3e503afa	0.20334998
94	0x3b65ab2b	0.003504465
95	0xbd620d84	-0.05518867
96	0x3e822a64	0.25422966
97	0x3e8e0fbb	0.27746376
98	0x3e81595f	0.25263497
99	0xbdc3cf77	-0.09561055
100	0x3e072705	0.13198479
101	0x3d267b53	0.040644955
102	0xbe95683d	-0.2918109
103	0x3e25443c	0.1613931
104	0x3e7282e8	0.2368275
105	0xbd9ff741	-0.07810832
106	0xbdc11d2a	-0.09429391
107	0x3e7b26b5	0.24526484
108	0xbea37185	-0.31922546
109	0x3d131838	0.03591177
110	0x3dd97d05	0.10619549
111	0x3e6d9dba	0.23204699
112	0x3caffd48	0.021483079
113	0xbe8691bb	-0.2628306
114	0xbcb4d1ea	-0.022072751
115	0xbcca3c97	-0.024687095
116	0x3dedd94d	0.116137125
117	0xbdebf7ee	-0.11521898
118	0xbe1ae287	-0.15125476
119	0x3e3e9acc	0.18613738
120	0xbe1cbb76	-0.15305886
121	0xbe94abd2	-0.29037338
122	0xbe1c6714	-0.15273696
123	0xbd7f649e	-0.062351815
124	0x3e0a3434	0.13496476
125	0x3e73f18e	0.23822615
126	0x3dbab0c0	0.09115744
127	0xbc81365c	-0.01577299
128	0x3dc9dec6	0.09856944
129	0xbbb682a4	-0.005569773
130	0xbe1c8feb	-0.15289275
131	0x3d917ee8	0.071042836
132	0xbe482b38	-0.19547737
133	0xbe820739	-0.25396135
134	0x3e1714ca	0.14754024
135	0xbe4cb2d2	-0.1999009
136	0x3e71fb1a	0.23630944
137	0xbdc00216	-0.09375398
138	0xbc891a29	-0.016736107
139	0x3dea48c0	0.11439657
140	0xbdb3d754	-0.08781305
141	0xbe7f51b3	-0.2493351
142	0xbd7152a1	-0.05891669
143	0x3d9a537c	0.07535455
144	0xbe9b0ad3	-0.30281696
145	0x3d4531d9	0.04814324
146	0x3d5bcc2b	0.053661507
147	0xbe4505fe	-0.19240567
148	0xbdee3cf0	-0.11632717
149	0x3d505883	0.05086566
150	0x3e52fcee	0.20604298
151	0xbe283b9f	-0.16428994
152	0xbe1e63e3	-0.15467791
153	0xbde6d3ec	-0.1127089
154	0x3d2e31fd	0.04252814
155	0xbcbdafed	-0.023155177
156	0x3e8c3050	0.2738061
157	0x3dfcad7b	0.12337776
158	0x3de7dd95	0.1132156
159	0xbe0ad4fa	-0.13557807
160	0x3d87a3c0	0.0662303
161	0x3d5658c8	0.052330762
162	0x3c338e45	0.010959213
163	0xbd3d28cb	-0.04618148
164	0x3d93dbbc	0.072196454
165	0xbe1dffc1	-0.15429594
166	0x3e6809b9	0.22659959
167	0x3d3296d9	0.04360089
168	0x3e8125b7	0.25224087
169	0x3e6f2dfb	0.23357384
170	0xbcf7c68b	-0.03024604
171	0xbe8eb6c3	-0.2787381
172	0x3e982d05	0.29721847
173	0xbde37fb0	-0.11108339
174	0xbd91a0cd	-0.071107484
175	0x3e87459a	0.2642029
176	0x3e0c54e6	0.13704261
177	0xbe50aa13	-0.20377378
178	0x3e46edd7	0.19426666
179	0xbe918294	-0.28419936
180	0x3e61aa17	0.2203754
181	0xbe87c505	-0.265175
182	0x3e133ed7	0.1437944
183	0xbc177392	-0.009243863
184	0xbe242c5b	-0.16032545
185	0x3e2b010e	0.16699621
186	0x3dd94ff3	0.10610952
187	0x3e2dcbe4	0.1697231
188	0x3e472c09	0.19450392
189	0xbe3ac81c	-0.18240398
190	0x3e1bb78e	0.1520674
191	0x3db0871f	0.08619522
192	0x3c6b5c07	0.014365203
193	0x3d458725	0.048224587
194	0xbb9e0902	-0.004822851
195	0xbea1b781	-0.31585315
196	0x3d8fe258	0.070255935
197	0xbe3431df	-0.1759715
198	0xbd9e4151	-0.07727302
199	0x3e590847	0.21194564

network.0.bias f4 [20]
0	0x3c9ef3f1	0.01940343
1	0xbdeb94be	-0.1150298
2	0xbd0b2970	-0.033975065
3	0xbe4c853a	-0.19972697
4	0x3b80a10c	0.0039254483
5	0x3e86c1fa	0.26319867
6	0x3dd9e597	0.10639494
7	0x3e0f7de4	0.14012867
8	0xbea173b8	-0.315336
9	0x3dd86467	0.10566025
10	0x3df42fc8	0.11923176
11	0x3dfe8ade	0.124288306
12	0xbe08b744	-0.1335116
13	0x3de785fe	0.11304854
14	0xbdb7fa3e	-0.08983277
15	0x3e9dd335	0.308252
16	0x3dd3e101	0.103456505
17	0x3e0fb1dd	0.14032693
18	0x3e213f47	0.15746795
19	0xbe2a7027	-0.16644345

network.2.weight f4 [5, 20]
0	0x3e514609	0.20436873
1	0x3e483795	0.19552453
2	0xbd127b10	-0.035761893
3	0x3d8f4e83	0.06997397
4	0xbdb98413	-0.09058394
5	0xbe480ab3	-0.19535331
6	0xbdac8848	-0.08424431
7	0x3df85529	0.12125618
8	0x3dda3568	0.10654718
9	0xbdae6be1	-0.0851667
10	0xb8ca21b2	-9.638387e-05
11	0x3dbf46f4	0.09339705
12	0xbe3d1617	-0.18465458
13	0x3ceb39dc	0.028714113
14	0x3bfa6015	0.0076408484
15	0xbe580d91	-0.21098925
16	0xbc6dd573	-0.014516222
17	0x3e18a04a	0.14904895
18	0xbe5e6624	-0.21718651
19	0x3df4fd27	0.119623475
20	0xbd01dd37	-0.031705108
21	0xbd9e6de0	-0.07735801
22	0xbe333f96	-0.17504725
23	0x3d7bfc4b	0.061519902
24	0x3d9aac2b	0.0755237
25	0xbda8b2a0	-0.08237195
26	0x3d990c18	0.0747301
27	0x3e346924	0.17618233
28	0x3da93c6d	0.082634784
29	0xbe43a5f6	-0.19106278
30	0xbe0f1376	-0.13972268
31	0xbe3fc434	-0.1872719
32	0x3e332088	0.17492878
33	0x3de59e20	0.112118006
34	0x3e08474a	0.13308445
35	0xbd1dca80	-0.038523197
36	0x3e0ae2c8	0.13563073
37	0x3e1e2828	0.15445006
38	0x3e000923	0.12503485
39	0x3e4d8f80	0.20074272
40	0x3ded75dc	0.115947455
41	0xbdade68e	-0.084912404
42	0x3e446538	0.19179237
43	0x3e429bba	0.19004717
44	0x3d56c7de	0.052436702
45	0xbdce7219	-0.10080356
46	0x3e549d25	0.20763071
47	0x3e2e457b	0.17018692
48	0x3df4a382	0.11945249
49	0xbdfe50d4	-0.124177605
50	0x3c6eee72	0.014583217
51	0x3da0d361	0.07852817
52	0x3dc38e10	0.09548581
53	0xbcdc0fdc	-0.026863031
54	0x3dff77eb	0.124740444
55	0x3dfe1afa	0.12407489
56	0xbcf0ff8a	-0.029418726
57	0xbd9a03cf	-0.07520258
58	0xbda204dd	-0.07911084
59	0x3b3ac6ab	0.0028499763
60	0x3e20f274	0.15717489
61	0x3b82cf59	0.003992003
62	0xbdd0b485	-0.10190681
63	0x3e48226b	0.1954438
64	0xbdeca5a0	-0.11555028
65	0xbdfa4823	-0.1222079
66	0xbe3bd3f0	-0.18342566
67	0x3d6e0862	0.058113463
68	0xbe3b5fb3	-0.18298225
69	0x3da23c93	0.0792171
70	0x3c501bac	0.01270191
71	0x3e49b50d	0.19697972
72	0x3c021bf0	0.007941231
73	0x3dfc6307	0.123235755
74	0xbe214fd9	-0.15753116
75	0x3e375d00	0.1790657
76	0x3d588358	0.052859634
77	0x3db73a94	0.0894672
78	0xbd6f0bf6	-0.058361016
79	0xbe5fe2b4	-0.21863824
80	0x3d520148	0.051270753
81	0xbe0ba6fc	-0.13637918
82	0xbe0e081e	-0.13870284
83	0x3e61ce82	0.22051433
84	0xbe007c53	-0.12547426
85	0x3be3822e	0.006943009
86	0x3e4e3d96	0.2014068
87	0x3de8188f	0.11332809
88	0xbdd7ebef	-0.10543048
89	0x3df50288	0.119633734
90	0xbd25e8fa	-0.040505387
91	0x3992baa4	0.00027986348
92	0xbe0761d2	-0.13220909
93	0x3d7d008c	0.0617681
94	0x3e1f9b40	0.15586567
95	0x3e334a1b	0.17508738
96	0xbc95686e	-0.018238273
97	0xbc460304	-0.01208568
98	0x3e4ce309	0.20008482
99	0xbd6d8113	-0.057984423

network.2.bias f4 [5]
0	0xbc9321e4	-0.017960496
1	0xbd4943fc	-0.0491371
2	0x3d8f4973	0.06996431
3	0xbdf2e042	-0.1185918
4	0x3d698e70	0.057020605

exp_avg f4 [20, 10]
0	0xb9e506b5	-0.0004368328
1	0x3ab98553	0.0014154114
2	0x3beac874	0.007165009
3	0xbbcb3906	-0.006201866
4	0x3afd1a0e	0.0019310133
5	0xbad8f06b	-0.0016551142
6	0xbc138137	-0.009002975
7	0x3c0f8e80	0.008762002
8	0xbbe25058	-0.0069065504
9	0x3b588498	0.0033038016
10	0x3c121b96	0.00891771
11	0xbc00df37	-0.007865719
12	0x3b5c7a20	0.0033642128
13	0xbbd8326e	-0.0065978086
14	0xbb7c926d	-0.0038539425
15	0xbb3bbd9a	-0.0028646947
16	0xbba62644	-0.0050704796
17	0x3b223ada	0.0024754317
18	0xbc18b3ae	-0.009320183
19	0xbb33eb85	-0.0027453613
20	0x3b6a112c	0.0035715802
21	0xbb2d2537	-0.0026419887
22	0xba343084	-0.00068736845
23	0x3bcae0f1	0.006191366
24	0xbba87a7c	-0.0051415544
25	0x3b5187cd	0.0031971813
26	0xba7f75a9	-0.0009745011
27	0xbba8c789	-0.0051507396
28	0x397434b5	0.00023289288
29	0x3a67ae09	0.0008837884
30	0xbc2f1a1b	-0.010687376
31	0x3be2878b	0.0069131306
32	0xbbb24bf8	-0.005441185
33	0x3b241d24	0.0025041783
34	0x3b88acd2	0.0041709924
35	0xbc4cf69d	-0.012509969
36	0xbc375464	-0.011189554
37	0x3b161567	0.002290094
38	0xbb42d6c9	-0.0029730073
39	0x3b3df239	0.0028983487
40	0xbb392a0c	-0.0028253822
41	0x3c0a9ce8	0.008460261
42	0xbb4ec3d9	-0.003154984
43	0x3b971697	0.004610847
44	0x3b185a8d	0.0023247332
45	0x3c11141d	0.008854893
46	0x3b32405e	0.002719901
47	0xbbee248f	-0.0072675417
48	0x3b017af8	0.0019757133
49	0xbab155a7	-0.0013529555
50	0x3b97c079	0.004631099
51	0xbba1e5b1	-0.0049407114
52	0xbb31dbb9	-0.0027139022
53	0x3ba2ca9d	0.004968001
54	0xbc069d2e	-0.0082161855
55	0x3c3c2020	0.011482269
56	0x3bc191a3	0.005907254
57	0xbca1978e	-0.019725587
58	0x3c2fd12c	0.010731023
59	0x3b2bd0b1	0.002621692
60	0x3c456edf	0.0120503595
61	0x3c7facc8	0.015605159
62	0x3c038522	0.008027347
63	0x3c318c50	0.010836676
64	0xbc4d9d59	-0.012549722
65	0xbbebcd09	-0.007196073
66	0x3ab21f35	0.0013589623
67	0xbd0863c3	-0.033298265
68	0xbbc7b89c	-0.006095005
69	0x3caa5315	0.02079157
70	0x3b36b9bf	0.002788171
71	0xbb753f8f	-0.0037421917
72	0x3b9b1ca4	0.004733639
73	0xbc3bfd30	-0.011473939
74	0x3bb2c72d	0.0054558725
75	0xbaa45209	-0.0012536655
76	0x3c51e9c3	0.012812081
77	0x3b6a168e	0.003571901
78	0x3bb43884	0.0054999013
79	0xbbaec3fc	-0.0053334218
80	0xbaf08d21	-0.0018352607
81	0xbb0931b4	-0.0020934166
82	0x3a9dfaf2	0.0012052937
83	0xbb6a1001	-0.0035715105
84	0x3a0caddd	0.0005366484
85	0x3b1a55b0	0.002354961
86	0xbaadd755	-0.0013263026
87	0xb94f925f	-0.00019795586
88	0x3bc4e0c7	0.006008241
89	0x3ab2d202	0.001364291
90	0x3c09c5c8	0.008408971
91	0x3a482b91	0.00076358864
92	0x3b6c1f7f	0.0036029515
93	0xbc0855ef	-0.008321269
94	0xbc5bfa07	-0.01342631
95	0xbc5ffd75	-0.013671269
96	0xbc0054fa	-0.00783276
97	0x3c552d21	0.013011248
98	0xbbc54323	-0.006019966
99	0xbbd614b5	-0.00653323
100	0x3b0316c2	0.0020002578
101	0xbc081105	-0.008304839
102	0x3b9ca6b3	0.0047806143
103	0xba2f55d6	-0.0006688511
104	0xbb81309b	-0.003942562
105	0xbb8d5436	-0.0043130172
106	0x3a865667	0.0010249139
107	0x3c1b8024	0.009491
108	0x3b829cb2	0.0039859647
109	0xbb67f072	-0.003539112
110	0x3b8fbd3c	0.004386572
111	0xbb95984a	-0.0045652734
112	0x3c265e5c	0.010154333
113	0xbbb27513	-0.0054460852
114	0xbb8f10bb	-0.004366008
115	0xbc1db56b	-0.009625773
116	0xbbabac09	-0.005239014
117	0x3c4eb41c	0.012616184
118	0xbb833c57	-0.004004996
119	0xbc6480a1	-0.013946683
120	0xbbff23a8	-0.007786233
121	0xbb01a60f	-0.0019782817
122	0x3b45ca3b	0.0030180353
123	0xbadc0784	-0.0016786908
124	0x3b3af56a	0.0028527626
125	0xba35f7f5	-0.00069415505
126	0x3bc05f4b	0.005870735
127	0x3b0872e7	0.002082044
128	0xbb11e2ff	-0.0022260544
129	0xbb4e3bca	-0.0031468743
130	0xbc005ee5	-0.007835125
131	0x3b09bb2f	0.002101611
132	0xbbca4fb2	-0.006174051
133	0xbbc78b59	-0.0060896096
134	0x3bdd57c2	0.0067548463
135	0xbb9babf6	-0.004750724
136	0x3bd9e938	0.0066501163
137	0x3bc971d8	0.0061476044
138	0x3a512f61	0.00079797773
139	0xbbb61062	-0.005556152
140	0x3c10b85d	0.008833018
141	0x3b04b054	0.0020246701
142	0xbb01baea	-0.0019795247
143	0x3aa23bc6	0.0012377433
144	0xbc28ab5f	-0.010294764
145	0x3b373d0c	0.002795997
146	0x3c11a8aa	0.00889031
147	0xbcd62bab	-0.02614387
148	0xba54aaa6	-0.0008112587
149	0x3b899b76	0.0041994406
150	0x3beee8f4	0.007290954
151	0x3bab0707	0.0052193436
152	0xbc00a444	-0.007851664
153	0xbaea5c5d	-0.001788031
154	0xbc759c26	-0.014990842
155	0xbc598b52	-0.013277845
156	0x3cc1a5d3	0.023638641
157	0xbb73f505	-0.00372249
158	0xbbdd4c3a	-0.0067534717
159	0xbc54ab81	-0.012980343
160	0xbb98dc86	-0.0046649603
161	0xba688404	-0.00088697695
162	0xbb426887	-0.0029664354
163	0xb9c7105d	-0.0003796843
164	0x3bf8597f	0.007579028
165	0x3a3d9c9d	0.0007233115
166	0x3bee8046	0.007278475
167	0x3b9f284e	0.0048570996
168	0x39bdcebb	0.00036202915
169	0x3a15f10b	0.0005719817
170	0xbbabd6af	-0.005244098
171	0xba6bf7d0	-0.00090014655
172	0x3b090a65	0.0020910737
173	0xbb4f77dd	-0.0031657137
174	0x3bbcfef4	0.0057676975
175	0xba9fecdc	-0.0012201327
176	0xbb257d72	-0.0025251773
177	0x3c801fc0	0.01564014
178	0x3c0c4261	0.008560748
179	0x3bc4a458	0.0060010366
180	0x3c512a02	0.012766363
181	0x3a7b2bdd	0.0009581426
182	0xbc2248f8	-0.009905092
183	0x3c3e320f	0.011608615
184	0xbbd2e4ea	-0.00643598
185	0x3b9a570a	0.004710083
186	0x3ca4c6ac	0.020114265
187	0xbc7cf598	-0.0154394135
188	0x3bd6d641	0.006556303
189	0xbc1695e4	-0.00919101
190	0xbb71a300	-0.0036870837
191	0x3c25258d	0.010079754
192	0x3a997c49	0.0011710013
193	0xbbd7145a	-0.0065637054
194	0x3a80c874	0.0009825365
195	0x3bf3cab6	0.0074399365
196	0xbc3466fa	-0.01101088
197	0xbbda6dd5	-0.006665925
198	0xbb599fae	-0.0033206749
199	0x3ca0508a	0.019569654

exp_avg_sq f4 [20, 10]
0	0x33c7066a	9.267826e-08
1	0x361335f6	2.1936116e-06
2	0x366aa960	3.4967306e-06
3	0x35f0906d	1.7923427e-06
4	0x359021d7	1.0738685e-06
5	0x36761313	3.666796e-06
6	0x36816a0f	3.8568464e-06
7	0x36d5c138	6.3703883e-06
8	0x36e48df3	6.8114546e-06
9	0x36b75cba	5.46462e-06
10	0x370490fa	7.901568e-06
11	0x37a3f99e	1.9547351e-05
12	0x35d60e10	1.5948335e-06
13	0x368dfacb	4.2313236e-06
14	0x365e39b0	3.3114156e-06
15	0x3614b6b2	2.2160061e-06
16	0x35f3719b	1.8137974e-06
17	0x363469a1	2.6883574e-06
18	0x36976a86	4.5125516e-06
19	0x3588e7f3	1.0200296e-06
20	0x35fd9e6d	1.8896077e-06
21	0x371c38ca	9.311547e-06
22	0x35cfd12c	1.5483579e-06
23	0x366f1229	3.5624346e-06
24	0x3667a19a	3.4515747e-06
25	0x3588314d	1.0147138e-06
26	0x373ad1ee	1.1135342e-05
27	0x35e70c3b	1.7214401e-06
28	0x3624be2c	2.45486e-06
29	0x369f6979	4.750848e-06
30	0x3707f33b	8.103259e-06
31	0x362878b4	2.510421e-06
32	0x36224258	2.4178498e-06
33	0x3675dfad	3.6638041e-06
34	0x36b3fddd	5.3641693e-06
35	0x36ac7924	5.140102e-06
36	0x36916daa	4.3341033e-06
37	0x3648308d	2.9830583e-06
38	0x35e7ec93	1.7279693e-06
39	0x3635f92b	2.7116137e-06
40	0x34ceaf9f	3.849827e-07
41	0x36eba15a	7.0223296e-06
42	0x35cc6bf2	1.5230601e-06
43	0x366e5018	3.5511384e-06
44	0x3573d600	9.0835965e-07
45	0x368b535e	4.152228e-06
46	0x3679bf48	3.7215232e-06
47	0x36967a8c	4.4846147e-06
48	0x36e9a799	6.963452e-06
49	0x373be5ee	1.1199603e-05
50	0x3670a7f9	3.586056e-06
51	0x37a3c65c	1.9523482e-05
52	0x3679e812	3.7238974e-06
53	0x35f1db95	1.8019806e-06
54	0x3710cb15	8.630353e-06
55	0x369b5b3e	4.629982e-06
56	0x37586f61	1.2900536e-05
57	0x379b01be	1.8478251e-05
58	0x379dba43	1.8802593e-05
59	0x37c6dce0	2.3706292e-05
60	0x375e44be	1.3248236e-05
61	0x371a25d9	9.187927e-06
62	0x37615f89	1.3433289e-05
63	0x36d52ca8	6.3530933e-06
64	0x378e1680	1.6938196e-05
65	0x37491eb8	1.1987686e-05
66	0x36c12249	5.7558395e-06
67	0x38473c9a	4.7501737e-05
68	0x37a23234	1.9335283e-05
69	0x37ad93c4	2.0692016e-05
70	0x36cad9bf	6.045418e-06
71	0x377503e3	1.4604043e-05
72	0x3650101f	3.10038e-06
73	0x376946bc	1.3904351e-05
74	0x36bf0705	5.6930608e-06
75	0x363b0309	2.7866938e-06
76	0x37c50779	2.348771e-05
77	0x3732f357	1.0666284e-05
78	0x3710702e	8.609188e-06
79	0x36e3fea3	6.794771e-06
80	0x3547106c	7.4157174e-07
81	0x34f6e944	4.5990794e-07
82	0x35dfc35e	1.6671654e-06
83	0x372f3214	1.0442473e-05
84	0x363fc3e3	2.857524e-06
85	0x35c45666	1.4628283e-06
86	0x35bbc943	1.3991161e-06
87	0x36f0ff8a	7.182306e-06
88	0x36a92991	5.0414315e-06
89	0x368f842f	4.2771203e-06
90	0x366a3085	3.489696e-06
91	0x36fb8f0f	7.497037e-06
92	0x363af0c9	2.7856315e-06
93	0x36af3e09	5.2226283e-06
94	0x36ed27c4	7.0677797e-06
95	0x36e7d80f	6.909489e-06
96	0x370c305d	8.355911e-06
97	0x36e93efb	6.951273e-06
98	0x3688a110	4.071866e-06
99	0x360fec18	2.1446085e-06
100	0x3590948e	1.0772071e-06
101	0x36381836	2.743223e-06
102	0x359732ad	1.1265125e-06
103	0x3512451e	5.4489817e-07
104	0x360120d7	1.9241613e-06
105	0x35a920db	1.2601043e-06
106	0x3533230d	6.67337e-07
107	0x364da214	3.0641722e-06
108	0x362bf266	2.562208e-06
109	0x35af8954	1.3078484e-06
110	0x35538590	7.8797984e-07
111	0x375c6477	1.3136413e-05
112	0x368da8f1	4.221795e-06
113	0x36b37e40	5.349313e-06
114	0x36a8e79b	5.0337526e-06
115	0x365d072e	3.2935745e-06
116	0x36ab6187	5.107551e-06
117	0x36a205f5	4.8286697e-06
118	0x36f50a1d	7.3027463e-06
119	0x375e24ec	1.3240828e-05
120	0x362bfef0	2.5629379e-06
121	0x3542e099	7.2597464e-07
122	0x35032dc1	4.8867884e-07
123	0x341b02e2	1.4436549e-07
124	0x36a94cd5	5.045537e-06
125	0x350f7015	5.343475e-07
126	0x35f88037	1.8514755e-06
127	0x3601b598	1.93282e-06
128	0x35bb465b	1.3953062e-06
129	0x3552a895	7.8476415e-07
130	0x360b9ef1	2.080513e-06
131	0x36fc973a	7.5277903e-06
132	0x362ff7e0	2.6221314e-06
133	0x3652bae4	3.1401223e-06
134	0x36afe30d	5.2418386e-06
135	0x35f02f22	1.7895111e-06
136	0x3755236a	1.2704035e-05
137	0x362a4658	2.537292e-06
138	0x3630b448	2.6330981e-06
139	0x36727608	3.6129513e-06
140	0x3687e48a	4.049919e-06
141	0x36b14d04	5.283977e-06
142	0x3746367a	1.18144035e-05
143	0x361f754d	2.3761124e-06
144	0x3785242d	1.5871681e-05
145	0x36ba1a23	5.5462747e-06
146	0x3688e1df	4.0794107e-06
147	0x380ccf56	3.3571698e-05
148	0x36f02e06	7.157915e-06
149	0x368b3a7e	4.149332e-06
150	0x3700c7cb	7.6759125e-06
151	0x36597761	3.2405007e-06
152	0x368ebb22	4.253715e-06
153	0x375716cd	1.2820307e-05
154	0x37328155	1.0639739e-05
155	0x36bc0ada	5.6041e-06
156	0x3800a433	3.06705e-05
157	0x3715d694	8.931052e-06
158	0x378b95ed	1.6639906e-05
159	0x37dd4f25	2.6382108e-05
160	0x36083b9d	2.0300279e-06
161	0x356353ba	8.468593e-07
162	0x35500378	7.7491086e-07
163	0x345f3ad1	2.078989e-07
164	0x3661e9b7	3.3663653e-06
165	0x346827ce	2.1621165e-07
166	0x36a1451d	4.8062197e-06
167	0x35f3d6c1	1.8167412e-06
168	0x363dd9ee	2.8290046e-06
169	0x3540bba3	7.179862e-07
170	0x35fa8c39	1.8667262e-06
171	0x36738cff	3.6291892e-06
172	0x360f13d4	2.1320202e-06
173	0x36179475	2.2587167e-06
174	0x36bc2ced	5.6080667e-06
175	0x346998e6	2.175544e-07
176	0x3663cdcf	3.3945432e-06
177	0x376208aa	1.3472667e-05
178	0x3643b996	2.916529e-06
179	0x36f2aea3	7.2324924e-06
180	0x371f9b55	9.513305e-06
181	0x34eb1fad	4.3795208e-07
182	0x36c72346	5.9347685e-06
183	0x371020f5	8.590742e-06
184	0x36afe75f	5.2423416e-06
185	0x365ae3a9	3.2617047e-06
186	0x372b46e0	1.0208896e-05
187	0x37181ad6	9.066154e-06
188	0x36e68a22	6.870615e-06
189	0x3784381c	1.5761754e-05
190	0x369a7dda	4.6042087e-06
191	0x36c06a13	5.7343946e-06
192	0x365167ff	3.120396e-06
193	0x371fb6c2	9.51969e-06
194	0x372766a8	9.977877e-06
195	0x35fd1173	1.8855047e-06
196	0x369fcbf6	4.7623134e-06
197	0x37497e85	1.2009991e-05
198	0x35a75339	1.2466691e-06
199	0x37c12e72	2.302902e-05

exp_avg f4 [20]
0	0xbc37f366	-0.011227464
1	0xbb6480a8	-0.0034866724
2	0xbb9719d1	-0.004611232
3	0x3c18e09f	0.009330898
4	0xbaa84a19	-0.0012839466
5	0x3bf19729	0.007372756
6	0x3d05ff5d	0.032714237
7	0x3bd3d070	0.0064640567
8	0x3a3909fd	0.00070586783
9	0x3c2b2a5a	0.010447109
10	0xbbae2e8a	-0.0053156065
11	0xbc2b8533	-0.010468769
12	0xba5f6aaf	-0.0008522672
13	0x3bfe56b5	0.007761801
14	0x3c8ee177	0.017441494
15	0x3ca92f4d	0.020652438
16	0x3b5c493d	0.003361299
17	0xbbae3891	-0.005316802
18	0x3cc14fca	0.023597617
19	0x3b583791	0.0032992105

exp_avg_sq f4 [20]
0	0x3722a4ca	9.69432e-06
1	0x3662e6a5	3.3810877e-06
2	0x36c6173d	5.903565e-06
3	0x36277f29	2.4958956e-06
4	0x36d61f93	6.3813727e-06
5	0x37b8762c	2.1989537e-05
6	0x38323798	4.2490283e-05
7	0x362f713e	2.6142948e-06
8	0x36011a13	1.9237675e-06
9	0x36eb7850	7.017552e-06
10	0x35e9f41f	1.7430901e-06
11	0x37854144	1.5885227e-05
12	0x35abcdf3	1.2800432e-06
13	0x36bd78b9	5.646693e-06
14	0x3770e472	1.4358304e-05
15	0x37b4c794	2.1550608e-05
16	0x3504ca81	4.9468514e-07
17	0x360ecb63	2.1278036e-06
18	0x3778260c	1.479081e-05
19	0x36d82732	6.4418646e-06

exp_avg f4 [5, 20]
0	0xbc1b94e4	-0.0094959475
1	0x3c5c6c27	0.01345352
2	0xbc9a1bbb	-0.018812051
3	0x3c6820bc	0.014167961
4	0xbc79eb3e	-0.01525384
5	0xbd451dec	-0.04812424
6	0xbcb40756	-0.021976154
7	0x3c188030	0.009307906
8	0x3b143f67	0.0022620799
9	0xbcc54435	-0.024080375
10	0x3b9929de	0.0046741804
11	0x3bb3874e	0.005478776
12	0x3a699a71	0.0008911258
13	0xbc84acb2	-0.016195629
14	0xbc636508	-0.013879068
15	0xbd0a1ff7	-0.03372189
16	0xbc32d38b	-0.010914694
17	0xbcd3ee5e	-0.025870498
18	0xbc39cee5	-0.011340831
19	0x3ab4d2a8	0.0013795691
20	0x3c0b9657	0.0085197305
21	0xbb0decdc	-0.0021656072
22	0x3c5bce6d	0.013415915
23	0x3aaa83fd	0.0013009306
24	0x3cbf5eb0	0.02336058
25	0x3d28661e	0.04111301
26	0x3d0252e8	0.031817347
27	0x3cae3960	0.021267593
28	0x3bc7aaec	0.0060933735
29	0x3cd16f2b	0.025565704
30	0x3b9989dd	0.004685624
31	0x3c849f89	0.016189354
32	0x3c8bd0e6	0.017067384
33	0x3d24652d	0.04013555
34	0x3b99ab44	0.004689606
35	0x3cc9e0fd	0.024643416
36	0x3cb8bfb1	0.022552343
37	0x3c7ad94e	0.015310599
38	0x3a815c6b	0.0009869462
39	0x3b421460	0.0029614195
40	0xbba50c94	-0.0050369
41	0xba98400e	-0.001161577
42	0x3c24b759	0.010053479
43	0x3aa96afe	0.0012925563
44	0x3c544100	0.01295495
45	0xbbae0875	-0.0053110668
46	0x3c52992c	0.012853902
47	0x3a90d10b	0.0011048628
48	0x3a9b85a3	0.0011865388
49	0xbad81a3f	-0.0016487314
50	0x3ab30837	0.0013659064
51	0x3c85a411	0.016313585
52	0xbc18a551	-0.009316758
53	0x3bcfe9a0	0.006344989
54	0x3b75a0fc	0.0037479987
55	0x3afcc3ac	0.0019284389
56	0x3bcab465	0.0061860555
57	0xbac675c7	-0.0015141302
58	0xbb48593d	-0.0030570768
59	0x3c410381	0.011780621
60	0xbccbe120	-0.024887621
61	0xbc0f9153	-0.008762675
62	0xbb927583	-0.004469575
63	0x3b8699d5	0.0041076937
64	0xbcbc53e7	-0.022989227
65	0xbd259c9b	-0.040432554
66	0xbd18a111	-0.03726298
67	0x3c4be893	0.012445587
68	0xbc4f9767	-0.0126703745
69	0xbb284b24	-0.0025679553
70	0xbc1b7e87	-0.009490616
71	0xbc67d159	-0.014149033
72	0x3bfdb058	0.007741969
73	0x3c44c7b5	0.0120105045
74	0xbc886e50	-0.016654164
75	0x3c5463a1	0.0129632065
76	0xbb5fdd02	-0.003415883
77	0xbcc2206e	-0.023697104
78	0xbbade8bf	-0.0053072865
79	0xbc40be15	-0.011764069
80	0x3d0823c8	0.03323725
81	0x3c6bffd7	0.014404259
82	0x3c9d2d6e	0.019186702
83	0x3c7812a7	0.015141166
84	0x3d2146bc	0.0393741
85	0x3d3b49f7	0.045724835
86	0x3d416107	0.047211673
87	0x3c335ff7	0.010948173
88	0x3c288e6b	0.010287861
89	0x3caadf28	0.020858362
90	0x3cf292d0	0.029611021
91	0x3d3fe18f	0.04684597
92	0xb920ad66	-0.00015323385
93	0x3ce39207	0.027779592
94	0x3c9950b2	0.018715236
95	0x3d14eb47	0.03635719
96	0x3cd970a0	0.026542962
97	0x3cc3b4ff	0.023890017
98	0x3cfafa81	0.030637028
99	0x3ccd1dd1	0.025038632

exp_avg_sq f4 [5, 20]
0	0x3732d859	1.0659999e-05
1	0x37a52b31	1.9689645e-05
2	0x3773080e	1.4485804e-05
3	0x3761e2ec	1.3463879e-05
4	0x3870fd65	5.745645e-05
5	0x38cb8ed4	9.706398e-05
6	0x388ab39a	6.613806e-05
7	0x370df3cb	8.461017e-06
8	0x371975ff	9.146984e-06
9	0x38955c0e	7.12202e-05
10	0x378858b6	1.6253773e-05
11	0x382638c5	3.9630355e-05
12	0x352697ad	6.2060536e-07
13	0x37a86d9a	2.0078198e-05
14	0x3711117e	8.646746e-06
15	0x38043b8d	3.1526713e-05
16	0x3769381e	1.3900948e-05
17	0x382f80bb	4.184314e-05
18	0x37a15cca	1.9235904e-05
19	0x376c3ce5	1.4080874e-05
20	0x3718b1fe	9.101348e-06
21	0x371a5a1f	9.200098e-06
22	0x373d9501	1.12999705e-05
23	0x35c66679	1.4781973e-06
24	0x37ba7ab5	2.2230068e-05
25	0x386db87a	5.667701e-05
26	0x384e8df6	4.924644e-05
27	0x37eab504	2.7979266e-05
28	0x376da720	1.4165213e-05
29	0x3869e066	5.5760516e-05
30	0x37e5af2a	2.7380494e-05
31	0x377fadad	1.52396215e-05
32	0x378ec89c	1.7021135e-05
33	0x3848b0d8	4.7848414e-05
34	0x36c50566	5.871686e-06
35	0x384aa50e	4.8314272e-05
36	0x37ce3bfb	2.4585044e-05
37	0x37d54e2d	2.5427982e-05
38	0x373024af	1.04989585e-05
39	0x3635fd6b	2.711861e-06
40	0x36da9546	6.514284e-06
41	0x369d373f	4.685396e-06
42	0x370149e9	7.706208e-06
43	0x35d1b8b9	1.5625475e-06
44	0x36ee48b2	7.1014156e-06
45	0x3695889b	4.456449e-06
46	0x36ec3235	7.039193e-06
47	0x364cc5ed	3.0513577e-06
48	0x33b6388f	8.4853234e-08
49	0x35f26032	1.8058402e-06
50	0x3655fc93	3.188649e-06
51	0x370db7f5	8.447086e-06
52	0x36650887	3.4128623e-06
53	0x362fe6b9	2.621133e-06
54	0x35b1fcf2	1.3261144e-06
55	0x37021b6c	7.7549885e-06
56	0x36e21586	6.7378305e-06
57	0x364f43ea	3.0884935e-06
58	0x363466ed	2.6882e-06
59	0x366aacf1	3.4969382e-06
60	0x37ef913d	2.8558652e-05
61	0x37aa7d5e	2.0323958e-05
62	0x3801ca4f	3.094441e-05
63	0x3503a43e	4.9040307e-07
64	0x38c3179c	9.302722e-05
65	0x396b46ec	0.00022437767
66	0x39532f78	0.00020140212
67	0x381e9499	3.7808528e-05
68	0x37cb0041	2.4199604e-05
69	0x37d6171d	2.5521551e-05
70	0x3796093f	1.7885699e-05
71	0x38c9437d	9.5969976e-05
72	0x379046a5	1.7199034e-05
73	0x38c266d5	9.269795e-05
74	0x381341c1	3.510877e-05
75	0x38a180b2	7.7010496e-05
76	0x38c7922b	9.516285e-05
77	0x38975ada	7.2171635e-05
78	0x373f9e68	1.1421369e-05
79	0x37cb1a2e	2.4211677e-05
80	0x38020add	3.1004533e-05
81	0x3725bf2f	9.87928e-06
82	0x38846473	6.3129606e-05
83	0x375d7af2	1.3201252e-05
84	0x386f340c	5.7030513e-05
85	0x385d6113	5.2780913e-05
86	0x38825a2c	6.215679e-05
87	0x37e0f692	2.68177e-05
88	0x36b33fff	5.342066e-06
89	0x37b81041	2.1942078e-05
90	0x386fff57	5.7219844e-05
91	0x38cbc998	9.717344e-05
92	0x36e2d741	6.7603837e-06
93	0x37c81337	2.3850806e-05
94	0x382c894a	4.1135856e-05
95	0x381ee9dc	3.7887934e-05
96	0x3820b35c	3.8314014e-05
97	0x37a24c5e	1.9347466e-05
98	0x37fb740a	2.9975567e-05
99	0x37855197	1.5892829e-05

exp_avg f4 [5]
0	0xbd300111	-0.042969767
1	0x3d1abdf6	0.037778817
2	0x3bd8715b	0.00660531
3	0xbd24e9bf	-0.04026198
4	0x3de7bd9c	0.11315462

exp_avg_sq f4 [5]
0	0x38d0f7ce	9.96437e-05
1	0x389e0825	7.535544e-05
2	0x36ad31d0	5.1616007e-06
3	0x399c5a67	0.00029821994
4	0x39b1b254	0.00033892936
