checkpoints/epoch=0-step=4-v4.ckpt (torch, 11504 bytes, 12 tensors)

network.0.weight f4 [20, 10]
000000 03 fb 0f be 2d d0 5a 3e ae ca e6 3d d7 bc 6c bd
       -0.14060597 0.21368475 0.11269127 -0.05779728
000010 19 03 74 3c 47 8f 1d be 96 8b 83 bd bf cf 31 be
       0.014893317 -0.15386687 -0.06423108 -0.17364405
000020 78 f0 33 3e 4a b0 66 3c a6 3d 0a 3e bd 03 6d 3e
       0.175722 0.0140801165 0.1350008 0.23145957
000030 ad 7e 9b be d8 d1 76 be 3f 65 e3 bd 15 ac 8b be
       -0.30370083 -0.24103487 -0.111032955 -0.27279726
000040 ec 09 be 3d c5 a1 63 be f2 20 80 bd f0 b8 bf 3d
       0.09279236 -0.22229679 -0.06256284 0.09361446
000050 f4 2e df bc e9 11 66 3e 9a 1b 96 3e ea 65 f8 bd
       -0.027244069 0.2246777 0.29317933 -0.121288136
000060 cd b3 31 3e 89 e6 14 3e c0 4f 71 be 6b 64 89 3e
       0.17353745 0.14541067 -0.23565578 0.26834425
000070 e5 7b 3f 3e 0a 6d 88 bd 99 14 93 be 54 ee a5 bd
       0.18699606 -0.066614226 -0.28726652 -0.08102098
000080 9d b9 5e be c2 eb 9a be e6 c3 24 bd 5e 2f ea 3d
       -0.21750493 -0.30257994 -0.040225886 0.11434816
000090 37 b6 2a be fa c6 6e 3c da c7 85 3e 0e 55 0c 3e
       -0.16671072 0.014573807 0.26129037 0.13704321
0000a0 33 fc 73 3e 4f 8f 3b be a0 67 39 be 16 bf 68 bd
       0.23826675 -0.18316387 -0.18105936 -0.05682286
0000b0 44 a5 c9 bd b1 07 88 be 9c 2b 95 be 1f a6 65 3d
       -0.09845975 -0.26568368 -0.29134834 0.05606663
0000c0 5e fe 4c 3e a9 5e 40 3d 15 d5 1e 3e 0a f9 9f 3e
       0.20018908 0.046965275 0.15510972 0.3124469
0000d0 c8 d6 80 be 99 75 9a be 88 4f 8a be 9e 4b 43 3e
       -0.25163865 -0.30167845 -0.27013803 0.19071814
0000e0 fe f4 5d 3e 45 73 c8 bd 46 55 9b be 8e 1b 88 be
       0.21675488 -0.09787611 -0.30338496 -0.26583523
0000f0 8d 27 99 3e b5 58 43 3e ad d0 3f be 32 40 00 be
       0.29912987 0.19076808 -0.18731947 -0.12524489
000100 8f e5 1e 3e fc 0e 7a 3e 34 70 d8 3b 6c 1a 35 3e
       0.15517257 0.24419779 0.0066051725 0.1768586
000110 4b 1c 5e 3d 1c 3e 67 3d 0f 68 df bc 7a c4 49 bd
       0.0542262 0.056455716 -0.027271299 -0.04925964
000120 9f ef 9a 3d 29 96 65 be 1b 3e 7f be 98 7c 95 be
       0.07565235 -0.22420563 -0.24926035 -0.2919662
000130 fc 86 98 be 3b 56 0c bc c7 a8 9f 3c 71 0b 84 3e
       -0.29790485 -0.008565481 0.019489659 0.2578998
000140 30 3d 41 be f9 48 a9 bd 32 35 47 3e 4d 17 c2 bc
       -0.18870997 -0.082658716 0.19453886 -0.023692751
000150 a6 c3 06 be 72 7a 46 be 11 9c 4f bd ba 15 28 bd
       -0.13160571 -0.19382647 -0.050685946 -0.041036345
000160 a3 d2 9a be 64 e0 db bd 4d a8 99 3e 28 d3 f3 bb
       -0.30238828 -0.107361585 0.30011216 -0.0074409433
000170 e7 fa 25 3e 8c 52 6f be 14 ee 80 bc cd 14 95 3d
       0.16208993 -0.23371333 -0.015738524 0.07279358
000180 a4 e5 44 bb c4 e7 51 3c f9 04 01 bc 57 22 9a 3e
       -0.0030044103 0.012811605 -0.007874721 0.30104324
000190 18 ea f3 bd d5 16 8d 3d ff 31 e3 3d ad ea 82 be
       -0.11909884 0.068891205 0.110935204 -0.25569668
0001a0 d1 d6 9d 3e a9 71 62 be 5b 3b 01 3d f7 f6 8b 3e
       0.30827954 -0.2211367 0.031550746 0.27336857
0001b0 1a e7 fe 3d 48 3c 38 be fd e4 0f 3d 50 c4 9f 3d
       0.12446423 -0.17991745 0.03513049 0.078011155
0001c0 90 94 9f be 9f c9 97 bd f5 3a 93 3d 97 73 87 bd
       -0.31168032 -0.07411503 0.071889795 -0.06613844
0001d0 63 15 8a 3e e8 b0 2a 3e b3 11 95 bd 15 e0 27 3e
       0.26969442 0.16669047 -0.072787665 0.16394074
0001e0 65 c1 9f be 1d 2d ef 3d 8f 12 6a be 2b 3c d2 bd
       -0.31202236 0.116785266 -0.22858642 -0.102653824
0001f0 01 a9 24 bd 74 5f 89 3e da 73 67 bc 83 3a c3 bd
       -0.040200237 0.26830637 -0.014126742 -0.095326446
000200 b2 5c 23 be 41 e7 61 bc d8 66 a7 3c 7f 57 cb 3d
       -0.15953329 -0.013788045 0.020434782 0.09928798
000210 7a 4a a5 bd 58 60 82 3d 3c 85 2e 3e 7f 5a fb bd
       -0.08070846 0.06366032 0.17043012 -0.1227312
000220 af 60 35 3d 97 4f 47 3e b2 1e 5a 3e 2a e6 13 3e
       0.044281658 0.19463955 0.21300772 0.1444327
000230 01 18 96 3e c7 3d 38 be 37 4b 21 3e b7 b5 9b be
       0.2931519 -0.17992316 0.15751348 -0.30412075
000240 68 5f 83 be de 50 a6 bd a9 f1 36 3e 2e c1 40 3d
       -0.25658727 -0.08120893 0.17865624 0.04705923
000250 7d e2 88 be 99 5b 13 be 0b b7 99 3e 20 d2 2a 3e
       -0.26735297 -0.1439041 0.30022463 0.16681719
000260 17 6d 31 3e 7a bb 83 be ab 38 97 be e7 0a 9f 3d
       0.1732677 -0.2572897 -0.29535422 0.07765751
000270 1d 79 84 be 71 6f 2d 3e 01 5b fd 3d 16 a1 9c be
       -0.25873652 0.16937043 0.12370873 -0.3059165
000280 bd 8a 8a 3e c9 21 09 3e 8b 1e f9 bd d1 49 30 3e
       0.27058974 0.13391794 -0.12164029 0.17215659
000290 51 a3 52 3d 6e f7 cd bd 17 7e 16 3e a1 06 65 3d
       0.051425282 -0.10056959 0.14696537 0.055914525
0002a0 01 e6 6b be 0e 80 0a bd b6 83 e6 bd 15 7f 85 be
       -0.23036958 -0.03381353 -0.112555906 -0.26073518
0002b0 19 d4 89 be 76 23 e3 3c d4 8f 2d 3e be 3c 70 be
       -0.2691963 0.02772687 0.16949397 -0.23460671
0002c0 a8 e8 90 be ab 15 9a be 12 f0 98 3e 16 0a 02 be
       -0.28302503 -0.30094656 0.2987066 -0.1269916
0002d0 f9 83 09 3e e7 04 84 be 06 af a3 3d 7a f4 4f 3e
       0.1342925 -0.2578499 0.079923674 0.20308104
0002e0 ea 74 1e be ae 5f e6 3d cf 2e db 3d 43 23 9d be
       -0.15474287 0.11248718 0.107022874 -0.30690965
0002f0 ee 6d 84 3e 50 ce 92 3e 40 e2 5f bd 41 2f 8c 3e
       0.2586512 0.2867303 -0.05465913 0.27379802
000300 7a a5 b4 bd ef c5 60 3e b8 80 0a be a3 49 30 3e
       -0.08820625 0.21950506 -0.13525665 0.1721559
000310 cd a9 6f bd 7c e5 24 3e a8 4c 9a 3e 12 05 76 3e
       -0.058511544 0.16103166 0.3013661 0.24025372

network.0.bias f4 [20]
000000 e2 4e a1 be d1 23 73 be bf bd 87 be 25 09 a0 3e
       -0.31505495 -0.23744132 -0.26511952 0.31256977
000010 22 d6 fa bd 99 7b f8 bd 7f 03 80 3e 89 94 97 be
       -0.12247874 -0.121329494 0.25002667 -0.2960551
000020 1a 9d 8d be 11 cc 41 3e 23 cc 03 be 13 17 30 bd
       -0.2765892 0.18925501 -0.1287084 -0.042990755
000030 28 13 cd bd eb 64 bb 3d 2f 98 0d be 6f 0e 71 bc
       -0.100134194 0.09150108 -0.13827585 -0.014712914
000040 9c af 85 3d f7 09 a0 be fc d1 d6 bd 51 be 3f 3e
       0.065276355 -0.31257603 -0.1048927 0.18724944

network.2.weight f4 [5, 20]
000000 ff 87 54 3e 4b 5b e8 3d 7d 42 4b bd 74 0c c3 bc
       0.20755003 0.11345538 -0.049623955 -0.023809649
000010 cd e9 0b bc 68 69 25 3d d3 4d 6d 3d 8a f9 61 be
       -0.008539629 0.040383726 0.057935547 -0.22067848
000020 fc 3a 0f bd a8 fd 3c 3e 38 00 0f be 9d aa 2a be
       -0.03496836 0.18456137 -0.13964927 -0.16666646
000030 1a 46 44 3e 09 04 18 be 83 1a 1a 3e ec b2 8f 3d
       0.19167367 -0.1484529 0.15049176 0.070165485
000040 33 0c e5 3b ee 74 fc bc ca 11 28 3d 8d 9b 23 be
       0.0069899797 -0.030817475 0.04103259 -0.15977307
000050 9e d5 0d 3e 3c 50 4a 3e b4 a1 5a 3d 37 e8 e1 bd
       0.1385102 0.1975717 0.05337687 -0.110306196
000060 b5 e4 27 3e 75 51 c3 bc 12 e7 27 bd b6 5d f1 3d
       0.16395839 -0.023842553 -0.04099185 0.11785452
000070 88 1e 62 be 95 e8 45 3d 94 7d d1 3b 02 06 37 be
       -0.22081959 0.04831751 0.006393144 -0.17873386
000080 90 2b d8 bd 5c ec 78 bd 52 b0 5f 3e d2 7b c5 bd
       -0.10555184 -0.060772285 0.21844605 -0.096427575
000090 12 77 b1 bd 15 a9 43 be 75 f4 a3 bd 29 30 c7 bc
       -0.08665289 -0.19107468 -0.08005611 -0.024314957
0000a0 9a a6 a7 bd 5d 6a 23 be 7b fd f2 3d 3a 6b aa bd
       -0.081860736 -0.15958543 0.11864754 -0.08321233
0000b0 05 d0 90 3d 44 1b c1 3d 98 17 bd 3d f0 6d c1 bc
       0.070709266 0.09429029 0.09233016 -0.023611993
0000c0 20 da 6a bd 38 2f 47 3e 61 6d 41 be 48 a2 40 3e
       -0.057336926 0.19451606 -0.18889381 0.18811905
0000d0 d1 07 f0 3d d9 6a 26 be 6c 0f 2b bd 4d 35 e5 bd
       0.11720241 -0.16251697 -0.041762754 -0.11191807
0000e0 0e 90 3d 3e f1 25 d3 bc 93 37 a1 3d f2 cb 92 bd
       0.18511984 -0.025774928 0.07871928 -0.07167806
0000f0 3d 4c 00 3e d7 be c6 bd 56 51 ba bd a7 cc 2f 3e
       0.12529083 -0.097043686 -0.09097545 0.17167912
000100 4e 7c c8 3d e9 da 31 be 36 8a 42 3e 86 e5 10 3e
       0.09789334 -0.17368664 0.18998036 0.14150056
000110 ef f0 45 3e 2b d8 ae bd 65 9e 25 be 92 95 a9 3c
       0.1933019 -0.085373245 -0.16173704 0.020701203
000120 b6 ca 13 3c 99 4b bd 3d 74 da 2b bc e4 40 bc 3d
       0.009020498 0.09242935 -0.010489095 0.091920644
000130 12 7f 58 3d a6 e8 21 be aa b5 49 be a6 d2 99 bd
       0.05285556 -0.15811405 -0.19698206 -0.07510881
000140 74 29 95 b9 51 c8 fb bd 55 d0 7f 3c 31 18 47 3d
       -0.0002845038 -0.12294067 0.015613635 0.048607055
000150 3e 8f 63 bd 93 1c 55 be 88 8f 22 3e b2 cd 33 3e
       -0.05555653 -0.20811681 0.15875065 0.17558935
000160 5c 1e 07 3e 7c 66 14 be 02 55 4b be 5b 8a a8 bb
       0.13195175 -0.1449222 -0.19856647 -0.0051434464
000170 0c 46 32 3e 9b 82 09 be a0 29 90 bd ea 72 1b 3e
       0.17409533 -0.13428728 -0.07039189 0.15180555
000180 f0 30 3f be de 80 87 3b 45 2e 5a be 4b 55 1f bd
       -0.18671012 0.004135235 -0.21306713 -0.0388997

network.2.bias f4 [5]
000000 f3 e8 b6 3d 57 ed c2 3b 57 57 21 3d 54 5a 4c be
       0.0893115 0.0059487033 0.039389934 -0.19956332
000010 6b 63 2f be
       -0.17127769

exp_avg f4 [20, 10]
000000 46 eb bb b9 43 43 24 bb f7 6a 93 38 d8 42 e4 ba
       -0.00035842712 -0.0025064505 7.02943e-05 -0.001741494
000010 d6 b1 17 3a ca 18 19 bb 17 b7 92 bb c4 93 26 3a
       0.00057866925 -0.0023360723 -0.0044773924 0.0006354416
000020 05 47 98 bb 3c 76 76 bb 9c 09 0e bb fc 26 5a ba
       -0.004647138 -0.0037607094 -0.0021673208 -0.0008321849
000030 2a 40 5c 3b 29 8f 2c ba 2e d6 1e 3a 31 f5 95 ba
       0.003360758 -0.0006582612 0.0006059137 -0.0011440871
000040 96 44 35 bb 39 f0 1a bb ab 50 0d bb a8 d4 60 bb
       -0.0027659289 -0.002364172 -0.0021562974 -0.003430644
000050 c2 80 d9 37 c0 44 6f 3b 9a 17 3b bb 08 8e db 39
       2.5928373e-05 0.0036509484 -0.0028548003 0.00041876757
000060 18 b8 03 ba 4c 98 fd 39 87 d7 8a 3a 2b b6 db ba
       -0.00050246855 0.0004836939 0.0010592797 -0.0016762664
000070 c1 26 1d b9 8c ff 93 ba 25 08 4e 3b 6f 62 c0 3a
       -0.00014987124 -0.0011291369 0.003143796 0.0014677773
000080 7e f3 87 39 46 67 97 bb 43 d0 ad 3b d3 a2 df bb
       0.00025930622 -0.0046204654 0.0053043677 -0.00682483
000090 fc 5c 7a bb 9e 88 33 3a 42 97 16 3b b2 6a 80 bb
       -0.0038202396 0.00068486657 0.002297834 -0.003918969
0000a0 6f fc ea ba b2 17 e7 39 8d 39 86 3b 7e 46 70 ba
       -0.0017928014 0.00044077408 0.004096216 -0.00091657776
0000b0 aa b5 d7 3b a2 96 42 ba 97 eb 13 ba ec b1 c2 3a
       0.0065829353 -0.0007422959 -0.00056427106 0.001485405
0000c0 7f 12 f4 ba 7a fc eb 3a 9a b5 79 3b 92 fd dc 3b
       -0.0018621235 0.0018004321 0.0038102628 0.006744095
0000d0 5b 3b 1d bb da 1f 94 ba 77 1e 35 bc be db cb 3b
       -0.0023991677 -0.0011300996 -0.011054627 0.0062212637
0000e0 96 3b 19 3c ba b1 86 bb ba 50 c2 ba 87 d6 73 39
       0.009352585 -0.004110542 -0.0014825084 0.00023254204
0000f0 77 73 96 bb a7 00 b9 ba 20 3e 95 3a 34 48 8d bb
       -0.004591401 -0.0014114574 0.0011386313 -0.004311586
000100 b1 77 09 3c bd d7 7b 3b 05 de 23 bb 07 49 0e bb
       0.008390353 0.003842815 -0.002500416 -0.0021711008
000110 e4 41 70 bb c0 ea 9b bb ae 4b c2 ba 90 75 65 bb
       -0.0036660368 -0.004758209 -0.001482358 -0.00350127
000120 80 60 66 bb e4 56 66 bb 19 67 5c 3c 11 04 1d 3b
       -0.0035152733 -0.0035147006 0.013452315 0.0023958723
000130 88 9a 91 bb 07 8f dc 3b 1c 1c 26 bb e4 13 1c bc
       -0.0044434704 0.0067309174 -0.0025346344 -0.009526227
000140 94 2c ba 3b fb 53 96 3a 39 68 ae bb c1 41 83 3a
       0.0056815837 0.001146912 -0.005322483 0.0010014103
000150 65 90 14 3c 72 83 99 bb 78 d6 82 bb ba 41 c6 3a
       0.009067629 -0.004684859 -0.003992852 0.0015125789
000160 6d de 0e 3c 66 2c a5 3a 2b 6c b9 3b 25 52 09 3c
       0.008720023 0.0012601733 0.0056586466 0.008381401
000170 01 39 c7 bb be ac 41 3b f9 3d 96 bb 1e 66 1f 3c
       -0.0060797934 0.0029552425 -0.0045850244 0.0097289365
000180 d1 3a 2b 3c fa 77 e3 3a c8 be b9 b9 cd fa 2c 3b
       0.010451035 0.0017354481 -0.00035428093 0.0026394606
000190 3e 26 82 bb 60 af 96 bb dd 8f 47 3b 1b 49 00 bb
       -0.003971844 -0.004598543 0.003045074 -0.0019574824
0001a0 ab c4 39 3b 43 06 8b bb 71 df 93 3b 26 81 1b 3b
       0.0028345983 -0.00424269 0.0045127203 0.0023728102
0001b0 a3 c7 80 b9 11 93 8b 3b f1 2b 5f 3b 2a 06 fb 3a
       -0.00024562803 0.004259475 0.003405329 0.0019151617
0001c0 83 bb a5 bb db 1b 31 bb 6f fc cb ba 57 64 1f bb
       -0.0050577535 -0.002702466 -0.0015562902 -0.0024321282
0001d0 78 f2 a6 3b 4f c7 4d bb 01 9c 36 3b 71 ae a6 b9
       0.0050948225 -0.0031399315 0.0027863982 -0.00031791956
0001e0 e8 2e 1d 3a 33 b1 c5 3a 11 c1 49 bb 45 0d 73 3b
       0.0005996064 0.0015082717 -0.0030785243 0.0037086767
0001f0 26 6f 3b ba 51 4a 3f 3b 97 ee c6 bb 78 b2 0c 3a
       -0.00071500463 0.0029188583 -0.0060709226 0.000536717
000200 23 90 bd bb 32 95 e1 37 06 14 31 bb eb 0f 38 bb
       -0.0057850047 2.6891565e-05 -0.0027019992 -0.002808566
000210 09 76 66 3b a1 f3 bd bb 5e 22 2b 3b ca bb 87 ba
       0.003516557 -0.005796865 0.0026113014 -0.0010355648
000220 11 9d 74 3b be 13 b0 ba 1e 8a 40 3b 10 88 44 bb
       0.0037325064 -0.0013433618 0.00293792 -0.0029988326
000230 4c 68 55 bb 0b 63 48 bb 29 af 02 3b e2 d2 34 bb
       -0.0032563386 -0.0030576612 0.001994083 -0.0027591516
000240 b5 fd af 3a 86 8f 91 3b 5d 0c 52 3b 66 4c 9a ba
       0.0013427051 0.004442158 0.0032050826 -0.0011772036
000250 82 b5 00 bc e0 c1 a3 bb 23 61 fc bb ba 75 58 ba
       -0.007855775 -0.004997477 -0.0077020093 -0.0008257289
000260 6c f1 94 bb ac da 9b 3a b1 43 92 3b e3 d0 ef bb
       -0.0045453813 0.0011890731 0.004463636 -0.0073186024
000270 3b 06 73 ba ef b0 80 ba be 2c 31 3b 3f 63 30 ba
       -0.0009270643 -0.0009818355 0.0027034725 -0.0006728656
000280 ef ea 95 3b f5 4e db 3b 5d 1e 6e 39 13 20 2c bb
       0.0045751254 0.006692762 0.0002270876 -0.0026264235
000290 6e 11 1d 3c 74 df e8 ba 6f 21 13 3c da b1 9e 3b
       0.009586675 -0.001776679 0.008980139 0.004842979
0002a0 75 62 83 ba c9 67 16 3a 17 6a 0d bb cf 90 eb 39
       -0.0010023849 0.0005737511 -0.0021578127 0.00044930584
0002b0 00 c6 97 bb 4a 14 1d 3b a4 46 d7 3b 35 2e 3a bb
       -0.0046317577 0.0023968392 0.0065697003 -0.002840889
0002c0 cd bf ad 3b 45 44 b7 ba 1e e1 10 ba 36 e6 68 bb
       0.0053024055 -0.0013982138 -0.0005526709 -0.0035537607
0002d0 0b 2a c8 3a 78 6e 37 3b 85 ad 3a 3a 69 30 b7 3b
       0.0015271319 0.0027989428 0.00071211933 0.0055904877
0002e0 33 ef bc bc af a7 11 bb d7 98 b2 3b ed 45 66 bb
       -0.023063278 -0.0022225191 0.005450349 -0.0035136894
0002f0 94 d8 09 3c f2 8c 7c 3c 1d b2 e2 3a c9 0d 38 3a
       0.008413453 0.015414463 0.0017295514 0.0007021097
000300 40 04 5a 3b 37 df e4 ba 8a 23 44 bc 64 9d ee bb
       0.0033266693 -0.0017461543 -0.011971364 -0.007281946
000310 56 da ad 3b 08 28 40 bb 2c 6e b1 3b 93 ae 91 3b
       0.0053055687 -0.0029320735 0.005414745 0.0044458597

exp_avg_sq f4 [20, 10]
000000 66 dc fc 35 c4 08 11 35 cb a4 e9 32 73 8e 23 36
       1.8839607e-06 5.4029465e-07 2.719971e-08 2.437181e-06
000010 32 e9 ce 32 94 73 3f 36 1d 76 b3 35 91 43 07 35
       2.4087601e-08 2.8528493e-06 1.3370915e-06 5.038974e-07
000020 dc 43 c1 35 cf f6 12 35 8e 15 e8 34 ba 9a f4 34
       1.439937e-06 5.474839e-07 4.322905e-07 4.556112e-07
000030 39 58 41 35 d5 86 ec 34 08 3b 2a 35 5b 8e 7c 35
       7.2026484e-07 4.405653e-07 6.3415837e-07 9.408447e-07
000040 a1 a9 3e 35 23 70 53 35 3e 1d 75 34 79 74 e6 34
       7.102736e-07 7.8766806e-07 2.2828041e-07 4.2925583e-07
000050 cc e6 ae 35 c3 43 8f 35 d8 48 8a 35 6a a0 59 34
       1.3031181e-06 1.0674052e-06 1.0303002e-06 2.0268058e-07
000060 09 97 b7 34 34 cb 2c 34 ca 02 80 34 e3 c1 04 35
       3.41963e-07 1.6092673e-07 2.3843887e-07 4.9455974e-07
000070 60 bd 9e 34 29 7d 14 35 95 21 ee 35 fc 2d 99 35
       2.9567582e-07 5.531643e-07 1.7742155e-06 1.1412772e-06
000080 b2 dd a3 35 ca dc 39 36 2a be 86 36 07 3e fb 36
       1.2208968e-06 2.7695664e-06 4.015649e-06 7.487604e-06
000090 ad 9f 1c 36 2b 08 eb 34 d0 bf 4a 36 0c 51 3a 36
       2.3338755e-06 4.3778104e-07 3.0211995e-06 2.7763335e-06
0000a0 5a d7 19 35 90 37 d3 34 e5 f5 2a 35 43 4d dc 34
       5.731032e-07 3.934224e-07 6.368776e-07 4.103441e-07
0000b0 de 17 9e 36 4a d2 eb 34 5c 26 89 34 3e 4e 79 34
       4.7115454e-06 4.3925166e-07 2.554615e-07 2.3218396e-07
0000c0 b9 ed d1 34 38 62 35 35 e3 d9 4c 36 6c ec e0 35
       3.910225e-07 6.757068e-07 3.0525196e-06 1.6758108e-06
0000d0 e1 01 b5 36 8e 66 d5 36 81 a1 94 37 b7 10 ba 36
       5.394439e-06 6.3598336e-06 1.7718181e-05 5.545178e-06
0000e0 bc 6e 04 37 92 53 98 35 9a ba e3 34 76 9a 05 36
       7.8935955e-06 1.1349205e-06 4.2417815e-07 1.9908452e-06
0000f0 af 66 3e 36 71 08 c1 34 1f 7a b0 35 2f 44 96 36
       2.8371976e-06 3.5955193e-07 1.3148564e-06 4.478286e-06
000100 3b d2 26 37 5b 99 92 35 86 0d 98 35 7e 21 e5 35
       9.943319e-06 1.092248e-06 1.1328818e-06 1.7071577e-06
000110 f6 51 07 36 33 21 1a 36 8e 2f 60 36 af 4a 2c 36
       2.0164275e-06 2.2967113e-06 3.3406282e-06 2.5673469e-06
000120 a0 7e 13 35 d1 04 8f 35 e5 1b 69 37 1a d9 f5 35
       5.494603e-07 1.0655732e-06 1.3894377e-05 1.8317107e-06
000130 59 25 b0 35 23 73 0d 37 b9 06 db 35 ec 8b d6 36
       1.3123891e-06 8.431062e-06 1.6318728e-06 6.393986e-06
000140 b3 40 36 36 72 e6 a3 35 d4 09 b6 35 cb 7d b0 35
       2.7157773e-06 1.2211515e-06 1.3562917e-06 1.3149632e-06
000150 3d 4e cb 36 d8 27 b1 36 62 b9 15 36 cc 6a 04 36
       6.0589796e-06 5.2796495e-06 2.2310637e-06 1.9731697e-06
000160 f6 f3 b7 36 ca 93 86 34 7d f3 dc 36 8b 17 aa 36
       5.482226e-06 2.5066976e-07 6.5848567e-06 5.0691356e-06
000170 02 db 08 37 7e 23 be 36 94 f3 47 37 21 74 20 37
       8.157223e-06 5.666573e-06 1.1918037e-05 9.5637815e-06
000180 89 7d 37 37 ea 57 c8 35 01 65 2e 36 4d dd b2 36
       1.0936878e-05 1.4926748e-06 2.5986812e-06 5.330576e-06
000190 c7 9d 3e 36 a4 2c c0 35 b5 72 80 35 44 6c f6 35
       2.8404045e-06 1.4318107e-06 9.570127e-07 1.8359938e-06
0001a0 2c d2 d7 35 a8 81 b7 35 a0 d8 01 36 77 0b 66 35
       1.6079916e-06 1.3672297e-06 1.934859e-06 8.569836e-07
0001b0 d0 01 3e 35 9a f0 66 35 62 36 09 36 ad 01 49 35
       7.0783153e-07 8.60318e-07 2.0446246e-06 7.4880774e-07
0001c0 30 21 f7 35 f3 79 a8 34 cf 64 08 37 39 9f db 34
       1.8412593e-06 3.1381168e-07 8.129703e-06 4.0907778e-07
0001d0 6f 46 0b 36 50 1e e2 35 c4 75 05 36 05 c5 0b 36
       2.0753612e-06 1.6847134e-06 1.9887093e-06 2.0827295e-06
0001e0 70 5a 54 36 4b 0f 1c 35 61 af 34 36 d8 f3 c8 36
       3.1643103e-06 5.8136783e-07 2.6924174e-06 5.9888516e-06
0001f0 de 08 96 35 a5 af be 35 71 7d 00 36 3a 76 a9 35
       1.1178452e-06 1.4207222e-06 1.9146503e-06 1.262589e-06
000200 9f 95 e1 35 71 3d 85 34 0a ab e0 35 66 20 a2 35
       1.6807352e-06 2.4817885e-07 1.673908e-06 1.207937e-06
000210 00 72 82 35 59 27 ee 35 df 7d 54 35 2e 17 c7 34
       9.718933e-07 1.7743833e-06 7.915932e-07 3.7083504e-07
000220 6a a5 07 36 3a d6 da 35 ec 64 bf 35 1f 60 75 35
       2.0212851e-06 1.6304614e-06 1.4259981e-06 9.1409487e-07
000230 a2 a9 c4 35 85 17 ac 35 4a 0b 8e 35 98 e3 30 35
       1.4652508e-06 1.2821844e-06 1.058311e-06 6.58963e-07
000240 ce 86 4c 35 1a 15 53 36 4d 7d 20 36 f4 86 5f 35
       7.619209e-07 3.1453733e-06 2.3914793e-06 8.3270356e-07
000250 da d8 a4 36 87 6b 20 36 d6 ea 17 36 d0 97 7d 34
       4.9128257e-06 2.3904447e-06 2.2637446e-06 2.361769e-07
000260 a1 92 58 35 20 53 a9 35 1f c3 94 36 b7 42 56 36
       8.0679644e-07 1.2615674e-06 4.433459e-06 3.1927318e-06
000270 de 8f 4c 35 a0 2f fe 34 c7 21 18 35 9b 93 23 35
       7.6205276e-07 4.7345839e-07 5.6673565e-07 6.0937026e-07
000280 df e5 77 36 bf dc 85 36 54 8a a0 36 33 7a be 36
       3.693967e-06 3.989407e-06 4.784475e-06 5.676667e-06
000290 67 d5 ad 36 56 ad 7b 36 57 c1 ac 36 1d a5 84 35
       5.180645e-06 3.750281e-06 5.148507e-06 9.882821e-07
0002a0 7d 20 30 36 f7 86 f1 35 db 33 93 34 11 b6 c4 34
       2.6244954e-06 1.7995179e-06 2.7418614e-07 3.6640316e-07
0002b0 0e 1a 01 36 c7 77 3d 35 bf ab 40 36 c6 42 a2 35
       1.9237664e-06 7.0582286e-07 2.87102e-06 1.2089374e-06
0002c0 6a 72 00 36 f8 33 b9 35 95 3d 91 34 84 b1 04 36
       1.9140084e-06 1.3798699e-06 2.7053161e-07 1.977286e-06
0002d0 2f d9 08 37 40 f8 d7 35 10 2c 0f 35 c8 57 af 36
       8.156799e-06 1.6090999e-06 5.333577e-07 5.2256255e-06
0002e0 a9 aa 16 38 dc 2e 8c 35 42 49 0d 36 75 1c 33 36
       3.5921727e-05 1.0444451e-06 2.105328e-06 2.6689643e-06
0002f0 7e 43 43 36 13 37 5d 37 52 bf 09 36 c2 34 51 35
       2.909655e-06 1.31854495e-05 2.0525954e-06 7.793534e-07
000300 d8 47 9d 35 82 35 08 36 22 33 c0 36 92 72 5a 36
       1.1718321e-06 2.0296725e-06 5.7279985e-06 3.255122e-06
000310 8c 77 8a 35 72 22 ac 35 8e 2c 48 36 f5 0a b6 35
       1.0316594e-06 1.2825024e-06 2.9828257e-06 1.3563246e-06

exp_avg f4 [20]
000000 9d 2b a7 ba 48 f7 d5 ba 4d 2b 12 bb 77 9c 4a bc
       -0.0012754087 -0.0016324306 -0.0022303641 -0.012366406
000010 45 66 02 bb 58 d4 83 3c aa 94 4e bc ed 84 e5 bb
       -0.0019897383 0.016092464 -0.012608686 -0.0070043714
000020 f1 b2 0a bc f7 2d 91 3c e0 de f4 3b 62 d4 bb 3b
       -0.0084655145 0.017722113 0.007472858 0.005732105
000030 eb b7 cc 3a b4 24 9d 3b fc 1c 54 3b 68 11 d9 bb
       0.0015618777 0.004795635 0.003236591 -0.0066243894
000040 ba 38 50 3c c5 d4 3f 3b 32 b2 81 3c d5 86 eb 3a
       0.012708837 0.0029271108 0.01583204 0.001796926

exp_avg_sq f4 [20]
000000 48 c5 d0 35 de 13 18 35 9a c7 01 35 a5 87 06 37
       1.5554624e-06 5.6653323e-07 4.8346703e-07 8.018605e-06
000010 ee 1d ad 35 27 69 40 37 5a 85 13 37 0e 6b f2 36
       1.2898215e-06 1.14685745e-05 8.792931e-06 7.224625e-06
000020 19 c7 81 36 27 67 75 37 81 ad 33 36 eb 26 1e 36
       3.8676776e-06 1.4627155e-05 2.677407e-06 2.3566488e-06
000030 bc 84 3e 36 aa 34 f0 35 f2 c2 33 35 2c 39 01 36
       2.8389468e-06 1.7896721e-06 6.696638e-07 1.9255776e-06
000040 37 d2 b8 36 20 c1 cb 35 6d 04 6b 37 0a 66 7b 35
       5.5080995e-06 1.5180885e-06 1.4008122e-05 9.3653273e-07

exp_avg f4 [5, 20]
000000 93 0a ba 3a 28 93 ef 3a 50 3c 4c 3b 64 c0 02 3c
       0.0014193825 0.0018278109 0.0031163879 0.00798044
000010 5d 51 cd ba a0 ce 95 3c 79 57 68 3c f3 83 b7 39
       -0.0015664507 0.018287003 0.014181011 0.0003500279
000020 b9 39 97 3b 70 67 56 bb 32 69 d7 3b 7a 2f c2 3b
       0.0046150354 -0.0032715462 0.0065738196 0.00592607
000030 d5 bc 64 3c 66 34 e1 3b 50 ee ae 3a a6 b5 0e bb
       0.013961037 0.0068727015 0.0013346169 -0.0021775751
000040 9a 5d ed 3b 03 3b a5 3b 85 52 97 3b 74 06 30 3c
       0.007243824 0.005042435 0.0046179914 0.010743726
000050 76 c5 4e 3a 88 9a fc bb 74 c6 79 3b 93 a8 09 bb
       0.00078877003 -0.0077088512 0.0038112672 -0.002100502
000060 ae 13 58 bb a7 f2 d1 3a 33 bb 7b 3b da f6 70 bb
       -0.0032970714 0.0016017751 0.003841114 -0.0036768229
000070 98 41 a1 3b 04 05 6b bb b4 3a 5a bc 25 67 03 bc
       0.0049211495 -0.0035861144 -0.01331966 -0.008020197
000080 d1 0c d1 3b 35 bd f8 ba 6a e3 3d 3b e7 07 e3 ba
       0.0063797017 -0.0018977287 0.002897466 -0.0017321081
000090 f3 c5 fa bb 10 92 1a bb 47 e9 24 bc e8 37 ab bb
       -0.007652992 -0.0023585595 -0.010065383 -0.0052251704
0000a0 41 7f 22 3b a8 fc f6 3b e8 16 39 3a 0d 03 12 ba
       0.0024795088 0.007537443 0.0007060603 -0.00055699126
0000b0 07 4d e3 bb 07 ac bd 3c 71 53 8e 3c fb e5 be bb
       -0.0069366726 0.023153318 0.017373772 -0.0058257557
0000c0 f2 f0 d2 bb 11 ea 83 bb 10 6c e7 3a 13 f9 38 3c
       -0.0064374143 -0.0040257056 0.0017656107 0.011289853
0000d0 4c c0 59 3c d0 f9 ca 3b 76 2d 75 bb be 86 9f 3a
       0.013290476 0.0061943308 -0.003741113 0.0012170894
0000e0 e2 28 19 3c b2 62 f4 ba 1f 42 88 bb 57 2c 21 ba
       0.009348126 -0.0018645136 -0.004158273 -0.000614827
0000f0 2d 14 6f bb bf 1a 11 bc da b8 07 3b e2 65 89 bc
       -0.0036480532 -0.008856474 0.0020709545 -0.016772214
000100 cc 70 15 bc 5f 6a 1d bc 7f 65 c5 bb 5f 0f b6 bb
       -0.009121131 -0.00960788 -0.006024062 -0.0055560316
000110 43 12 b0 bb 3f a3 24 bc 8b 8c 21 bb f4 01 3a bc
       -0.0053732707 -0.0100486865 -0.002465042 -0.011353005
000120 f6 4b c0 bb 5a e3 14 bc 7c 38 57 bc 85 53 06 bc
       -0.0058684302 -0.009087408 -0.0131360255 -0.008198624
000130 5c dc 55 bc c7 16 ff bb 9d 9e c2 bc bb 80 06 bd
       -0.013053026 -0.0077846977 -0.023757273 -0.03283761
000140 57 43 02 bb 9e 2a 07 bc 25 e0 cf bb 12 f5 b4 bc
       -0.0019876563 -0.008249907 -0.006343859 -0.022089515
000150 3e 8d 06 bc 2a 0e a2 bc 43 a8 dd bc 96 99 f0 bb
       -0.008212386 -0.019782145 -0.027057773 -0.0073425276
000160 95 da d7 bb 26 d2 1d bd 65 58 66 bc dc 3d 87 bc
       -0.0065873363 -0.03853049 -0.014059161 -0.016508989
000170 0a 18 17 bc 12 10 af bc ed 06 cf bc 2c 36 cf bc
       -0.00922204 -0.021369968 -0.025271857 -0.025294386
000180 78 01 8e bc 99 42 da bb 59 1c cb bc ad 73 e7 bc
       -0.017334685 -0.006660771 -0.02479379 -0.0282534

exp_avg_sq f4 [5, 20]
000000 08 5b 27 35 f2 4f 88 35 44 2e 56 36 72 ca 9c 38
       6.2344816e-07 1.0156057e-06 3.1915415e-06 7.476368e-05
000010 0a 62 31 36 6a 0e 9d 37 bc da 53 37 a0 61 19 36
       2.6432122e-06 1.872257e-05 1.2627508e-05 2.2855602e-06
000020 e8 44 9f 35 ce 11 a0 36 6d 2e 08 37 58 c4 e8 35
       1.1866478e-06 4.7704443e-06 8.117041e-06 1.734249e-06
000030 e5 e3 86 37 af 2a 08 37 c7 21 f7 36 fc a3 5e 36
       1.6080166e-05 8.11617e-06 7.365106e-06 3.317603e-06
000040 db 86 9c 36 55 67 69 37 25 89 af 36 58 23 e2 37
       4.6648615e-06 1.3911941e-05 5.231372e-06 2.6957758e-05
000050 e4 b5 f4 34 0e d3 84 36 30 b0 48 36 7d 2f 28 37
       4.5580884e-07 3.9584766e-06 2.9904877e-06 1.0024637e-05
000060 97 fd bd 36 1b da 7d 36 e2 50 af 36 cf ef 9f 36
       5.6621607e-06 3.7826892e-06 5.2248224e-06 4.7664867e-06
000070 8a 7d e1 35 2a 72 25 37 ef 64 21 37 ec 48 1a 37
       1.6800343e-06 9.861347e-06 9.619848e-06 9.196094e-06
000080 60 75 9f 36 99 ff 16 36 19 b8 0c 35 51 f8 08 36
       4.7522335e-06 2.250052e-06 5.242196e-07 2.0410118e-06
000090 4c 73 16 36 ae d2 09 35 c7 10 f7 37 db f7 a5 37
       2.2418853e-06 5.1343056e-07 2.9452507e-05 1.978495e-05
0000a0 fb 92 c1 34 72 7b 43 36 e0 58 28 36 28 4e 88 37
       3.6055994e-07 2.912912e-06 2.5085683e-06 1.6248858e-05
0000b0 f5 4f 40 36 be b5 04 38 73 f8 e3 37 94 75 86 36
       2.865677e-06 3.1640513e-05 2.7176202e-05 4.007199e-06
0000c0 84 92 b9 36 a7 31 ad 37 4b 2a 49 36 2f 97 a2 36
       5.5304863e-06 2.0646328e-05 2.9975952e-06 4.8455763e-06
0000d0 89 99 48 37 57 43 43 36 7b 38 85 37 c6 46 81 37
       1.1956677e-05 2.9096461e-06 1.5881136e-05 1.5410955e-05
0000e0 8b e6 21 37 ba ac 7c 36 2c 22 7a 37 17 ae a8 36
       9.650025e-06 3.7651466e-06 1.4909117e-05 5.027057e-06
0000f0 67 ca 10 36 03 5a 70 36 10 fe 33 35 84 f7 e2 37
       2.1575486e-06 3.581518e-06 6.7052406e-07 2.7056558e-05
000100 2d 28 03 37 aa 75 83 36 a9 15 e2 36 62 73 a1 36
       7.817563e-06 3.917802e-06 6.7378464e-06 4.8116062e-06
000110 90 c5 38 36 6c 84 a2 37 22 87 fa 34 54 b7 fb 36
       2.7533133e-06 1.9373569e-05 4.666445e-07 7.501725e-06
000120 4a 5b 40 36 4c 88 65 37 52 9e 0a 37 f7 db c2 36
       2.8663367e-06 1.3681198e-05 8.262303e-06 5.807258e-06
000130 08 57 07 37 97 d3 18 37 d4 87 3d 38 45 99 93 38
       8.066891e-06 9.109171e-06 4.518761e-05 7.038055e-05
000140 6f 9b f0 34 a8 2f 59 36 37 13 96 36 05 53 9d 37
       4.4816576e-07 3.236326e-06 4.4725853e-06 1.8754517e-05
000150 b4 ca 46 37 9d d1 e4 37 ee 1f e7 37 36 d6 d5 36
       1.1848915e-05 2.7277327e-05 2.7552214e-05 6.372832e-06
000160 31 7e 11 36 e8 72 6a 38 dd c9 61 37 05 1f 62 37
       2.1680137e-06 5.5896962e-05 1.3458045e-05 1.3477872e-05
000170 6a 18 99 36 ae 95 d8 37 1f 49 02 38 c9 45 c2 37
       4.5625975e-06 2.5818907e-05 3.1062515e-05 2.3159098e-05
000180 e1 fd 81 37 5a 5a e5 36 98 44 53 38 f9 f9 44 38
       1.549622e-05 6.83525e-06 5.0370203e-05 4.6962847e-05

exp_avg f4 [5]
000000 16 ca a4 3c 85 8c df bb 3e 16 00 3b 38 20 63 bd
       0.020115893 -0.006822171 0.0019544507 -0.055450648
000010 30 d1 9d bd
       -0.07705915

exp_avg_sq f4 [5]
000000 7e e3 8b 38 7f 99 a8 36 54 17 37 38 f3 e1 0b 39
       6.67041e-05 5.0246595e-06 4.3652326e-05 0.00013340246
000010 3c 25 60 39
       0.00021376176
