checkpoints/epoch=0-step=4.ckpt (torch, 11504 bytes, 12 tensors)

network.0.weight f4 [20, 10]
00000000: 29de 773e a401 f23d db19 9d3e b843 ff3d
00000010: 0f3d 81be cb53 6c3e 80ea 693d a52c 47be
00000020: 3c36 43be a29b 20bc 921e 4f3e 9c2e e03d
00000030: 3b7f 78be 85f3 9fbe 9c18 f13d 41dc bfbd
00000040: 34f6 273e 510a 69be e1cb 5dbd 26c2 123e
00000050: 2a88 59bc 17df 99be b369 4d3d 6fe4 9dbe
00000060: 0529 96be 85d2 8bbe 5e2b 043d ce38 933e
00000070: 652e 9e3e b491 93be f0e2 c0bd 40d5 9fbd
00000080: 064f bbbd be70 7f3e 71b9 c0bb 14c3 6b3e
00000090: 06e0 e5bd 285c 42bd 9c81 9b3e b8ed 2c3e
000000a0: e591 9dbd 6b2a 0a3b eed2 76be a06b 3fbd
000000b0: b589 26bb 9c2d 06be d841 1dbd 8f86 82be
000000c0: 640b cc3d 7491 f3bd afd7 043e 13c4 093e
000000d0: b3af 8b3e 9ea5 3abe 4a1d 273e ae6f 89be
000000e0: 8851 523e 2eba 413e 7287 c0bd a36e 953e
000000f0: 697d 93be b405 2cbc 9adc 503e 862f 9bbe
00000100: 5071 a1be 5322 353d bb5f 4c3e fc35 ab3d
00000110: f51d 41be 3809 713d 2c6a 90bc 6ef9 863e
00000120: 56a0 053e fedb 6d3e 73e3 743e 342a 473e
00000130: 1db4 163e 8c15 4abe 6a6e 913e 435c 1ebe
00000140: e489 143e b09f 98be 5323 6d3e 91e2 2bbe
00000150: 6757 22be 53bf 623e eb0e 523d cfa1 993e
00000160: f3d0 98be 3c52 3b3e cdb9 aabd 651f 243e
00000170: 3fa0 673d 63ba 823e e749 8c3e f9a3 673c
00000180: 803f 81be 75f4 ef3d cacc 9fbe 499e abbd
00000190: 3e18 02be 71d8 ac3d 6493 253e fa27 bf3c
000001a0: c3e1 953e 64fe 88be 16b1 723e 60ca e9bd
000001b0: aeb4 2d3e ad43 5fbe 569f d03d a3c9 8a3d
000001c0: 2a77 cabd dd0b 8cbe 866e 72bd eb7a 0b3d
000001d0: 8e6d 943b 8959 7ebe d956 9c3d f760 833e
000001e0: 377b 4abd ca94 e73b fdf5 8dbe b891 043e
000001f0: 76b8 0f3e adfd 813d 103b 51be 3f62 673d
00000200: 93b1 abbb 527d e03d 9833 a2be 6c1b 55be
00000210: f36e fabb 8bb7 fd3c 89a4 75bd c4a6 6d3e
00000220: f976 0d3e 3833 29be f754 f8bd d729 763e
00000230: 02cc 0f3d 61b8 953e 7166 ac3b 6493 013e
00000240: 79bd 2d3e 6789 93be a1f7 e03d df6e 813e
00000250: 2b44 e03d 741b 16be 3798 833e 6903 093e
00000260: 79f4 1abe 980c c93c 5057 8d3d 4cfc cbbd
00000270: 6a73 a1bd ac95 00ba fe24 973e 432b f13d
00000280: bc60 613d fee2 783d c387 2e3d 5646 373e
00000290: 4d3d 483e 2bf3 993e 30e0 3cbe 6397 2ebd
000002a0: 1913 08be ea72 133e a9ab 363c f54f bd3d
000002b0: 34d8 1bbe 26e9 06be 8465 253e 7eb6 61bd
000002c0: e4fb bebb b1be 64be 570c 8f3e 1c0b 29bd
000002d0: a7e6 0dbe e032 103d d8a8 5a3d 1cdb 483e
000002e0: c954 6bbe 084f 7c3e 9d91 113c b9b2 553c
000002f0: a52b 873e 44cc 2fbe 7a2f 03be 20d8 27be
00000300: 9d7e 993d f449 39be 406b 9a3b 0994 85be
00000310: f396 1a3e 9a36 ebbc 874f 923e b34d 343e
0.24205841 0.11816719 0.3068379 0.12464088 -0.25241897 0.2307884 0.057108402 -0.19450624
-0.19063658 -0.009802731 0.20226505 0.1094639 -0.24267285 -0.31240478 0.11772272 -0.09368182
0.16402513 -0.22757842 -0.054149512 0.14331874 -0.013277093 -0.30053017 0.05014963 -0.30838344
-0.2932817 -0.2730905 0.03226792 0.28754276 0.3089477 -0.288221 -0.09418285 -0.07804346
-0.09145932 0.24945351 -0.0058814813 0.23023635 -0.1122437 -0.04745117 0.30372322 0.16887558
-0.07693843 0.0021082412 -0.24103901 -0.0467335 -0.002541167 -0.13103336 -0.03839287 -0.25493285
0.0996311 -0.11892977 0.12972902 0.13453703 0.27282485 -0.1822724 0.16319767 -0.26843017
0.20538914 0.18918678 -0.09400834 0.29185972 -0.28806618 -0.010499407 0.20396653 -0.30309695
-0.31531763 0.044222187 0.19958393 0.08359906 -0.18859084 0.058846682 -0.017628752 0.26362175
0.13049445 0.23228452 0.2391489 0.19449693 0.14717145 -0.19734782 0.28404552 -0.15464883
0.14505726 -0.29809332 0.23158006 -0.16785647 -0.15853654 0.22143297 0.051283758 0.30006263
-0.29846916 0.18293089 -0.0833622 0.16027601 0.056549307 0.25532827 0.27400133 0.014138215
-0.2524376 0.11716548 -0.3121093 -0.083798 -0.1270456 0.084397204 0.16169506 0.023334492
0.29273805 -0.26756585 0.23700365 -0.11415553 0.16963455 -0.2180316 0.10186641 0.067767404
-0.0988601 -0.273528 -0.059187435 0.03405277 0.0045296615 -0.24838842 0.076337524 0.25659916
-0.049433913 0.0070672976 -0.27726737 0.12946212 0.1403521 0.06347213 -0.20432687 0.05649018
-0.0052396744 0.10961403 -0.31679988 -0.20811242 -0.0076426207 0.03097131 -0.059971366 0.23208147
0.13814916 -0.16523445 -0.12125581 0.24039398 0.035106666 0.29242232 0.0052612354 0.12653881
0.1696681 -0.28815767 0.109847315 0.252799 0.10950502 -0.1465891 0.25702068 0.13380207
-0.15132321 0.024542138 0.06901419 -0.09960231 -0.078833416 -0.00049051153 0.2952041 0.1177583
0.055023894 0.06076335 0.04260994 0.17897925 0.19554634 0.30068335 -0.18444896 -0.042624842
-0.13288535 0.14399305 0.011149325 0.09243766 -0.15219194 -0.13174877 0.16152006 -0.05510568
-0.0058283675 -0.22338368 0.27939102 -0.04127036 -0.13857518 0.03520477 0.05338368 0.19614834
-0.22981562 0.24639523 0.008884815 0.013043099 0.26400486 -0.17167765 -0.1281108 -0.16391039
0.07494853 -0.18094617 0.004712492 -0.26089504 0.15096645 -0.02871256 0.285763 0.17607765

network.0.bias f4 [20]
00000000: 115a 0bbe 02c4 7fbe e248 a43c 1a3f a3bd
00000010: 735d 3a3d 2ab1 ca3d ce1b 94be 66d5 3f3e
00000020: 3fed 60be 9b54 42be 3403 9fbd cd75 993e
00000030: c670 043e b41e b33c 5103 3a3d 12c2 1d3d
00000040: 3b17 a63c b9d0 72bb 258d 0a3e 9248 8cbe
-0.13608576 -0.24977115 0.020054284 -0.0797102 0.045499276 0.098970726 -0.28927463 0.18733749
-0.21965502 -0.18977587 -0.07764283 0.29972687 0.12933645 0.021865226 0.04541332 0.038515158
0.020274749 -0.0037050678 0.13530405 -0.27399117

network.2.weight f4 [5, 20]
00000000: 5ae2 d9bd d9a0 4ebe 03fd a43d 1432 97bd
00000010: cb69 c6bd a012 443e 8297 46bd c650 443e
00000020: 6f25 313d 5c35 2f3e cf0a 4b3e ff44 493e
00000030: cb4c b93d 03ab 5bbe 9611 66bc b5cf abbd
00000040: 1d89 333e 7786 8d3d 3474 63bd aa05 30be
00000050: c3d4 613d 6331 483d 8870 ad3d 3650 ac3d
00000060: 3db4 9abd ec92 4fbd 266b 8d3d baa6 733d
00000070: e2e2 cb3a f6d6 213e f9c5 f43d 1a46 eabd
00000080: 3ba9 5c3d ccb4 1fbb 1a6a 61bd f7b4 10be
00000090: 408a fc3b 2e70 a4bd a59b 8cbd b178 43be
000000a0: af01 293e c3dc 523e 1b81 60bc 659d c6bd
000000b0: 2cfb 4ebe e727 1e3e 713d 2c3e 92ab 54be
000000c0: 18a3 493d 1ddd 55be 3ab1 953d d2ac c9bb
000000d0: 2433 52be 6d40 583e 6a78 753d 22d2 963c
000000e0: b9a7 f23c a8df ddbd dac0 23be 9d89 003e
000000f0: c203 ef3c 2c87 54bd a744 a1bd 1b80 403e
00000100: c28b 10be dd08 413e 8c0d 26be 7c8a 1c3e
00000110: fcb5 023e 7026 41be 86b3 223e bab1 efbd
00000120: 770c febd b066 993d 49c1 eabd 86e0 113e
00000130: 768d 18be 3e57 653d 3a5e 0abd 32c1 f3bd
00000140: 323c 753c 68fb 2f3d ad8d 10bd f39b 9e3d
00000150: 272c b7bd 1999 5d3e 19c5 3b3e 337b 193d
00000160: f03f d73d fb4a d93d c389 08be d820 cc3c
00000170: 702b 4c3e e0ec 2cbe 81d6 3e3e f742 44be
00000180: aff2 56bc a48c 953d e1ec 16be d916 84bc
-0.10638876 -0.20178546 0.08056071 -0.073825985 -0.09688147 0.1914773 -0.048484333 0.19171438
0.04324859 0.17110199 0.19828342 0.19655226 0.0904785 -0.21451955 -0.014042279 -0.08389226
0.17532773 0.06910413 -0.05553074 -0.1718966 0.055134546 0.048875224 0.08468729 0.084137365
-0.07553909 -0.050677225 0.069052026 0.059485175 0.0015555287 0.15804657 0.11951823 -0.11439152
0.05387233 -0.0024369238 -0.055032827 -0.14131533 0.0077069104 -0.08029209 -0.06865624 -0.19089009
0.16504548 0.20592026 -0.013702656 -0.096979894 -0.20213002 0.15444909 0.16820313 -0.20768574
0.049227804 -0.2088513 0.07309194 -0.006154635 -0.20527321 0.21118326 0.05992929 0.018410746
0.029620992 -0.10833675 -0.15991536 0.12552495 0.029176597 -0.051886722 -0.078744225 0.18798868
-0.14115813 0.18851037 -0.16216105 0.15287203 0.12764734 -0.18862319 0.15888795 -0.117038205
-0.12404721 0.07490289 -0.114626475 0.14245805 -0.14897713 0.055991404 -0.033781268 -0.119020835
0.014967965 0.04296437 -0.035291363 0.07744589 -0.08943968 0.21640433 0.18336906 0.037471008
0.10510242 0.106100045 -0.13333802 0.024918005 0.19938445 -0.16887236 0.18636514 -0.1916617
-0.013119384 0.07302216 -0.147388 -0.016124176

network.2.bias f4 [5]
00000000: b934 cd3d 2b1d 00be 763f 65bd 6bcd a9bc
00000010: f949 413e
0.10019822 -0.12511127 -0.055968724 -0.020727834 0.18875875

exp_avg f4 [20, 10]
00000000: 638e 4abb 67b5 e0ba f211 dc3a 5c86 86bb
00000010: fe97 a8b9 fd86 8d3a decb e838 84d3 4f3a
00000020: d105 02bb eb46 413b d979 2f3b 20c4 01bb
00000030: 2c50 413b 14fd 3b3a 54b1 b63b 0167 2639
00000040: 2bc7 403b ced7 343a 827e 9abb b925 a4b9
00000050: 0389 0ebb 8c83 453b 66fc 143a 09ab 5b3a
00000060: 835c 5bb9 8053 04ba 98bd 06bb 7a5e 003b
00000070: bf5e 65ba 3a5f 0cba 99dc 90b9 f033 c63a
00000080: 4f91 313a 45a5 b9b6 c2c5 66bb 7d1c 4c3b
00000090: 6c3c 61ba 10d9 f33a 67db 733b 01f4 3a3b
000000a0: a566 9b3b 9e54 edbb c311 09bc c781 a2bb
000000b0: fe64 79bb ee73 3aba 25ac 5e3b 94f9 99bb
000000c0: cb99 543c e77b abbb 6ebb 3337 773d 593b
000000d0: b6a8 9e39 c70a 993b 3dfc 26bc a91b 11b7
000000e0: 7360 bebb f2cb 083c 250f f9ba 6f8d b93b
000000f0: 686c babb 591b 3d3a 13ee 19bb b112 5cbb
00000100: cda3 89bb abcc 6eb9 7fbe a4bb b86b 9a3a
00000110: 5366 a9bb f394 ce3b 6105 12b9 40bf bc3b
00000120: 8657 9e3a 38dc a93b 0e9d 7dbb 8d47 b539
00000130: b97c 94bb df59 213b 9b5a 9f3b fe1b daba
00000140: 78b0 923a 1180 83b9 eaaa 493b f0c2 f839
00000150: e7f9 bdba a3c1 c139 7136 57ba 27ce beba
00000160: 8536 03bb 961a 6a3a c191 db3a 53b3 ae3b
00000170: 5e9a dfbb f151 2a3a b54e 30bb fc89 243b
00000180: edfe 11bc 8130 3939 36c6 a2bb 072e a6bb
00000190: 88bb 50bb e5e5 493b bcaf d43b 2086 f53b
000001a0: 12f9 dc3a d5d7 fa38 8389 75bb 4c4b 1bba
000001b0: fe27 a1ba 3d6a 49b9 d213 8cbb 2f6e 17bb
000001c0: 47b3 63bc 5818 48bb 3b36 d5bb 5dcd b9bb
000001d0: 7a58 b5ba acb4 3fbb 1ca6 323b 1907 73bb
000001e0: d218 483a e58e 6abb a0e7 82bc feb2 79bb
000001f0: 28cc c1bb 3690 37ba fa84 afbb ac0a 7c3b
00000200: 6681 353c 2ce4 853a 177e e63b 1768 0a3c
00000210: b22d 403c 3738 ac3b 7e4b 803b da64 fd3a
00000220: 06d8 f139 2b81 a039 9577 37bc 9f86 1ebb
00000230: a082 4e3b fe40 21ba 4a95 cdbb f340 6abb
00000240: bc0e 5ebb 36f7 223b 1763 6fba e849 733b
00000250: ace8 dd3a 7fe4 143b cdae 3abb 930b 77bb
00000260: 5bcd f73b 3478 7c3b e23a c93b 57b7 46bb
00000270: 627d a63b ad1d c3bb 4f95 c4bb 64df d0b8
00000280: e35a 78ba 1526 c93b d015 49bb d5fe e63a
00000290: 02de 2cbb 8ad9 fc3a 0c7d c2bb 420a ba39
000002a0: 6302 a0bb 831c cbbb a759 e9ba a0f7 c0bb
000002b0: a480 fabb e891 59bb f594 40bb e61f 30bb
000002c0: 87fe 89b9 eb41 e7ba 843d 163c 8a28 3b3a
000002d0: 4d3a 9d3b aaf3 55bb e830 abbb 2a85 9abb
000002e0: 9696 eeba 3389 233b 2496 0fba 3f4a 2abb
000002f0: c785 c13b b6db 88bb 2359 e03b ed97 06bc
00000300: 9709 94bb 77b7 07bb ddaf ad3a d967 0bbb
00000310: 3cc9 763b 7e92 99bb 177d 2fba 351c 32bb
-0.0030907623 -0.0017143906 0.0016790016 -0.0041053724 -0.000321567 0.0010797676 0.00011100595 0.00079279416
-0.0019839893 0.0029491733 0.0026775508 -0.0019800738 0.002949725 0.00071711955 0.0055753384 0.00015869366
0.0029415588 0.00068986125 -0.004714788 -0.00031308623 -0.0021749146 0.0030138223 0.0005683362 0.0008379673
-0.00020919931 -0.0005047843 -0.0020559784 0.0019587562 -0.0008749775 -0.0005354766 -0.00027630178 0.001512168
0.0006773667 -5.5326695e-06 -0.0035213088 0.003114491 -0.00085920724 0.0018604118 0.0037209631 0.0028526785
0.004742461 -0.007242753 -0.008366051 -0.0049593183 -0.003805458 -0.0007112612 0.0033977118 -0.0046989415
0.01297612 -0.005233276 1.0712871e-05 0.0033148208 0.00030261808 0.004670474 -0.010191974 -8.649114e-06
-0.0058098375 0.008349406 -0.0019001706 0.005662612 -0.0056891926 0.0007213853 -0.002348785 -0.0033580477
-0.004200435 -0.00022773693 -0.0050275917 0.001178137 -0.0051696687 0.006304377 -0.00013925649 0.0057601035
0.0012080527 0.005183723 -0.0038698348 0.0003457632 -0.0045314697 0.0024620218 0.004863096 -0.0016640422
0.0011191508 -0.00025081684 0.0030772039 0.00047447486 -0.0014494032 0.000369561 -0.00082097115 -0.0014557288
-0.002002151 0.0008930353 0.0016751812 0.0053314357 -0.006823822 0.00064971956 -0.0026902382 0.002510666
-0.008910877 0.00017661044 -0.0049674762 -0.005071405 -0.0031850059 0.0030807194 0.0064906757 0.0074927956
0.0016858897 0.00011961131 -0.0037465997 -0.0005924001 -0.0012295244 -0.0001920843 -0.0042748237 -0.0023106446
-0.0138977235 -0.0030532088 -0.006506709 -0.005670233 -0.0013835572 -0.0029251976 0.0027259653 -0.0037083088
0.0007633093 -0.0035790738 -0.015979588 -0.0038101072 -0.00591423 -0.0007002385 -0.005356428 0.003845851
0.011078214 0.0010215095 0.007034074 0.0084476685 0.011729645 0.005255725 0.0039152494 0.0019332424
0.00046128052 0.00030613816 -0.011197944 -0.0024189127 0.0031510964 -0.0006151347 -0.0062739 -0.003574428
-0.0033883294 0.0024866587 -0.0009131892 0.003712291 0.0016930304 0.0022719202 -0.0028485537 -0.0037696108
0.007562322 0.0038523795 0.0061410526 -0.0030321681 0.0050808648 -0.0059544654 -0.0059992443 -9.959823e-05
-0.00094739924 0.006138573 -0.0030683167 0.0017623553 -0.0026377444 0.0019290906 -0.005935317 0.00035484327
-0.004883097 -0.006198467 -0.0017803208 -0.005888894 -0.0076447297 -0.003319854 -0.002938566 -0.0026874482
-0.00026320314 -0.0017643546 0.00916994 0.00071395247 0.0047982098 -0.0032646456 -0.005224336 -0.0047155814
-0.0018202837 0.0024953603 -0.000547739 -0.0025984196 0.00590584 -0.004176582 0.0068465634 -0.008214933
-0.0045177448 -0.0020708719 0.0013251264 -0.0021271615 0.0037656566 -0.0046866527 -0.000669436 -0.0027177457

exp_avg_sq f4 [20, 10]
00000000: 2267 0c35 556c 5034 0b62 1c35 d45e 7b35
00000010: d19e 2235 aba8 ea33 1428 2135 cb7f 9734
00000020: e5e7 6535 1be7 1135 0de5 e934 f3f6 1f35
00000030: cece 0235 1c8f 4935 1954 b435 561b 2736
00000040: 1958 9c35 5991 0035 2365 0b36 4bc1 f934
00000050: ae83 b434 17c1 5435 d3d2 fc33 1ffb 8634
00000060: fa9d c734 4421 9f33 8c15 1235 b135 e134
00000070: 1dc2 3b35 f2e1 dd34 a43d f134 349f aa34
00000080: be7c 2d36 dec7 c734 46c8 1335 779e 3d35
00000090: fdf9 2434 6277 7a35 4e71 9b36 de2a f034
000000a0: e5a8 d435 e0aa 0e37 738e 8d36 ba05 8b36
000000b0: 0605 6536 4aac d035 ae8d 9f35 6576 b935
000000c0: 061a ea36 5afb b336 3914 a435 9294 2c36
000000d0: 55a2 d736 ac2d b236 51b0 8736 6474 7d35
000000e0: 8a02 f735 8f78 2637 1c5e 1737 4da5 8b36
000000f0: 6a9f 2f36 a67e dd33 a270 d134 68da ab35
00000100: 2a79 5236 7677 0533 e058 2b36 0722 3235
00000110: 5e6d 0236 0530 8136 d3aa 2935 f1e5 9e35
00000120: 0d2f 9033 0ed0 6f36 2e13 be35 1f24 ba32
00000130: dd8f c535 831e 2936 43c3 4736 e668 8335
00000140: d5b9 1e34 f650 f334 6a04 4435 7c67 d934
00000150: 5af5 9135 f1e3 3534 fc1c dc34 c96c 5734
00000160: db70 0b35 5c5d 9934 2a1c 3a36 cf7b 8936
00000170: e6b7 3836 636c 0636 619e 1136 ce7f 0936
00000180: 240b 3d36 6731 1836 7c2f 4e36 e3cb 6e37
00000190: e385 0236 5418 dc35 4e1c e635 2908 6b36
000001a0: c100 b635 f203 4f35 1ba9 c835 f1e9 4b35
000001b0: 4c22 d335 802a bf35 303f 4e35 669c 8636
000001c0: 3c87 2a37 68be 5136 2f37 2136 71e3 5336
000001d0: 4e92 c334 ef10 5135 59f1 5235 ea22 9436
000001e0: 6747 bf36 a177 ed36 41d3 3137 a591 8836
000001f0: 0b67 6136 a140 1336 03c6 fa35 aee4 1436
00000200: 0278 bb36 b5e5 fe36 2ffa 8136 7e11 2437
00000210: 23ae e336 395f 1d36 a4a7 0936 e09f 8236
00000220: 9ea4 2436 7042 0135 bb10 b536 26c1 ee35
00000230: b572 4c35 d0d1 0435 a9c7 8036 874d bb35
00000240: 6765 6435 9a42 ff35 0c14 ca35 3a45 f235
00000250: e527 c234 1e7f 2b36 53d2 7536 eff6 eb35
00000260: 882d 7236 cd1b d135 2c87 4e36 e7f8 6835
00000270: 82c3 e935 e440 c335 01c9 4836 aed9 f836
00000280: 329a 5235 1600 3f36 9a02 5936 2273 fc35
00000290: d1d4 cb35 49c9 cc34 bab5 7436 12c6 a834
000002a0: b2ff f535 0d5a 6036 b467 7b34 8ec0 5836
000002b0: 253b 0736 fda2 0235 0829 1335 4093 2236
000002c0: c3b6 6534 e121 9a34 91a7 6036 a42f c634
000002d0: afd1 a035 dcff 1536 f06c c235 a1bb 0f36
000002e0: 9aa7 9f35 c29b 8334 245e a334 d590 9035
000002f0: 8a30 2336 581c a335 cd6c 2936 87f1 8136
00000300: b732 1836 354c a035 9bee e534 86d3 0936
00000310: 33a1 7936 7477 ce35 a0bd ed35 acb7 aa34
5.230414e-07 1.941092e-07 5.82572e-07 9.364278e-07 6.058081e-07 1.0927155e-07 6.0035495e-07 2.8218923e-07
8.56466e-07 5.435301e-07 4.3566288e-07 5.9591474e-07 4.8729714e-07 7.5086587e-07 1.3435521e-06 2.490085e-06
1.1648546e-06 4.7895224e-07 2.0771483e-06 4.6520503e-07 3.3623422e-07 7.9257137e-07 1.1773013e-07 2.514216e-07
3.7181582e-07 7.4100655e-08 5.4420593e-07 4.1948581e-07 6.99454e-07 4.1328855e-07 4.4934598e-07 3.1780803e-07
2.5851618e-06 3.721206e-07 5.5053204e-07 7.0638583e-07 1.5364635e-07 9.330598e-07 4.6325504e-06 4.4734674e-07
1.5844386e-06 8.5036445e-06 4.2187107e-06 4.1431895e-06 3.4126583e-06 1.554735e-06 1.1887657e-06 1.3818031e-06
6.976773e-06 5.363877e-06 1.2224838e-06 2.5716477e-06 6.4263972e-06 5.3101303e-06 4.0438395e-06 9.4419215e-07
1.8403673e-06 9.922441e-06 9.022213e-06 4.1617664e-06 2.6169823e-06 1.0314152e-07 3.9011235e-07 1.2804057e-06
3.1362965e-06 3.1075125e-08 2.5532718e-06 6.6359684e-07 1.943517e-06 3.85009e-06 6.320599e-07 1.1838839e-06
6.714081e-08 3.573488e-06 1.4161685e-06 2.1669676e-08 1.4719514e-06 2.5200723e-06 2.9766968e-06 9.79079e-07
1.4782502e-07 4.5321184e-07 7.3022113e-07 4.0494695e-07 1.0874749e-06 1.6939863e-07 4.0999282e-07 2.0063011e-07
5.194576e-07 2.85664e-07 2.7732553e-06 4.0973314e-06 2.752518e-06 2.0030645e-06 2.1698872e-06 2.0488983e-06
2.816968e-06 2.267852e-06 3.0724032e-06 1.42333765e-05 1.9449442e-06 1.6398358e-06 1.7144573e-06 3.5022479e-06
1.3560276e-06 7.711925e-07 1.4950377e-06 7.596382e-07 1.5730707e-06 1.4242978e-06 7.683293e-07 4.0117184e-06
1.0164276e-05 3.1254258e-06 2.402299e-06 3.1573838e-06 3.642803e-07 7.788321e-07 7.8582303e-07 4.4148082e-06
5.700556e-06 7.077077e-06 1.05992085e-05 4.070071e-06 3.3587592e-06 2.1942326e-06 1.868408e-06 2.2186828e-06
5.587005e-06 7.5965313e-06 3.873625e-06 9.7792345e-06 6.7853994e-06 2.345025e-06 2.051217e-06 3.892914e-06
2.4533724e-06 4.8152924e-07 5.396168e-06 1.7788595e-06 7.616284e-07 4.947915e-07 3.8379408e-06 1.3955149e-06
8.508418e-07 1.9018364e-06 1.5056007e-06 1.8050553e-06 3.6164343e-07 2.5554978e-06 3.663027e-06 1.7580732e-06
3.6087313e-06 1.5579805e-06 3.0775072e-06 8.6788936e-07 1.7416753e-06 1.4547518e-06 2.9919322e-06 7.416317e-06
7.845548e-07 2.8461268e-06 3.2337034e-06 1.8808971e-06 1.5186616e-06 3.8144415e-07 3.6464612e-06 3.1436554e-07
1.832834e-06 3.3431018e-06 2.3413924e-07 3.229859e-06 2.0150994e-06 4.8665953e-07 5.4821476e-07 2.4225592e-06
2.1393775e-07 2.8709385e-07 3.3476138e-06 3.6915037e-07 1.1981955e-06 2.235166e-06 1.4485831e-06 2.1417875e-06
1.1895202e-06 2.451398e-07 3.0429612e-07 1.0770988e-06 2.4317146e-06 1.2152695e-06 2.5246293e-06 3.872617e-06
2.2679285e-06 1.1943108e-06 4.2828182e-07 2.0537714e-06 3.7197722e-06 1.5382961e-06 1.7713064e-06 3.1798606e-07

exp_avg f4 [20]
00000000: 941a b839 ec7c 17ba 7736 a2ba 1ba0 733b
00000010: 233c f43b 84da a73b b30e c53b 4183 1f3c
00000020: 9705 bc39 6e75 273c eae8 3fbb b49f f23b
00000030: 62a8 a43c 4b11 37bc d759 503b 121b 32bc
00000040: 6230 3e3b d416 083c b868 113a 2ef1 eb3a
0.00035115017 -0.00057788077 -0.0012375851 0.0037174288 0.007453458 0.0051224846 0.006013715 0.009735883
0.0003586232 0.0102208685 -0.0029283115 0.007404292 0.020099822 -0.011173557 0.003179183 -0.010870712
0.0029020538 0.008306224 0.00055469153 0.0018000954

exp_avg_sq f4 [20]
00000000: 873b 6c35 e908 d333 50ed 9a34 a3ba 1636
00000010: a41a 9836 0260 a836 914b 9136 533f c136
00000020: 2ac2 0435 729e 2037 750c 5a35 fa53 9c36
00000030: 7e58 9337 a398 d536 2258 9e35 9a23 a036
00000040: 6156 3d36 de88 3736 d582 1a36 eb48 2b36
8.8003475e-07 9.827074e-08 2.8857403e-07 2.2460379e-06 4.5330544e-06 5.017967e-06 4.330134e-06 5.75922e-06
4.945638e-07 9.573634e-06 8.1229456e-07 4.6589385e-06 1.7564973e-05 6.365664e-06 1.1797567e-06 4.772516e-06
2.8213474e-06 2.7348792e-06 2.3023943e-06 2.552343e-06

exp_avg f4 [5, 20]
00000000: 775b f73b 947d 7abb f3b5 fdba 10ce f239
00000010: 874a 043c 10c3 0bbc d5ef 583b 2c42 da3b
00000020: aa0d 193b f9a9 0e3c fb63 143a d232 7b3a
00000030: 1073 213c 4137 f2b9 9fbc 4c3b 3ff4 d6ba
00000040: d2f3 dc3b 8b8f d2ba 89c1 c53b c9b2 d1b7
00000050: 2ea7 8a3b 5563 48bc 996c 99bc 6309 57bb
00000060: db5e 8fbc 17f3 3a3c 09d8 f53b 0792 953b
00000070: 9f68 ce3b 4167 403c 0dd5 e3ba 808c 29bc
00000080: e485 7f3b b428 513b c191 a53b f5c3 9cbb
00000090: 942c 553b 4bec 75bc b7d1 143a 63b1 19bc
000000a0: 0d1c 7739 fbf1 4935 42bc 2bbd e7e0 82bc
000000b0: 7192 a1bc fc1d d4bb 6457 f83b e948 62bc
000000c0: 5c8f bb3b 0255 973b 8674 4dbc 8b40 91bc
000000d0: 173f f2bb 0f51 21bb 1353 29bc 7363 9fbc
000000e0: 8293 8a3b 669f 93bc 1d3c c8bc 9671 82bc
000000f0: a042 1b3a e459 4ebb 8f45 9fbc 0cb1 1fbb
00000100: 807f 4fbc 029f 013c 2f49 bc3a 910b c639
00000110: c321 473b c2a8 033b 836c 033c 7c80 75bc
00000120: 1b03 5ebc 8cfa 7aba ed01 123c a02a e0bb
00000130: 4338 e1ba 102a 10bc a5ee 3abb f67e fdbb
00000140: 3f71 543b 9ede 093c bd00 f93c 39dd 663c
00000150: 2be3 3d3c 2f56 3a3c 1f14 8b3b f244 7bbb
00000160: 88a3 b73b 45e6 c33a 2d63 20bc 8be4 eb3c
00000170: ca22 613c 5151 7e3c d2c4 a33b bab7 9b3c
00000180: 5f9d e53b 1cbb 643c abb0 803c 2f2f ee3b
0.0075487453 -0.0038221823 -0.0019356593 0.00046311365 0.008074409 -0.008530393 0.0033101935 0.0066607203
0.0023354092 0.008707517 0.000566065 0.0009582463 0.009854093 -0.00046199004 0.0031240357 -0.0016399695
0.006742933 -0.0016064508 0.006035034 -2.4997995e-05 0.004231355 -0.012230714 -0.018728541 -0.0032811991
-0.017501285 0.011410496 0.00750256 0.004564527 0.006299093 0.011743368 -0.001738222 -0.010348439
0.0038989717 0.003191513 0.0050527756 -0.004784102 0.0032527791 -0.01500995 0.0005677002 -0.009380671
0.00023566205 7.5230463e-07 -0.041927584 -0.015976382 -0.019723149 -0.006473301 0.007578777 -0.013811328
0.005723877 0.004618288 -0.012539988 -0.017730972 -0.007392775 -0.0024614965 -0.010334748 -0.0194566
0.00422901 -0.018020343 -0.024442727 -0.015923303 0.00059227087 -0.0031486684 -0.019442348 -0.0024367003
-0.012664676 0.007911446 0.0014365072 0.0003777412 0.0030385114 0.0020089601 0.008021477 -0.014984246
-0.013550545 -0.00095740776 0.008911592 -0.006841019 -0.0017182905 -0.008799091 -0.002852359 -0.007736082
0.0032416133 0.0084148925 0.03039586 0.0140908295 0.011589806 0.011373087 0.004244342 -0.0038340655
0.0056042112 0.0014945945 -0.00978927 0.028795501 0.0137412045 0.015522317 0.004997828 0.019008506
0.0070072855 0.013960626 0.015709242 0.0072688083

exp_avg_sq f4 [5, 20]
00000000: d3e3 5936 68b8 4735 2e96 8436 f176 9436
00000010: 48d0 c336 3de0 1937 f69d 8635 bd44 c337
00000020: 27ca 5336 3060 9b37 b6d4 7937 b780 8637
00000030: a778 8637 5ad4 8834 c683 e936 53a8 0a36
00000040: a18a 1d37 efa6 9c35 c0b0 8836 578b 7634
00000050: 51b2 b635 4da5 0437 bf49 ae37 7652 4536
00000060: b6ef 3837 0b9f 1637 43bd 9136 adb8 b736
00000070: 8ba8 8a36 24fc 2937 af20 9136 d76f d936
00000080: 4f38 9536 80f6 ee36 a5eb 7337 522d 2c36
00000090: 3354 9b36 8edb 0337 6e6d 2336 c524 7636
000000a0: 41aa f636 e55e 0635 cd02 1039 7cdc 5337
000000b0: 3424 cf37 2f7f 3f37 3427 b736 3256 fe37
000000c0: cb74 1b37 abda 6637 15b1 4b37 012c fa37
000000d0: 0bee 0037 e734 7c37 23ef 7537 fe55 7d37
000000e0: 6f19 5337 eab5 5c37 f14e 1638 464e e237
000000f0: a620 1636 3cb9 8136 ab01 8e38 41c6 bf36
00000100: b0e2 a537 3ea1 bb37 82a0 ba36 db62 2838
00000110: c983 1037 253e 1c37 8448 3138 b6f3 5f38
00000120: 3f8f ac37 3885 cc36 9170 5938 90a6 8c37
00000130: 5cb5 1235 a343 7e37 325d 8b37 8a34 d636
00000140: c0bb b035 b077 5a36 bb91 1838 cf68 0037
00000150: 2c43 9d36 a82a e836 fcaf 5d35 e0f8 4136
00000160: 5877 e235 8a8b a835 8c76 8d37 fa66 1038
00000170: b2ec 8637 db3f 1e37 2f2b 6636 97f7 8737
00000180: ecf4 fc36 1859 1037 89ee 2337 70e2 3d36
3.246813e-06 7.4401623e-07 3.9513898e-06 4.4245903e-06 5.8357e-06 9.17172e-06 1.0029751e-06 2.327782e-05
3.1559118e-06 1.852223e-05 1.4891082e-05 1.6033982e-05 1.6030228e-05 2.548648e-07 6.9592816e-06 2.066158e-06
9.390206e-06 1.167149e-06 4.0736923e-06 2.2961227e-07 1.3611954e-06 7.9063e-06 2.0776757e-05 2.9403286e-06
1.1023067e-05 8.977727e-06 4.3433697e-06 5.475324e-06 4.1323415e-06 1.0131891e-05 4.3251416e-06 6.480124e-06
4.447101e-06 7.121649e-06 1.4538794e-05 2.5656377e-06 4.629162e-06 7.8593275e-06 2.435259e-06 3.667826e-06
7.3511915e-06 5.005698e-07 0.00013733954 1.2627916e-05 2.4693181e-05 1.1414099e-05 5.458389e-06 3.0319297e-05
9.265913e-06 1.3759981e-05 1.2140973e-05 2.9822813e-05 7.684818e-06 1.5032688e-05 1.4658816e-05 1.5099997e-05
1.2582502e-05 1.3155377e-05 3.5836307e-05 2.6977748e-05 2.2370746e-06 3.8660637e-06 6.771398e-05 5.7153234e-06
1.9775092e-05 2.2367221e-05 5.5619175e-06 4.0146388e-05 8.6137525e-06 9.312794e-06 4.2267624e-05 5.3394317e-05
2.0570702e-05 6.0951825e-06 5.1841667e-05 1.6766862e-05 5.465315e-07 1.5155328e-05 1.6613489e-05 6.3838133e-06
1.3167664e-06 3.2554199e-06 3.6375346e-05 7.653797e-06 4.6867845e-06 6.9191046e-06 8.2585007e-07 2.8904105e-06
1.6873046e-06 1.2557587e-06 1.6863713e-05 3.442818e-05 1.6084265e-05 9.432401e-06 3.4297807e-06 1.6208547e-05
7.538698e-06 8.603813e-06 9.771095e-06 2.8294999e-06

exp_avg f4 [5]
00000000: c557 653c c527 123b 7879 2fbd 2b41 bbbc
00000010: f68e 543d
0.013997977 0.0022301537 -0.04284045 -0.022858223 0.05189415

exp_avg_sq f4 [5]
00000000: 7d5d 6e38 cbf8 9137 bb8b 7d39 b945 4a39
00000010: 5be6 df38
5.683069e-05 1.74012e-05 0.00024180014 0.00019290195 0.00010676376
