checkpoints/epoch=1-step=8-v2.ckpt (torch, 11504 bytes, 12 tensors)

network.0.weight f4 [20, 10]
0	0x3cdefbaa	0.027219612
1	0xbe9da14b	-0.3078712
2	0xbe44b3d3	-0.19209222
3	0x3e0311e0	0.12799788
4	0x3e408085	0.18799026
5	0xbe03e470	-0.1288011
6	0x3e9d1ef2	0.30687672
7	0xbbfc5758	-0.007700842
8	0x3db651fe	0.089023575
9	0x3d2d6243	0.042330038
10	0xbe1c0e7f	-0.15239905
11	0x3d8ce19b	0.06878968
12	0xbe93a514	-0.28836882
13	0xbdcd6b62	-0.10030247
14	0xbe179420	-0.14802599
15	0xbd9f271e	-0.07771133
16	0xbe06b795	-0.13155968
17	0xbe1f763f	-0.15572451
18	0x3cb99945	0.022656092
19	0x3e2b2ad7	0.16715561
20	0xbe821276	-0.2540471
21	0x3e3a22c4	0.18177325
22	0xbd97fa8f	-0.07420837
23	0x3e8e4d4e	0.27793354
24	0xbe673f57	-0.22582756
25	0xbe5d796f	-0.21628354
26	0xbd8061ec	-0.06268677
27	0x3e2f1a2c	0.17099828
28	0xbe6a0535	-0.22853549
29	0xbe82fc84	-0.2558328
30	0xbdf5d393	-0.12003245
31	0xbe39ff4d	-0.18163796
32	0x3e988689	0.29790142
33	0x3e5a75c8	0.21333992
34	0x3de7c28d	0.113164045
35	0xbd6faf7d	-0.058516968
36	0x3e8258a7	0.2545826
37	0x3d4d53f6	0.0501289
38	0xbc8884fd	-0.016664976
39	0x3e905da7	0.2819645
40	0x3e59154e	0.21199533
41	0xbea0ea6a	-0.31428844
42	0x3e8c38a5	0.27386966
43	0x3e52dbce	0.20591661
44	0xbe89823b	-0.2685717
45	0xbe06335c	-0.1310553
46	0x3c428e2e	0.011874719
47	0xbdbe8e9a	-0.09304543
48	0xbdd04d8c	-0.10171041
49	0x3e870152	0.26368195
50	0x3e50da41	0.20395757
51	0xbdf06704	-0.11738399
52	0x3e3d82d6	0.18506941
53	0x3e5971f3	0.21234874
54	0x388c9158	6.7027926e-05
55	0x3e9ce4a4	0.3064319
56	0x3e9afb66	0.30269927
57	0xbd57ddc2	-0.05270172
58	0xbe1da12d	-0.15393515
59	0x3e807530	0.25089407
60	0xbe91ae11	-0.28453115
61	0xbe20111a	-0.15631524
62	0x3d5d8e5d	0.054090846
63	0x3e8065f5	0.25077787
64	0xbc95748c	-0.01824405
65	0xbdc45ef6	-0.09588425
66	0xbe9473fc	-0.2899474
67	0xbe8c214c	-0.27369153
68	0xbde001f4	-0.109378725
69	0x3e43b698	0.19112623
70	0x3d0ac620	0.033880353
71	0x3c8de95a	0.017323185
72	0xbe3ace5a	-0.1824278
73	0xbcad73ec	-0.02117344
74	0xbe9ea927	-0.30988428
75	0x3e2164f7	0.15761171
76	0xbe1b0e82	-0.15142253
77	0x3dd579fb	0.104236566
78	0xbe87e6a6	-0.26543158
79	0x3dce7877	0.100815706
80	0x3e823757	0.25432846
81	0xbe1685dd	-0.14699502
82	0xbea1e122	-0.31617075
83	0xbcc1957c	-0.02363085
84	0xbe3a2150	-0.1817677
85	0x3e870012	0.2636724
86	0x3e1299ad	0.14316435
87	0x3b17afbe	0.0023145522
88	0x3e598718	0.2124294
89	0x3e57a06e	0.21057293
90	0xbe9261de	-0.28590292
91	0xbe58d1f6	-0.21173844
92	0x3de691ab	0.11258253
93	0xba8976c4	-0.0010487665
94	0x3e470288	0.1943456
95	0xbe601833	-0.21884231
96	0x3e0a1c8c	0.13487452
97	0xbdb6064e	-0.08887921
98	0xbe33386f	-0.17501996
99	0x3e14eb0f	0.14542793
100	0x3cd56462	0.026048843
101	0xbe3a1704	-0.18172842
102	0x3e7ec60e	0.2488024
103	0x3e91d177	0.28480121
104	0xbc58bfcb	-0.013229321
105	0x3e1ac48c	0.15114039
106	0xbe8d1667	-0.27556154
107	0xbd86d5e5	-0.06583766
108	0x3e044a55	0.1291898
109	0x3dc5c3ae	0.096564636
110	0xbd8d585a	-0.06901617
111	0x3e4c56c1	0.19954969
112	0x3db943e2	0.09046151
113	0x3cc17892	0.023617063
114	0x3dc1f6e7	0.09470921
115	0x3dbc59f9	0.091968484
116	0xbd4621e0	-0.04837215
117	0x3ce59fa9	0.028030233
118	0x3e5695bc	0.20955557
119	0x3e4f25be	0.20229241
120	0xbd958460	-0.07300639
121	0xbe2bac89	-0.16765036
122	0xbe2b4695	-0.16726144
123	0x3e7f242b	0.2491614
124	0x3e2bca4f	0.16776393
125	0x3deeb4fe	0.11655615
126	0x3e06742a	0.1313025
127	0x3df985b3	0.12183704
128	0x3d8fa6aa	0.070142105
129	0x3b65f227	0.003508696
130	0xbe8bf7eb	-0.27337584
131	0xbda576eb	-0.080793224
132	0xbdb929c8	-0.09041172
133	0x3e105c7a	0.14097777
134	0xbe188027	-0.14892636
135	0x3e94ed45	0.29087272
136	0x3e9b0f14	0.3028494
137	0x3e7165bd	0.23573966
138	0xbe06f3eb	-0.13178985
139	0xbe9db768	-0.3080399
140	0x3e3b6bf1	0.18302895
141	0xbe8db375	-0.27675977
142	0x3e08e5d1	0.13368918
143	0xbe75d6b3	-0.24007683
144	0x3e9881f9	0.2978666
145	0xbd7762a4	-0.060396805
146	0xbe687be1	-0.22703506
147	0x3e2f6066	0.17126617
148	0x3e26880e	0.16262838
149	0x3e5b525b	0.21418135
150	0x3dbdac46	0.09261374
151	0x3e875d22	0.26438242
152	0x3e73ac91	0.23796298
153	0xbe7607f9	-0.24026479
154	0xbe1ade25	-0.15123804
155	0xbe06c3a0	-0.13160563
156	0xbe4698d4	-0.19394237
157	0x3e6d5596	0.2317718
158	0x3df16f8c	0.11788854
159	0x3e907c43	0.28219804
160	0x3e516cd2	0.20451668
161	0xbe9bdfa0	-0.3044405
162	0x3e827cb9	0.2548578
163	0x3ccf08b2	0.025272701
164	0xbe8e09ce	-0.27741855
165	0xbe0276b6	-0.12740597
166	0xbe6d15a2	-0.23152784
167	0x3d87ab1a	0.06624432
168	0x3d543ec5	0.051817674
169	0xbdabbcf5	-0.0838565
170	0xbd5f2af0	-0.054484308
171	0xbd1b1c2b	-0.03786866
172	0xbe687081	-0.22699167
173	0x3da151ba	0.07876916
174	0x3e3f5c64	0.18687588
175	0xbd09e27d	-0.03366326
176	0xbe8f124b	-0.27943644
177	0xbe125d5e	-0.1429343
178	0x3e00219f	0.12512825
179	0x3e7f9b53	0.24961595
180	0xbd75f66e	-0.060049467
181	0x3e87f67f	0.2655525
182	0xbe93d363	-0.28872213
183	0x3ea0495c	0.3130597
184	0xbe450af0	-0.19242454
185	0xbde7c647	-0.11317115
186	0x3e429c7b	0.19005005
187	0xbe39450a	-0.18092743
188	0x3e90af45	0.2825872
189	0xbe90b480	-0.2826271
190	0xbe3765c5	-0.17909916
191	0x3d92b5e0	0.07163596
192	0x3e9f1e1a	0.31077653
193	0xbcf00ad7	-0.029302044
194	0x3e49acac	0.19694775
195	0xbdd2855c	-0.102793425
196	0x3dc7d527	0.097574525
197	0xbd3a5705	-0.045493145
198	0xbcee91ee	-0.02912232
199	0xbc8b5614	-0.017008819

network.0.bias f4 [20]
0	0xbe0a0c77	-0.13481317
1	0xbe80379e	-0.25042433
2	0xbea03a11	-0.312943
3	0x3e8a74ed	0.27042332
4	0x3de2c439	0.11072583
5	0x3e2909d0	0.1650765
6	0xbea2198a	-0.3166011
7	0xbe95bb62	-0.29244524
8	0x3e06bde1	0.1315837
9	0xbdef8173	-0.11694612
10	0xbe5330da	-0.20624104
11	0xbe93817d	-0.2880973
12	0xbdf32293	-0.11871829
13	0x3e087b85	0.13328369
14	0xbe8578a0	-0.26068592
15	0xbe1caaf5	-0.1529959
16	0xbdeaf19d	-0.11471865
17	0x3d7c4b1f	0.06159508
18	0x3e876777	0.26446125
19	0xbdbdd6f3	-0.09269514

network.2.weight f4 [5, 20]
0	0x3e542795	0.20718224
1	0x3d21dcfb	0.039517384
2	0xbd8a604d	-0.06756649
3	0x3c807fb5	0.015685895
4	0xbdb42059	-0.08795232
5	0xbdd1f6bf	-0.10252141
6	0x3cdc37e0	0.026882112
7	0xbde17340	-0.1100831
8	0x3d9a1a91	0.075245984
9	0xbe4568c4	-0.19278246
10	0x3df38b03	0.11891749
11	0x3e19e46d	0.15028544
12	0x3e3c69db	0.18399756
13	0xbe21d212	-0.15802792
14	0x3e085f1b	0.1331753
15	0x3dd36342	0.10321666
16	0xbbc6ae3c	-0.006063251
17	0x3e58b77a	0.21163741
18	0xbd14127f	-0.03615045
19	0x3e49bb33	0.19700317
20	0x3d4e004a	0.050293244
21	0xbe602d9d	-0.218924
22	0xbe1589fe	-0.14603421
23	0xbe30e8e7	-0.17276345
24	0x3e444bc6	0.1916953
25	0x3ddac08c	0.10681257
26	0xbde7e41f	-0.113228075
27	0x3e2a5bf2	0.16636637
28	0xbe1c74f0	-0.15278983
29	0x3dbb14be	0.09134816
30	0x3d815580	0.06315136
31	0x3e0b01a1	0.1357484
32	0x3e4fc489	0.20289816
33	0xbc9a3e79	-0.018828617
34	0x3c7f8bd8	0.015597306
35	0xbc92ebb4	-0.017934658
36	0xbd7f73ac	-0.062366173
37	0x3c13cc7d	0.009020922
38	0xbde98977	-0.114031725
39	0x3d1a6420	0.037693143
40	0xbdf8ca6d	-0.12147985
41	0x3dc51b78	0.0962438
42	0x3e21db68	0.15806353
43	0xbd493a42	-0.049127825
44	0x3de4e738	0.11176914
45	0xbd715be9	-0.058925543
46	0x3e27ea57	0.16397987
47	0x3dd7d013	0.10537734
48	0xbd22629f	-0.039644834
49	0xbbafa772	-0.005360537
50	0x3e5adf75	0.21374305
51	0x3d51bb33	0.051203918
52	0x3e227d31	0.15868069
53	0xbe5412ae	-0.2071025
54	0xbe4809e4	-0.19535023
55	0xbdc81ae2	-0.097707525
56	0xbd4f2c10	-0.05057913
57	0xbb9fad4d	-0.004872954
58	0xbd96ffb1	-0.07372988
59	0xbdfaef68	-0.12252694
60	0xbdeaef23	-0.11471393
61	0xbdefa643	-0.11701634
62	0xbd32ad49	-0.04362229
63	0x3e06ed00	0.13176346
64	0x3c94db2f	0.018170921
65	0xbe51d626	-0.20491847
66	0x3e47d346	0.19514188
67	0x3e5b4062	0.21411279
68	0x3e0ac49c	0.13551563
69	0xbd4bda26	-0.04976859
70	0xbe2f332b	-0.17109363
71	0x3da5bf7f	0.080931656
72	0x3dbad3c1	0.0912242
73	0x3da0e126	0.07855444
74	0x3e3d07e3	0.1846004
75	0xbde342cf	-0.11096727
76	0xbde899b7	-0.11357444
77	0xbd8ec26e	-0.06970678
78	0x3dc96011	0.09832776
79	0x3e17e124	0.14831978
80	0xbe44ab13	-0.19205885
81	0x3c2b87d1	0.010469393
82	0xbe3245a3	-0.17409377
83	0xbe578e30	-0.21050334
84	0xbd14db7c	-0.03634213
85	0x3d5f4fce	0.054519467
86	0xbe1644c3	-0.14674668
87	0x3e0ac174	0.13550359
88	0x3e4d13eb	0.2002713
89	0xbe5aab32	-0.21354368
90	0x3bf768d5	0.0075503387
91	0x3e54a6a5	0.20766695
92	0x3d6fa9e7	0.05851164
93	0x3e02f587	0.12788974
94	0xbd4b9979	-0.04970691
95	0x3dce0ad5	0.1006066
96	0xbe1bdf2e	-0.15221855
97	0x3de166ce	0.110059366
98	0xbe117ac9	-0.14206995
99	0x3e298157	0.16553245

network.2.bias f4 [5]
0	0xbe2b67d3	-0.16738825
1	0xbd021549	-0.03175858
2	0x3e595fd6	0.21227965
3	0xbe0cb297	-0.13740002
4	0xbe3d4d4d	-0.18486519

exp_avg f4 [20, 10]
0	0xba2f7e33	-0.00066945254
1	0xbc00e9cb	-0.007868241
2	0xb8f2b35d	-0.00011572868
3	0x3bff04dc	0.0077825617
4	0x3ca906dd	0.020633155
5	0xbb5b0b7d	-0.0033423596
6	0xbac8a481	-0.0015307815
7	0xbbb2a071	-0.005451255
8	0x3ccee39a	0.025255013
9	0x3ccf2d0b	0.025290033
10	0xbc2dce4d	-0.010608268
11	0x3b6bd94a	0.0035987669
12	0xba24c34f	-0.0006285207
13	0xbb9b0813	-0.004731187
14	0xba8c86a7	-0.0010721282
15	0xbb47802d	-0.003044139
16	0xbb51bdde	-0.0032004039
17	0x3c0753ff	0.008259772
18	0x3c2b93b2	0.010472225
19	0x394a2adb	0.00019280186
20	0xbacb4660	-0.0015508644
21	0xba975db2	-0.0011548309
22	0x3a8e033c	0.0010834704
23	0x3b87d227	0.004144925
24	0x3b95baed	0.0045694024
25	0xbb9f676d	-0.0048646242
26	0x3a9826fb	0.0011608297
27	0x38a4896c	7.845726e-05
28	0xbb7dbca7	-0.0038717182
29	0x3b821a67	0.0039704326
30	0xbb93438c	-0.004494136
31	0xbc8dbd08	-0.017302051
32	0x3c17b713	0.009259957
33	0x3bafe02d	0.0053673
34	0x3c92de07	0.017928137
35	0xbcda1779	-0.02662252
36	0x3c4ce77c	0.012506362
37	0xbad7124e	-0.0016408653
38	0x3b785323	0.003789135
39	0xbc3b39e4	-0.011427376
40	0x3b48617b	0.003057568
41	0x3bb83b11	0.0056222756
42	0xbaa0e9c8	-0.0012276703
43	0xbb41481f	-0.002949245
44	0xbb0e0f67	-0.002167666
45	0x3abf1234	0.0014577569
46	0x3bcc2475	0.006229932
47	0xbc52bd3c	-0.0128625
48	0x3aba5073	0.001421465
49	0x3bb007a7	0.005372006
50	0x3ab67629	0.0013920713
51	0x3bcd57b9	0.006266561
52	0xbbb0999c	-0.0053894054
53	0xbad798a6	-0.0016448691
54	0x3af9b7cd	0.0019051969
55	0x3c7d201d	0.015449551
56	0xbb958512	-0.0045629824
57	0xbb755bf1	-0.0037438835
58	0x3ae50a54	0.0017474391
59	0x3b15210e	0.0022755298
60	0xbc62081a	-0.013795877
61	0xbca8a864	-0.020588107
62	0xbbea0f68	-0.00714295
63	0x3b2e51cb	0.0026599045
64	0xbbd4bef0	-0.006492488
65	0xbc8e8f09	-0.017402189
66	0x3b3497df	0.0027556343
67	0xbb7ce905	-0.003859104
68	0xbb4069dc	-0.0029359972
69	0x3c1b2e9f	0.009471565
70	0x3aff17f1	0.0019462091
71	0xbb6a1aa3	-0.0035721443
72	0xbc253cf5	-0.010085334
73	0x3bfd8bfb	0.0077376342
74	0xbc138a06	-0.009005075
75	0x3bf0ae82	0.0073450217
76	0x3c31a2d0	0.01084204
77	0xbb953e7e	-0.004554569
78	0xbc3bca2a	-0.011461774
79	0xbb5d2806	-0.003374578
80	0x3c21ea2b	0.00988249
81	0xbbc82346	-0.0061077205
82	0x3c6438e1	0.013929577
83	0xba93b647	-0.0011269533
84	0x3af4153c	0.0018622051
85	0x3bbd65c6	0.0057799546
86	0xbc6d1213	-0.014469641
87	0x3c1d8b17	0.009615681
88	0xbbcb9995	-0.0062133768
89	0xbc69b499	-0.014264249
90	0x3b565b6b	0.0032708298
91	0xbb9dfeb5	-0.004821623
92	0x3c1ba2e6	0.009499287
93	0x3c3a2e0d	0.011363518
94	0x3c1b59d4	0.009481866
95	0xbbd28f89	-0.006425802
96	0x3c33598d	0.010946644
97	0xbbd575ca	-0.0065142857
98	0x3a3d1c03	0.0007213952
99	0x3be455fa	0.006968257
100	0xbba479a5	-0.005019384
101	0x3b4eb540	0.003154114
102	0x3c48c382	0.012253644
103	0xb9387078	-0.00017589505
104	0x39ada748	0.00033121766
105	0x3c25362e	0.010083718
106	0x3a88368c	0.0010392233
107	0xbb83b4b2	-0.0040193433
108	0x3c0f3b12	0.008742111
109	0x3c1340fc	0.008987661
110	0x3c0f4bda	0.008746112
111	0x3b32894a	0.0027242475
112	0x3a2dac7f	0.000662513
113	0x38b7c215	8.7622706e-05
114	0x3b02ec09	0.0019977114
115	0x3a8344be	0.0010014994
116	0xbba432d7	-0.0050109434
117	0xba8a95b3	-0.0010573178
118	0x3940867a	0.00018360643
119	0x3bee68fa	0.007275698
120	0xbc30b6de	-0.010785786
121	0xbacec050	-0.0015773866
122	0xbb6254d4	-0.0034535425
123	0xbc3023c7	-0.0107507175
124	0xbc24894d	-0.010042501
125	0x3c2fe381	0.0107353935
126	0xba6cb169	-0.0009029122
127	0xbc0ec0ff	-0.008713006
128	0x3c9eb27d	0.01937222
129	0x3a6ac793	0.00089561305
130	0x3b6acc3a	0.0035827295
131	0x3b8b540d	0.004251963
132	0xbb9c0ae6	-0.0047620414
133	0xbb97e5b5	-0.0046355375
134	0xbc14ce9f	-0.009082465
135	0xbbab7852	-0.005232849
136	0x3c04284c	0.008066248
137	0x3b71eb15	0.0036913801
138	0xbbf79a46	-0.0075562326
139	0xbb1e7ee1	-0.0024184512
140	0x3ac61a28	0.0015113996
141	0xbb8e65c7	-0.004345629
142	0xbaec0c5a	-0.0018009052
143	0xbbb08984	-0.005387487
144	0x3c0a1712	0.008428352
145	0xbc25badb	-0.010115351
146	0xbb61028a	-0.0034333789
147	0x3a1b810e	0.00059320114
148	0x3bc577c3	0.0060262396
149	0x3b0f2c14	0.002184634
150	0x3ace61ea	0.0015745733
151	0x3bc041e4	0.00586723
152	0xbbd806f2	-0.006592625
153	0xbb69ed35	-0.0035694365
154	0xbbb4c081	-0.0055161123
155	0xba57d6b0	-0.000823359
156	0xbc2668d8	-0.010156833
157	0x3be95e77	0.007121857
158	0x3b36a618	0.0027869996
159	0x3bb6a596	0.0055739386
160	0xbba9fb5f	-0.0051874365
161	0xbc0274ff	-0.007962464
162	0x3adec9c5	0.0016997388
163	0xbb75ce08	-0.0037506837
164	0x3c0d810d	0.008636725
165	0x3b531de8	0.003221387
166	0xbb964bd7	-0.0045866775
167	0xba2bd53f	-0.00065549085
168	0x3b2d054f	0.002640087
169	0x39870cc8	0.0002575873
170	0xba6cffd6	-0.0009040808
171	0x3c01de96	0.007926604
172	0xba87a67e	-0.0010349301
173	0xbc814385	-0.015779266
174	0xbb1b248f	-0.0023672914
175	0x3b1408cb	0.0022588249
176	0xbbfb236b	-0.0076641343
177	0x3b95823d	0.0045626448
178	0x3b13e36d	0.0022565976
179	0x3baaf834	0.0052175764
180	0x3b8938e9	0.0041876924
181	0xbbe13f0a	-0.00687397
182	0x3b704e69	0.003666783
183	0x3b2a765e	0.0026010494
184	0x3c42381c	0.011854198
185	0xbc4f44ab	-0.012650649
186	0x3c4cc708	0.012498625
187	0xbc17cdde	-0.009265391
188	0xbb60cdcc	-0.0034302352
189	0xbc3bf1e4	-0.011471245
190	0x3aca4211	0.0015431066
191	0x3bd1d7d4	0.0064039025
192	0xbbfff999	-0.007811737
193	0xbbb71ccd	-0.00558815
194	0xbc65d8f1	-0.014028774
195	0x39108d70	0.000137856
196	0xbcab9612	-0.020945583
197	0x3be227ff	0.0069017406
198	0x3c3420dc	0.010994162
199	0x3c242e50	0.010020807

exp_avg_sq f4 [20, 10]
0	0x35fbe35d	1.8767129e-06
1	0x37909dbc	1.7239588e-05
2	0x36fc8972	7.526186e-06
3	0x37319159	1.05838635e-05
4	0x379c740a	1.8650684e-05
5	0x370739f3	8.060119e-06
6	0x36e3ce5c	6.7891506e-06
7	0x36121200	2.1766173e-06
8	0x37ea9d1d	2.7968135e-05
9	0x37d336be	2.5178651e-05
10	0x3698b1e4	4.550662e-06
11	0x3580248f	9.547383e-07
12	0x35fbede1	1.8770189e-06
13	0x35704bf2	8.951748e-07
14	0x36f58a5e	7.317677e-06
15	0x3586b18f	1.0035454e-06
16	0x3639818f	2.7642561e-06
17	0x3630a803	2.632384e-06
18	0x36e6014e	6.854686e-06
19	0x365e43a2	3.3119945e-06
20	0x35459af8	7.361373e-07
21	0x34065254	1.2509673e-07
22	0x3414ea34	1.3868777e-07
23	0x35baf63f	1.3929747e-06
24	0x3596367b	1.1191727e-06
25	0x3614db9c	2.2181548e-06
26	0x356b6e1e	8.7704564e-07
27	0x34f081fa	4.4798054e-07
28	0x361ca2bf	2.3340542e-06
29	0x35621fa7	8.423762e-07
30	0x372b2889	1.0201832e-05
31	0x37aa1e3a	2.0279655e-05
32	0x367047ca	3.5804574e-06
33	0x37494bf5	1.1998219e-05
34	0x37a15b1f	1.9235127e-05
35	0x380366e2	3.132865e-05
36	0x37fbbf5c	3.001064e-05
37	0x365d3760	3.2963799e-06
38	0x36458e15	2.943799e-06
39	0x36b65f77	5.4351362e-06
40	0x363e07c9	2.8316738e-06
41	0x3692e418	4.3776927e-06
42	0x36efc92f	7.146176e-06
43	0x35828cce	9.726734e-07
44	0x3628e5f7	2.5167808e-06
45	0x346215c4	2.1055808e-07
46	0x364f5072	3.089223e-06
47	0x36e59e5f	6.8431686e-06
48	0x360563ea	1.9876702e-06
49	0x369b29d0	4.6242276e-06
50	0x35ec7b17	1.7619194e-06
51	0x35b94b77	1.3805537e-06
52	0x35d9da41	1.623128e-06
53	0x35e08d12	1.6730357e-06
54	0x366f7216	3.5680182e-06
55	0x36fdfce1	7.5694265e-06
56	0x36c531a4	5.8768364e-06
57	0x37039fc0	7.845403e-06
58	0x36890ba8	4.084275e-06
59	0x360fb382	2.1413148e-06
60	0x36dbc949	6.5501413e-06
61	0x37ac4388	2.0535444e-05
62	0x367d37c9	3.773241e-06
63	0x3682066d	3.87505e-06
64	0x366b1ac8	3.5033318e-06
65	0x3756b34e	1.2797142e-05
66	0x370e795b	8.492115e-06
67	0x364d5d11	3.0601552e-06
68	0x36290638	2.5186582e-06
69	0x36e7e196	6.910598e-06
70	0x35db3754	1.6332874e-06
71	0x3667ba23	3.4530028e-06
72	0x3690d10c	4.3158707e-06
73	0x36ddd605	6.6112284e-06
74	0x37262c3f	9.904673e-06
75	0x3614b84f	2.2161e-06
76	0x3709090e	8.1679445e-06
77	0x36b2f794	5.3336353e-06
78	0x36ee7d3d	7.1075324e-06
79	0x353eb2bc	7.104061e-07
80	0x36dcd96d	6.5818226e-06
81	0x362a1096	2.5341628e-06
82	0x3731239b	1.0558312e-05
83	0x372d5199	1.0330602e-05
84	0x35bc9254	1.4049679e-06
85	0x36a8700a	5.019833e-06
86	0x36c68968	5.916856e-06
87	0x36d70e3f	6.409158e-06
88	0x37148e85	8.85467e-06
89	0x37134940	8.778938e-06
90	0x35bf98ab	1.4275041e-06
91	0x35d57aae	1.5905441e-06
92	0x37381dfc	1.0974236e-05
93	0x3689662a	4.0948116e-06
94	0x3677c147	3.691837e-06
95	0x378a9645	1.6520857e-05
96	0x36e69260	6.8715744e-06
97	0x36103048	2.1485776e-06
98	0x35b2f79d	1.3334098e-06
99	0x36cef6ad	6.1679953e-06
100	0x36901799	4.2942816e-06
101	0x34c109d9	3.5956216e-07
102	0x379dfaf1	1.8832712e-05
103	0x372f6a98	1.0455631e-05
104	0x3439737c	1.727148e-07
105	0x369fd91f	4.7638455e-06
106	0x35a81ad2	1.2524781e-06
107	0x3608063e	2.0269213e-06
108	0x3730d60a	1.0540252e-05
109	0x36cbfc25	6.079225e-06
110	0x365e61a0	3.3137403e-06
111	0x34faac65	4.6691562e-07
112	0x3606e416	2.010032e-06
113	0x34c049f5	3.5816598e-07
114	0x353006d0	6.557502e-07
115	0x342c5132	1.6048287e-07
116	0x36275116	2.4932137e-06
117	0x358c456d	1.0451018e-06
118	0x35c8378b	1.4917326e-06
119	0x36d9010d	6.4672263e-06
120	0x3701e701	7.742784e-06
121	0x364c1402	3.0410015e-06
122	0x35fe8cdb	1.8965469e-06
123	0x372ced91	1.0307312e-05
124	0x3752ced2	1.25651295e-05
125	0x37088ace	8.13855e-06
126	0x36836d50	3.91683e-06
127	0x36dc2be3	6.56162e-06
128	0x37924477	1.7436438e-05
129	0x35897762	1.024204e-06
130	0x35f25f6d	1.8058178e-06
131	0x36199b0d	2.2889028e-06
132	0x359a2185	1.148365e-06
133	0x357f45da	9.509655e-07
134	0x368bb16a	4.1631765e-06
135	0x358f88d3	1.0694151e-06
136	0x368f1397	4.2640127e-06
137	0x358faf81	1.0705409e-06
138	0x36a1d29f	4.8226934e-06
139	0x3710524a	8.602228e-06
140	0x361c7036	2.3311127e-06
141	0x371bad07	9.279006e-06
142	0x3757be09	1.2859245e-05
143	0x369b60d6	4.630633e-06
144	0x3706d836	8.037363e-06
145	0x36ae16ac	5.1882434e-06
146	0x3551746c	7.8027983e-07
147	0x35df2d76	1.6628026e-06
148	0x36a66011	4.958369e-06
149	0x36d797fd	6.425193e-06
150	0x35ffadd5	1.9049572e-06
151	0x35b16af0	1.321865e-06
152	0x36a5e26a	4.9437413e-06
153	0x364f8038	3.0920037e-06
154	0x3633dcc6	2.6801586e-06
155	0x34b430c1	3.3563086e-07
156	0x36c5303b	5.8766723e-06
157	0x360baf5a	2.0814682e-06
158	0x361543cd	2.2242195e-06
159	0x35faa37f	1.8674035e-06
160	0x359faa36	1.1895961e-06
161	0x3642be6e	2.9019097e-06
162	0x35049e00	4.940375e-07
163	0x35d94e4a	1.6190545e-06
164	0x364b1eaf	3.0267217e-06
165	0x350cbeee	5.2431903e-07
166	0x3590e4a8	1.0795384e-06
167	0x35b974c8	1.3817562e-06
168	0x35905fde	1.0756737e-06
169	0x35fd3d5e	1.8867829e-06
170	0x3590d5cf	1.0791063e-06
171	0x3676ba84	3.6765423e-06
172	0x35c7e629	1.4893641e-06
173	0x3712b871	8.745222e-06
174	0x3612ecf3	2.1893618e-06
175	0x36c49446	5.8585165e-06
176	0x36ea1cc1	6.977091e-06
177	0x35fa3db8	1.8644414e-06
178	0x36f7ad19	7.381325e-06
179	0x367276bd	3.6129925e-06
180	0x361b2b3b	2.3121963e-06
181	0x36573d04	3.2073012e-06
182	0x3647d399	2.9776477e-06
183	0x374964b7	1.2003983e-05
184	0x36bf67d3	5.7043303e-06
185	0x36ef10f6	7.1247296e-06
186	0x3756f489	1.2812329e-05
187	0x36b73dd1	5.4610214e-06
188	0x36249598	2.452498e-06
189	0x36795819	3.715517e-06
190	0x36f3026c	7.2422463e-06
191	0x35e5e969	1.7129761e-06
192	0x37ab8721	2.0447713e-05
193	0x369bac30	4.6394052e-06
194	0x373e8f21	1.1358207e-05
195	0x368a98b5	4.130498e-06
196	0x3780026b	1.5259915e-05
197	0x36477245	2.9719824e-06
198	0x36ad74fe	5.1694215e-06
199	0x375f2415	1.3300237e-05

exp_avg f4 [20]
0	0x3c4da4cf	0.0125515
1	0x3b991b5c	0.004672451
2	0x3b5e26a5	0.0033897546
3	0x3cdb08c8	0.026737586
4	0x3ae9e475	0.0017844575
5	0xbb9c092e	-0.0047618365
6	0x3c70129d	0.014652875
7	0x3be6d385	0.007044258
8	0xbb932387	-0.004490319
9	0x3c3a9bf1	0.011389718
10	0x3b6e23d8	0.0036337283
11	0x3afa993b	0.0019119153
12	0xbbefb08f	-0.0073147486
13	0x3ba36bf3	0.004987234
14	0x3b8216b7	0.003969993
15	0x3b5f3f51	0.003406484
16	0xba96a0bc	-0.0011491994
17	0xbb2fc66a	-0.0026821145
18	0x3c3f618b	0.011680971
19	0xbc14ea67	-0.009089089

exp_avg_sq f4 [20]
0	0x3705a599	7.965974e-06
1	0x36195295	2.2846846e-06
2	0x35e990f3	1.7402039e-06
3	0x37f538f8	2.9232804e-05
4	0x35f022fa	1.7891573e-06
5	0x3604459e	1.9710055e-06
6	0x36be69bd	5.674751e-06
7	0x3617f415	2.2642828e-06
8	0x3604891a	1.9749336e-06
9	0x372ec889	1.0417899e-05
10	0x355c5a64	8.208792e-07
11	0x35ed2216	1.7667796e-06
12	0x36c654f7	5.910751e-06
13	0x360d421e	2.1049123e-06
14	0x369b5205	4.6289083e-06
15	0x36216300	2.4048495e-06
16	0x35840486	9.836083e-07
17	0x369a8879	4.605445e-06
18	0x37498a4a	1.20127315e-05
19	0x37580861	1.2876554e-05

exp_avg f4 [5, 20]
0	0x3c2e4d67	0.010638571
1	0xbb6065b2	-0.0034240303
2	0xbc1bf68d	-0.0095192315
3	0x3c002271	0.0078207115
4	0x392d892f	0.0001654967
5	0xbcaa8dcd	-0.020819569
6	0xbb168b85	-0.0022971344
7	0xbc5d6b5f	-0.013514369
8	0xbc9526d5	-0.018206993
9	0x3b6d32bb	0.0036193568
10	0x3b8389e5	0.004014241
11	0x3c19eba9	0.009394565
12	0x3b63f045	0.0034780663
13	0xbd222bf6	-0.039592706
14	0x3cd1fd86	0.025633585
15	0x3c9e008d	0.019287372
16	0x3c3b978a	0.011449704
17	0x3c314952	0.010820704
18	0xbc6ca2b1	-0.0144430855
19	0xba07ef1d	-0.0005185472
20	0xbc6b85b5	-0.01437514
21	0x3bb6ddab	0.005580624
22	0xbb47b4f1	-0.003047284
23	0xbcba0e2a	-0.022711832
24	0xbc8470c9	-0.016167061
25	0xbc203025	-0.009777104
26	0xbc124b5f	-0.008929103
27	0xbb698103	-0.0035629875
28	0x3c237052	0.00997551
29	0xbc433f4a	-0.011916945
30	0xbc21b438	-0.009869628
31	0x3c20e37a	0.00981986
32	0xbbb177ca	-0.0054158913
33	0xbca182a7	-0.01971562
34	0x3a6c157c	0.0009005887
35	0xbac78d20	-0.0015224554
36	0xbc5e5f12	-0.013572471
37	0x3b890a6a	0.0041821497
38	0xb9a258bf	-0.0003096517
39	0xbc39c5e2	-0.011338683
40	0x3c066cb1	0.008204625
41	0x3c359824	0.011083636
42	0xbacc61cd	-0.0015593112
43	0x3d0b1958	0.033959717
44	0x3ce31f90	0.027725011
45	0x3cfe556c	0.031046592
46	0x3c38318b	0.011242281
47	0x3c0d6bae	0.00863163
48	0x3c50e7db	0.012750591
49	0x3c8c5688	0.017131105
50	0x3c75c315	0.015000124
51	0x3b61071c	0.0034336513
52	0x3c3238d9	0.010877811
53	0x3c9f1190	0.019417554
54	0xbbc615f0	-0.0060450956
55	0xba98bdd9	-0.0011653259
56	0x3c007082	0.007839324
57	0x3c634733	0.013871956
58	0x3c94d8ea	0.018169839
59	0x3c66951e	0.014073638
60	0x3c28c280	0.010300279
61	0xbc55d970	-0.013052329
62	0x3ae70a81	0.0017627032
63	0xbbc3b325	-0.0059722834
64	0x3c03bfb4	0.008041311
65	0xbc796c58	-0.015223585
66	0x3c00ac17	0.007853529
67	0x3b706ce5	0.0036686
68	0xbc13171a	-0.008977676
69	0x3b337213	0.0027381226
70	0xbc3ad5fa	-0.011403555
71	0xbc5b80ef	-0.013397439
72	0xbba9ca25	-0.005181568
73	0x3b9f1736	0.004855062
74	0x3becf6f5	0.007231588
75	0xbce0b251	-0.027428778
76	0x3bbe3f72	0.005805903
77	0xbc3eebe3	-0.011652919
78	0x3bf8effa	0.007596967
79	0x3b950e86	0.0045488505
80	0xbd4ecf3d	-0.050490607
81	0xbb336454	-0.0027373033
82	0x3b83de53	0.004024306
83	0xbda1f3f1	-0.07907856
84	0xbcc9d89e	-0.024639424
85	0xbcb5f472	-0.022211287
86	0xbc99a001	-0.018753054
87	0x3c4a6d4b	0.012355159
88	0xbc256128	-0.010093965
89	0xbd1a73e4	-0.03770818
90	0xb917e8b9	-0.00014487178
91	0xbaf3ff40	-0.0018615499
92	0xbcaabc73	-0.020841813
93	0x3be1dd69	0.006892849
94	0xbc9c50fc	-0.019081585
95	0x3c88b4f1	0.016687842
96	0xbb3d8854	-0.002892037
97	0xbc914505	-0.017733106
98	0xbd357e06	-0.04430964
99	0xbd005871	-0.031334344

exp_avg_sq f4 [5, 20]
0	0x370e20c8	8.471492e-06
1	0x367b774e	3.747136e-06
2	0x36cb54b4	6.059732e-06
3	0x3753e2e6	1.2629409e-05
4	0x37214185	9.611603e-06
5	0x3748d9ec	1.1971668e-05
6	0x36c41f0d	5.84487e-06
7	0x375244db	1.2533007e-05
8	0x37837b70	1.5673897e-05
9	0x379c1c19	1.8609733e-05
10	0x37b315ad	2.1348556e-05
11	0x378dfe04	1.6926795e-05
12	0x3686d4bf	4.018278e-06
13	0x3823fd27	3.9097995e-05
14	0x37f4c34c	2.9178009e-05
15	0x38344616	4.2980617e-05
16	0x3702bfcc	7.79326e-06
17	0x37b37576	2.139316e-05
18	0x37bc76b9	2.2466631e-05
19	0x3703663f	7.8320145e-06
20	0x37447d33	1.1711661e-05
21	0x367faaa6	3.8097292e-06
22	0x35caa533	1.5098252e-06
23	0x3801ef85	3.0979067e-05
24	0x37368780	1.0879594e-05
25	0x38027b9c	3.1109535e-05
26	0x36c87e96	5.975201e-06
27	0x3609664f	2.0474142e-06
28	0x37b51f71	2.1591522e-05
29	0x37bb9406	2.2361066e-05
30	0x36bc74e3	5.616444e-06
31	0x3648f32c	2.9943867e-06
32	0x36bd2c67	5.637808e-06
33	0x378658c0	1.6015372e-05
34	0x36f411b1	7.273826e-06
35	0x36e6078c	6.8554127e-06
36	0x371b8cb3	9.271479e-06
37	0x3799a952	1.8317867e-05
38	0x372a8829	1.0164492e-05
39	0x372350c4	9.734362e-06
40	0x36750f14	3.6516622e-06
41	0x367ed08b	3.7970337e-06
42	0x3590a1a5	1.0775881e-06
43	0x38402df1	4.5819153e-05
44	0x37e5c506	2.7390673e-05
45	0x3800e2a4	3.0728654e-05
46	0x367a297b	3.7277048e-06
47	0x368997ab	4.1005746e-06
48	0x37322196	1.0617447e-05
49	0x372da634	1.0350301e-05
50	0x36d1f59e	6.257279e-06
51	0x35aa9bb3	1.2711301e-06
52	0x36b6f7b0	5.4528573e-06
53	0x379791b6	1.8068455e-05
54	0x37194b19	9.136996e-06
55	0x37be3830	2.267593e-05
56	0x36827bfb	3.888735e-06
57	0x36e9d2c9	6.9684797e-06
58	0x37a02482	1.9090487e-05
59	0x3771b598	1.4407e-05
60	0x36b4bd1f	5.3864346e-06
61	0x37ba6741	2.222101e-05
62	0x34a3b756	3.049451e-07
63	0x36ade62f	5.1825987e-06
64	0x3784ba07	1.5822252e-05
65	0x37656a49	1.367421e-05
66	0x363b69cb	2.792675e-06
67	0x36a525f0	4.9217997e-06
68	0x37cd60dd	2.448301e-05
69	0x354cc94f	7.6288865e-07
70	0x36c5ddc4	5.8968744e-06
71	0x373728c5	1.0917142e-05
72	0x36fbf378	7.5087264e-06
73	0x3750b598	1.2440047e-05
74	0x36a8b6e8	5.0280833e-06
75	0x382c2ce3	4.10498e-05
76	0x36050432	1.9820986e-06
77	0x37a04e48	1.9109939e-05
78	0x38a12473	7.6838674e-05
79	0x3647839f	2.9729924e-06
80	0x38fc1101	0.000120194636
81	0x374c7a63	1.2187843e-05
82	0x37219a46	9.632267e-06
83	0x39da77f7	0.0004166958
84	0x3911e453	0.00013913335
85	0x390f2ce7	0.0001365427
86	0x378d487f	1.6842268e-05
87	0x36ca36ef	6.0264642e-06
88	0x373fce01	1.1432451e-05
89	0x390b6c17	0.0001329634
90	0x38135243	3.5124143e-05
91	0x35b3ced7	1.3396738e-06
92	0x37545db9	1.2658006e-05
93	0x37a6cf7f	1.9885365e-05
94	0x3865798a	5.4711047e-05
95	0x37d23a58	2.506112e-05
96	0x37195323	9.138867e-06
97	0x37d3e0a4	2.5257767e-05
98	0x38c05ca0	9.172526e-05
99	0x387fd140	6.0991617e-05

exp_avg f4 [5]
0	0xbcd3fd82	-0.025877718
1	0xbd322506	-0.04349234
2	0x3d3f0628	0.04663673
3	0xbba607e5	-0.005066859
4	0xbd7c6570	-0.061620176

exp_avg_sq f4 [5]
0	0x38bba149	8.9468966e-05
1	0x38c05ee7	9.1729504e-05
2	0x38b128db	8.4476276e-05
3	0x3880c093	6.1393854e-05
4	0x39cba4a8	0.00038841856
