checkpoints/epoch=1-step=8-v1.ckpt (torch, 11504 bytes, 12 tensors)

network.0.weight f4 [20, 10]
00000000: 9c6f 45be bc35 833e 7734 0ebe 7e32 9b3e
00000010: bcab 9dbe 7a63 a0be 99da 95be 267a 0abd
00000020: a483 e43d 0b90 8e3d 9e23 8e3c 0d57 62be
00000030: a48f 5d3c f04c 223d 9dd4 9dbe 0772 7f3d
00000040: 0933 35bc 7d05 37be eb1d 973e 6dbe e43d
00000050: a20d 7ebe a4b4 ce3d 6fbe b138 38b9 55be
00000060: 3975 42be 40b3 a03b 5176 6fbe 4432 513e
00000070: ac65 4b3e dca4 2a3e dd0f b13c e01e 613e
00000080: c2bb 113e fcb2 7ebe 0b11 2c3d 5a14 503e
00000090: f00c 403e e6cc 07be 04b0 6d3d d92b 92be
000000a0: 7f95 103e 165a 673e e6b5 9a3e c4fe 973e
000000b0: 2ddf 333d 28e4 fb3d 7c86 853c de7f 713e
000000c0: 7002 4dbe 8891 bbbd 0e2e 0b3e 6e0b 8abe
000000d0: f9b7 92be 2381 6e3e 7b72 363e 1709 9ebe
000000e0: 6153 81be e575 033d fcc9 75be 8f43 853e
000000f0: 918f 8d3e 5014 9c3e cc3a 4cbe 0485 1dbe
00000100: 7fb2 91be beae 283e 2535 0f3e 85af 91be
00000110: 3110 4cbe 9268 9c3d 37a3 1fbe 0ae6 993e
00000120: c21b 6bbd 7995 613e 1065 69be 8e01 923d
00000130: 8ded 73be ed5a 313e 0c42 4bbe 48c0 943e
00000140: db84 13bd d4c1 8d3e 725d 8c3e 0a84 da3d
00000150: 89cf 043e 637c 56be d0db 463e c255 2bbe
00000160: 69ad 97be 9348 1dbe 8342 713d 1f47 963c
00000170: a14e 1f3e 1b05 453e b343 0d3e b615 febd
00000180: e335 07be c962 983d 75e9 503e dde6 c7bb
00000190: ab46 143e 5f4c 743e d302 41be d3cd 20be
000001a0: bd85 8a3e 256a 55be fa6f f0bc 7f9b 39be
000001b0: e512 86be 7fc4 a63d 7a69 42be 8032 e5bd
000001c0: 4cb6 20bd 1f7c b03d e340 6abe 1330 a0be
000001d0: 5175 343d f331 2dbe 6666 083e dadd 4c3c
000001e0: 03d3 4e3d a59e 3dbe f250 a13e d1be 8dbe
000001f0: 40ca 32be 68ac d83d ee56 2abb fd8e 0cbc
00000200: 4acb 7f3e e092 6f3d 206e b5bc f0b8 943e
00000210: 4fbd 7cbe a2dc 77be f554 25be a041 debd
00000220: 8bd3 5fbe d639 963e a699 8a3e 5952 d83d
00000230: 8f81 ccbd fffb 11bd 6fb8 81be e22e 963e
00000240: a8a4 cc3c c191 023e 5064 28be f303 893e
00000250: 4286 d5bc 532b 83be 45ae 20bc 5d18 81bd
00000260: c750 313d ec14 9abe a297 0ebe 9960 e13d
00000270: 4623 60be 16a3 333e 5cb5 ff3d 8c6f 973e
00000280: 3654 9d3e 1d0e 0b3e 9c45 6dbe 135a 2b3e
00000290: b242 f1bd 158f ce3d 0ae2 92be 213a 623d
000002a0: d8ec da3d d936 ffba 9c4b 9cbe 74f7 71be
000002b0: de6a 463e f41d a43b 49ca b63d c966 c23c
000002c0: 1e9a 2f3e dc9a e5bd 6573 33bd 8426 733e
000002d0: 90f7 333e f4d8 26be 76a7 8b3e e242 09be
000002e0: f087 09bc 857c 2b3e 1fd3 643e e7da 613e
000002f0: 366a c03d 0ec3 a63d 9b04 8e3e 1b5a 8cbe
00000300: 8d03 5e3e 2ef2 67be 2e55 a2be c652 4cbd
00000310: 8914 c2bb 2cbd 023e 43b3 fe3d 7a21 163e
-0.19280857 0.25626934 -0.13887201 0.3031196 -0.30795085 -0.31325895 -0.2926834 -0.033807896
0.11157921 0.06961068 0.017350968 -0.2210352 0.013523016 0.039624155 -0.30826274 0.062364604
-0.011059531 -0.17873187 0.29515013 0.11169133 -0.24809888 0.10093048 8.475489e-05 -0.20871437
-0.1899003 0.0049041808 -0.23384978 0.20429331 0.19863003 0.16664451 0.02161401 0.21984434
0.1423178 -0.24872965 0.04200844 0.20320264 0.18754935 -0.13261756 0.05802919 -0.28549078
0.14119528 0.22592959 0.30216902 0.29686558 0.04391401 0.12299377 0.016299479 0.23583934
-0.20020461 -0.09158617 0.13591787 -0.26961845 -0.28655985 0.23291449 0.17817108 -0.3086631
-0.25258926 0.032094855 -0.24002832 0.26028106 0.27648595 0.30484247 -0.19944304 -0.15382773
-0.28456494 0.16472909 0.13985117 -0.28454223 -0.19928052 0.07637133 -0.15589605 0.30058318
-0.05739952 0.22029676 -0.22792459 0.07129203 -0.23821087 0.17319842 -0.19849414 0.2905295
-0.036015373 0.27686942 0.27415043 0.10669716 0.12969793 -0.20945887 0.1941979 -0.16731933
-0.2962449 -0.15359716 0.05890132 0.01834446 0.15557338 0.19240229 0.13795356 -0.12406485
-0.1320415 0.07440717 0.20401557 -0.006100519 0.14480083 0.23857258 -0.18848734 -0.15703516
0.2705516 -0.20841272 -0.02935027 -0.18125723 -0.2618629 0.081429474 -0.18985549 -0.11191273
-0.03923635 0.08617424 -0.22876315 -0.31286678 0.044057194 -0.16913585 0.13320312 0.012504065
0.050494205 -0.1851755 0.3150707 -0.27684644 -0.17459965 0.10579759 -0.0025991756 -0.008579013
0.24979892 0.05848968 -0.022147238 0.29047346 -0.2468159 -0.24205258 -0.1614569 -0.10852361
-0.21858041 0.29341 0.2707035 0.105625816 -0.09985649 -0.035640713 -0.25336024 0.29332644
0.024980858 0.12750913 -0.16444516 0.26760826 -0.026064996 -0.2561899 -0.009807174 -0.06303475
0.043289926 -0.30094087 -0.13925031 0.11004753 -0.21888456 0.17542681 0.124857634 0.2957729
0.3072831 0.13579603 -0.23171085 0.1673358 -0.11780299 0.100858845 -0.2868808 0.055231217
0.106897056 -0.0019471302 -0.30526435 -0.23629552 0.19376704 0.0050084535 0.089253016 0.023730652
0.17148635 -0.11211178 -0.04381122 0.23745161 0.17574906 -0.16293699 0.272762 -0.1340442
-0.008394226 0.16746719 0.22346161 0.22056161 0.09395258 0.081426725 0.2773789 -0.27412495
0.21681042 -0.22650978 -0.31705612 -0.049883626 -0.005922858 0.12767476 0.12436535 0.14661208

network.0.bias f4 [20]
00000000: 7caa 6bbe da15 3f3d 0d93 2dbe 2cbe 89be
00000010: 210a 3c3e fbde 47be 8972 a2be b8be 25be
00000020: bc67 933e 0231 9dbe 5f67 8a3e a82d e1bc
00000030: afcd 9fbe f73e 37be 9bf5 193e 532b e7bd
00000040: 621b aa3d 436f 073e c595 52be 7e37 25be
-0.23014253 0.0466517 -0.16950627 -0.26902902 0.18363239 -0.19518654 -0.31728008 -0.16186035
0.2879008 -0.30701452 0.2703199 -0.02748759 -0.31211612 -0.17895113 0.15035097 -0.1128756
0.08306004 0.13226037 -0.20564945 -0.1613445

network.2.weight f4 [5, 20]
00000000: a6ad ce3d a691 aebc 15a6 f93d 2441 d9bd
00000010: 8d69 bc3b d3fb d43d 2d2b 5c3e 7cdf 1abd
00000020: e860 53be 736c 05be f83d 3f3e 6ed5 8fbc
00000030: 17d5 4bbe 4014 03be eb3d 1abe c815 1a3e
00000040: ada2 33bd f76a 06bd 2600 b13c 75e0 093e
00000050: ab92 e4bd 6480 013e e9c6 8fbd c35d 603e
00000060: 898e a7bd 2de6 4e3c cb9f 06bd ebb3 57bd
00000070: ccc6 12bc f0ec 93bc a109 22bc 1662 05be
00000080: e68e e1bd d3e0 e83c 8eaa e33b 70cf 693e
00000090: e00b f63c 832f 53be 2c13 953d a9b5 193d
000000a0: 2e5e aa3d acfd 4c3e acc3 413d 86f7 193e
000000b0: 7a8e 36ba dea0 a3bd 783c 0c3d d025 0abe
000000c0: e436 bc3d 7cc4 993d 99ba d5bd bb08 65be
000000d0: 55ff 33be 8131 dc3d 2552 063e c406 c53d
000000e0: cb49 453e 9afd 2c3e 5ada 213e 213a 95bd
000000f0: a02d 6bbd 6a22 373d a616 be3d 8ed7 8dbd
00000100: fb00 49bb 706c c03d a67e 32be d3e3 b2bc
00000110: e131 eb3d 1728 6d3d 9fee 693c 6167 b8bd
00000120: 7aa6 e8bd 0acf e13d 894f edbd 4694 5d3e
00000130: 17df 303e b731 333e 0a20 1c3d 94bd 903d
00000140: 86a7 ca3c 8303 37bd 8849 de3c 4897 073c
00000150: 661f 3d3e 2416 9cbd ea9c 7ebd 81ed eebd
00000160: 3709 0c3e 6c3f e0bc 230d d3bd c1e5 8abd
00000170: 582a 053e cdad 68be 07c9 08be 8146 403c
00000180: 5635 353e 837b 9cbd 071d 65be 6799 64be
0.100917146 -0.021309685 0.12189881 -0.10608128 0.0057498873 0.10399594 0.21500845 -0.037810788
-0.20642436 -0.13029651 0.18675983 -0.017557826 -0.19905506 -0.12800694 -0.15062682 0.15047371
-0.04385631 -0.032816853 0.021606516 0.1346453 -0.11160787 0.12646633 -0.07020361 0.21910767
-0.08181483 0.01262812 -0.032867234 -0.052661818 -0.00895853 -0.018057317 -0.009889991 -0.13025698
-0.11013584 0.028427517 0.006947822 0.22833037 0.03003496 -0.20623593 0.07279047 0.03752676
0.083187446 0.20018643 0.047305748 0.15035829 -0.00069639797 -0.07989667 0.034237355 -0.13490987
0.09190157 0.075081795 -0.10435981 -0.22366612 -0.1757787 0.107516296 0.13117273 0.09620431
0.19266431 0.16893616 0.15805951 -0.07286478 -0.05741656 0.044710554 0.092816636 -0.069258794
-0.003067075 0.09395683 -0.17431125 -0.02183715 0.11484123 0.05789956 0.014278083 -0.09004093
-0.11359878 0.11025818 -0.11587436 0.21638593 0.17272602 0.17499433 0.038116492 0.07067409
0.024738085 -0.044681083 0.027134672 0.008275814 0.18469009 -0.076214105 -0.062161364 -0.11666394
0.1367539 -0.027373992 -0.1030524 -0.06782103 0.13004434 -0.2272255 -0.13357936 0.011735559
0.17696127 -0.076407455 -0.22374354 -0.22324143

network.2.bias f4 [5]
00000000: 08e8 96bb dea7 09be 2561 8cbb 2854 30bd
00000010: 10d5 5e3e
-0.004605297 -0.13442943 -0.0042840415 -0.043049008 0.21760964

exp_avg f4 [20, 10]
00000000: 436f 53ba 54fb 4c3b a5b7 433a 1b4d 2e3b
00000010: e882 13bb ac4d a23a 3c97 373b ebe1 17bb
00000020: d453 ebba 06b5 853b cb33 ca3b 12c7 bb3b
00000030: c0b7 573c 816a 2ebc e3c2 c0bb a947 1e3b
00000040: 3613 aebb 8c85 173c b05b 8f3b be6e 23bc
00000050: 2364 2f3b 913c 73bb 2d93 53ba 6bb4 dbbb
00000060: 2012 a23a c304 013b f7a1 a4bb a512 053c
00000070: 0a9f 3cbb 11bc bf3b 8210 143c 16e5 ce3b
00000080: cf9c 913b 0636 19bc 201e c2bb 58c9 dd3b
00000090: 7d56 4d3c 812c 1eba 3771 97ba 7f19 4cbc
000000a0: b90f 4d3b 6f61 de3b 94b0 b3ba e279 b53b
000000b0: 18fd 74b8 14cc d13b e98a 323c 0650 473b
000000c0: d5d4 1dbc 69ba 56bb e9e3 13bc fcd9 a7ba
000000d0: b305 1fbc 150b 04bc 73cf d7b7 86a7 a6bb
000000e0: 068c 7939 869c a03b 7eef a93b 6e46 f13a
000000f0: e49b 6ebb 2639 fc3b 0f03 b4bb e811 303a
00000100: 5d8e bebb a6af a33b d19d 323c 85bb 0bbc
00000110: 7e55 7c3b b825 543c e0b6 08bc cb33 0bbc
00000120: 54ca 0d3c 4767 9eba 033f 5e3b 39c8 cfbb
00000130: 0f7b b9bb 0a22 efbb b7a3 09bb 3888 7a3b
00000140: c451 b73b 795d daba 0fbd 913c 8c25 893b
00000150: 2cfb 47bb ddad 693b c510 bebb b2f4 a8ba
00000160: 43bd afbc 4373 5ebc 7bf9 db39 5c50 a5ba
00000170: af52 383b 57b3 8a3a 49d1 643b c0c3 9fb9
00000180: d152 8ebb 85d8 18bb 8827 baba fd44 e43a
00000190: bfbc a0bb 010c edbb 0a2f 46bc 5e6e 8bbb
000001a0: 2616 cf39 893f dcbb 80a9 30ba 8099 e83b
000001b0: 7f43 8f3c d097 413c 4fdc b2bb 8858 dbbb
000001c0: fa8f 72bc ded6 b4ba ae31 e23a 1dd6 4a3b
000001d0: 2cbe 3d39 5044 23bc f6b9 4dbb fbb6 193c
000001e0: 0719 d1bb 0fb2 84b9 b4ae 48b9 879d 053c
000001f0: 9f14 163b c33b 7cba f3aa 643b 6703 2dbc
00000200: cdc2 a1bb 88d9 0b3b 82b2 793b 0e43 4ebc
00000210: af07 9b3b 53ec 1dbb 9041 e43b 2a4c 05bc
00000220: 5971 67bc 3671 68bb 48f8 16bc 034e ba3b
00000230: 3b68 11bb 5b23 ef39 dee9 183a 8ecf cf3a
00000240: 30e2 743b ed51 15bb 1932 7bbb 66bf e0bb
00000250: 6d03 37ba 322a 7e3a ef16 d03b ed81 e13b
00000260: 1556 02bc 4952 ec3a 8f9e 8eb9 fe45 88bb
00000270: 171f b93a 909a 933c 4ae6 8d3c 4c4e 91bb
00000280: 33be 353c c7b8 2d3c d62e 97ba 8418 e33a
00000290: cf0d 13ba c88d b33b ba66 dfbb 1124 603c
000002a0: 79e5 05bb b86f 6dbb de1b 90bc a6b4 143c
000002b0: ffaf 0c3c 918c e83b f4d1 f9bb bffc a0bb
000002c0: 1024 27bc d083 19bb a669 47bc 24dd 713c
000002d0: 37a2 25bb a8aa 1d3b c148 f03b 91d9 daba
000002e0: 6c3a afba 34f3 073b 9aa8 80ba 803b 3dbb
000002f0: 35f5 d3bb 959b a6bb dc6b 17bc 878c 13bb
00000300: b929 7fbc 53b2 8cbb 7612 d239 116b 803a
00000310: 6d9e 0dbb ea19 c7bb 7790 163b 5a98 b0ba
-0.00080655905 0.0031277733 0.0007466025 0.0026596251 -0.0022508446 0.0012382767 0.0028013727 -0.002317543
-0.001795406 0.0040804176 0.006170725 0.005730518 0.013166368 -0.01064551 -0.0058826073 0.00241516
-0.0053123487 0.009248149 0.0043749437 -0.009975133 0.0026762567 -0.0037114958 -0.0008070942 -0.006704857
0.0012365021 0.0019686676 -0.0050241905 0.008122121 -0.0028781318 0.0058512767 0.009037139 0.0063139303
0.004443742 -0.009351259 -0.0059240013 0.006768387 0.012532827 -0.0006033853 -0.0011554126 -0.012457251
0.003128989 0.0067865173 -0.0013709241 0.005538211 -5.8409845e-05 0.006402502 0.010897377 0.0030412688
-0.009633263 -0.0032764918 -0.009026506 -0.0012806053 -0.009705949 -0.008059283 -2.5726598e-05 -0.0050858883
0.00023798653 0.0049014715 0.0051860204 0.001840783 -0.0036408836 0.0076972423 -0.0054935287 0.00067165354
-0.005815311 0.004995304 0.010901884 -0.008528595 0.0038503106 0.012948446 -0.008344382 -0.008496235
0.008654196 -0.0012085222 0.003391207 -0.006341007 -0.0056604217 -0.007297759 -0.0021002123 0.0038228165
0.005594464 -0.0016659937 0.017790345 0.004185384 -0.00305147 0.003565661 -0.005800339 -0.0012890308
-0.021452552 -0.013577285 0.00041956812 -0.001261245 0.0028125455 0.0010582012 0.0034914783 -0.00030472688
-0.0043433686 -0.0023322415 -0.0014202455 0.001741558 -0.004905313 -0.007234097 -0.012096176 -0.0042551
0.0003949862 -0.006721441 -0.00067391247 0.0070983768 0.01748824 0.01181598 -0.0054583917 -0.0066939034
-0.0148048345 -0.0013796946 0.0017257237 0.0030950375 0.00018095289 -0.009965017 -0.003139136 0.009382005
-0.0063811573 -0.00025309666 -0.00019138568 0.008155233 0.0022900475 -0.00096219423 0.0034891933 -0.010559893
-0.004936552 0.0021339376 0.0038100784 -0.012589229 0.0047311406 -0.002409716 0.0069658235 -0.008135835
-0.014126145 -0.003546787 -0.009214468 0.0056855693 -0.002218737 0.00045611974 0.0005833189 0.0015854703
0.0037366264 -0.0022784427 -0.003832942 -0.006858754 -0.00069814065 0.00096956186 0.00635039 0.0068819434
-0.007955094 0.0018029894 -0.00027202486 -0.0041587343 0.0014123645 0.018018037 0.017321724 -0.0044343825
0.01109271 0.010603136 -0.0011534344 0.0017326032 -0.00056096626 0.005479548 -0.006817666 0.013680474
-0.0020430966 -0.003622992 -0.017591413 0.009076273 0.008586883 0.007096835 -0.0076239053 -0.004912942
-0.010201469 -0.0023424514 -0.012171185 0.014762197 -0.002527369 0.0024058018 0.0073328917 -0.001669692
-0.0013368852 0.0020744326 -0.0009815872 -0.0028874576 -0.00646844 -0.005084465 -0.009242024 -0.002251418
-0.015573912 -0.004293719 0.00040068076 0.0009797533 -0.0021609322 -0.0060760872 0.0022974291 -0.0013473139

exp_avg_sq f4 [20, 10]
00000000: db96 1c33 201f 3235 be71 a734 961c 6235
00000010: 8a8c b734 22e0 6134 55ed 3535 a067 e535
00000020: 352f 1234 7cae 6636 2e5b 9636 24d2 e336
00000030: 4e91 8537 8fdb ec36 7c65 8536 0bec f035
00000040: 0fe5 2e36 31c4 5636 121f c035 2a44 ab36
00000050: 0a39 cd34 f82c 9335 ce68 7835 94fd 1536
00000060: 6e4c c434 2255 1c34 470e 6035 6cb2 8836
00000070: 6a1c 7135 9d40 4b36 e1d8 f436 d19c 9136
00000080: 6966 4b37 c60a 6d37 7bd7 4336 c448 8036
00000090: e709 d736 a7a2 1e33 c099 fd35 8551 a436
000000a0: d45c 1a37 5bdc 1736 97f9 b036 4704 a036
000000b0: d0a8 3835 802e 0036 80ed 0837 502e b935
000000c0: 5777 7f36 9560 4f36 49ba 3736 3281 7b35
000000d0: c632 3c36 fae3 cd36 3871 9534 152d 8235
000000e0: 218c e835 69f8 2735 9b5c 1f36 fa52 9c34
000000f0: aa92 a636 16a0 1036 7c5f 5336 7ad4 c036
00000100: be86 ad36 8e94 3936 3eed d336 d778 1f37
00000110: f3aa a136 8515 f836 9537 bd36 ebc1 3a36
00000120: d337 5436 ff9f 6935 4248 5635 3f01 1a36
00000130: cf69 5c36 b612 2e36 606c 0636 af80 3935
00000140: a2ab f635 8d91 e734 ed67 4c37 2da4 2337
00000150: 4fc4 5936 50e5 0b36 9b65 0737 383b 1a37
00000160: 2cc8 af37 a360 f036 0956 fb34 5687 b634
00000170: 354d da34 62db ce34 a6b0 f334 fe1a 3734
00000180: 178c 9f35 09cf a234 0c46 2e34 7977 ed33
00000190: d6e1 4c36 f371 0b36 2852 a936 3efe 2937
000001a0: 7947 2135 5cff fb35 e4e2 2936 82cc 4e36
000001b0: b7fb 8837 617b dd36 a7b8 4c37 b606 4837
000001c0: 53d0 bf37 b51c 7236 1873 b936 b6c5 4336
000001d0: 6a25 b236 f6eb 7c36 955c 9336 af16 8a36
000001e0: 663d eb36 4ef6 0436 bacb 5736 da7a b537
000001f0: 03f8 ff35 7c5c b936 1a9e ca35 294b aa36
00000200: 2e30 9c35 821f 3336 c911 8c36 e0af 8a37
00000210: 3288 9737 b22a e035 7b8d a936 180c 2137
00000220: 6525 bd37 2d62 9d35 1a2d 0837 276c 3636
00000230: 61ec 3d36 c530 dd35 68d8 d434 e79b 9434
00000240: a3df 3c36 8c20 4b36 6180 6635 e9d8 3136
00000250: 9851 0c36 6e16 9635 cfdc 3c37 aeaf c436
00000260: 8952 0c36 d948 3237 d067 0e36 9ac2 b437
00000270: eb71 5336 f479 4837 6053 5637 2212 4836
00000280: 9969 ac37 ec4d 7b36 a344 8c36 cbaa 2836
00000290: 0fb1 4f35 b68f 9935 df40 fe36 6ddb 3c37
000002a0: 82e6 5a36 02e4 2036 45f4 9437 99d8 7737
000002b0: 9808 4b36 6af7 ec36 9a38 c936 2c89 c336
000002c0: 9f36 9637 c91a 1337 ec64 8737 cd34 7337
000002d0: 446b 7836 634d a935 0ed2 1b36 ffcf 3635
000002e0: c131 1035 e8d1 c235 ed9b 9c35 1077 f734
000002f0: 2e7d 0d36 ab40 9835 19b7 1337 8290 3e35
00000300: c035 6637 ffdb f636 7240 8836 9e76 1b36
00000310: 2210 4636 3a7d a935 6194 8e36 6ab8 8735
3.6458783e-08 6.635546e-07 3.1188932e-07 8.423316e-07 3.4188662e-07 2.1036297e-07 6.777312e-07 1.7091988e-06
1.3614483e-07 3.4374234e-06 4.480963e-06 6.7895908e-06 1.5922498e-05 7.058908e-06 3.975523e-06 1.7950091e-06
2.606135e-06 3.2002683e-06 1.4314157e-06 5.1041325e-06 3.8225727e-07 1.0965441e-06 9.253971e-07 2.2350332e-06
3.6563455e-07 1.4559603e-07 8.346728e-07 4.073887e-06 8.9820844e-07 3.0286967e-06 7.2970147e-06 4.3395926e-06
1.2123587e-05 1.4128809e-05 2.918269e-06 3.8231683e-06 6.408652e-06 3.6935173e-08 1.8894716e-06 4.897071e-06
9.2007285e-06 2.2629017e-06 5.274265e-06 4.7688695e-06 6.8790996e-07 1.9100553e-06 8.161529e-06 1.3797053e-06
3.8067426e-06 3.0901622e-06 2.7377557e-06 9.369279e-07 2.8043737e-06 6.136016e-06 2.783579e-07 9.698875e-07
1.732613e-06 6.257383e-07 2.374675e-06 2.9117638e-07 4.9642595e-06 2.1550854e-06 3.149703e-06 5.7467814e-06
5.171488e-06 2.7653618e-06 6.3159086e-06 9.505274e-06 4.818075e-06 7.393481e-06 5.6391095e-06 2.7829035e-06
3.1622956e-06 8.703209e-07 7.982636e-07 2.2948514e-06 3.2844143e-06 2.5938912e-06 2.0030639e-06 6.910513e-07
1.837838e-06 4.3133005e-07 1.2183545e-05 9.753782e-06 3.2449786e-06 2.0846092e-06 8.070284e-06 9.192903e-06
2.0954838e-05 7.1638074e-06 4.6814992e-07 3.3998612e-07 4.066184e-07 3.8530112e-07 4.5390806e-07 1.7053023e-07
1.1887195e-06 3.032549e-07 1.6230496e-07 1.10579045e-07 3.0529823e-06 2.0778941e-06 5.0461567e-06 1.013238e-05
6.008118e-07 1.8775277e-06 2.531503e-06 3.0815431e-06 1.6329677e-05 6.6006764e-06 1.220234e-05 1.19224915e-05
2.2865983e-05 3.607752e-06 5.5268283e-06 2.9172347e-06 5.309169e-06 3.7688274e-06 4.3917194e-06 4.115361e-06
7.0106935e-06 1.98129e-06 3.215608e-06 2.1634089e-05 1.9071161e-06 5.5241962e-06 1.5096186e-06 5.0751446e-06
1.1636928e-06 2.6691418e-06 4.1743956e-06 1.653278e-05 1.8064024e-05 1.6701727e-06 5.053063e-06 9.599164e-06
2.2547969e-05 1.1725984e-06 8.116733e-06 2.7183066e-06 2.8300785e-06 1.6479977e-06 3.9645533e-07 2.7680582e-07
2.8144357e-06 3.0268302e-06 8.586849e-07 2.6501314e-06 2.090912e-06 1.1182399e-06 1.1257084e-05 5.861707e-06
2.0909667e-06 1.0626588e-05 2.1220076e-06 2.154829e-05 3.150776e-06 1.1949323e-05 1.2774806e-05 2.9812877e-06
2.055317e-05 3.744727e-06 4.1803155e-06 2.5133365e-06 7.7371163e-07 1.1441214e-06 7.577342e-06 1.1256762e-05
3.2618705e-06 2.3974576e-06 1.7756722e-05 1.4772778e-05 3.025436e-06 7.062151e-06 5.996856e-06 5.827422e-06
1.7906828e-05 8.768119e-06 1.614025e-05 1.4496222e-05 3.7017317e-06 1.2614004e-06 2.3219068e-06 6.810296e-07
5.371658e-07 1.4515217e-06 1.1668286e-06 4.6093965e-07 2.1083501e-06 1.1343703e-06 8.8045135e-06 7.09908e-07
1.3721583e-05 7.356982e-06 4.0606183e-06 2.3165844e-06 2.951369e-06 1.2627927e-06 4.2492034e-06 1.0111955e-06

exp_avg f4 [20]
00000000: 562a 5b3b 8af9 3b3b 1eda cb3b 2c78 6e3c
00000010: ea04 7c3c 39cf c739 c134 133c cb53 c5ba
00000020: 8934 763c 03e8 423b 9142 28bc 04d7 873b
00000030: 45fb 2abb 2b92 c9bb 836d 0bbb 2460 d1bb
00000040: f755 483c 3b39 a53b 8c78 60bb 55db f6bb
0.0033441982 0.0028682672 0.00622107 0.014555018 0.015382031 0.0003811063 0.0089847455 -0.001505488
0.015027174 0.002974034 -0.010269777 0.004145505 -0.002608971 -0.006151458 -0.002127499 -0.0063896347
0.012227527 0.005042223 -0.003425154 -0.0075334706

exp_avg_sq f4 [20]
00000000: 9e68 1b36 fe7d e134 c1d5 cc35 9b3d f736
00000010: 6454 0637 9b2d 1a36 b68d 9236 0607 a734
00000020: 8bf3 2937 2af1 5a35 520a 4b37 5b59 9036
00000030: 6d61 8536 fd8c 6736 4964 0a36 f8d2 2536
00000040: 5df3 5937 06a6 9837 1354 b035 53bd 6337
2.3157695e-06 4.2001187e-07 1.5261395e-06 7.3683455e-06 8.006671e-06 2.2974334e-06 4.3676364e-06 3.1111284e-07
1.0129889e-05 8.156227e-07 1.2102146e-05 4.3019368e-06 3.9750507e-06 3.4503748e-06 2.0621976e-06 2.4709716e-06
1.299087e-05 1.8197123e-05 1.3137491e-06 1.3574335e-05

exp_avg f4 [5, 20]
00000000: 16cf b4bb c9b8 103c e7ff 2b3c 0b9e 82bb
00000010: 9f6e 9fbc 4e05 793a e29d 013c 30ac a53a
00000020: 2c86 0bbd 93ba afba 4a7c 46bb a3cd aabb
00000030: 3b7b c03b 7bca ac3c 95ab 893b 654b 9e3c
00000040: 09c2 8a3b 37f1 81bb b146 d73b 65ee ef3b
00000050: f31a 26bc 47a3 76bb 8683 94bb 3405 9e3c
00000060: 13d6 cf3a 3ae2 c5bc aaac 6c3c 8571 a1bc
00000070: 8f91 d73b 7310 8fb8 cb07 46bc be7b 21bc
00000080: 72c7 053c 798b 5c3c 5c58 56bc 11b2 19bc
00000090: 71bb fdbb 614e 06bd 4fae 993a 523d 4e3b
000000a0: fb2f 93bb ef81 a33b f4e3 3b3c 77fa 123c
000000b0: 61d0 723d 4d91 a23c 96d7 5e3c fc33 193c
000000c0: 005a 3a3d ed52 003b 191a 1a3d e6a0 a0bb
000000d0: c67d ba3c e167 9e3c c163 9d3c c824 c13c
000000e0: 12ed d53c 25ce c63c c77f bf3c 5a9f d23c
000000f0: 6bc9 a8ba ec28 50bc 3875 183b 9550 c0bc
00000100: fc31 2fbc f2c2 3f3c 00d4 09bd 8aa1 6cba
00000110: 8a25 fbbc 5851 d53a 87d5 d9bb bbf6 e0b9
00000120: 173d 85bc 7ce5 8abb b0ba 33b9 3aea caba
00000130: 914d 8f3b 453f 89bc 83d9 6bbc 33a2 9dbc
00000140: e3cd 223c c921 0d3c 5ef5 a83a 0f7b 473c
00000150: d543 5b3d cacf 99bc d8b6 c13c 87c7 1d3c
00000160: e780 603d 61df 7b3a 61ee 423c 3e21 613b
00000170: f4e7 d33b 9f74 3f3c fef5 ce3c 57dc 95ba
00000180: 65dd c03c b5fe 223c 3787 523c d061 0a3c
-0.0055178506 0.008833119 0.010498024 -0.0039861253 -0.019461928 0.00094993867 0.007911177 0.0012639817
-0.034063503 -0.0013407044 -0.0030286484 -0.005212502 0.005874065 0.021092644 0.0042013624 0.01932306
0.0042345566 -0.0039655226 0.0065697064 0.00732212 -0.010138261 -0.0037633942 -0.0045322804 0.01928959
0.0015856646 -0.024155725 0.014445463 -0.01970745 0.0065786312 -6.821835e-05 -0.012086819 -0.009856163
0.008165227 0.013460987 -0.01308259 -0.009380833 -0.007743292 -0.03278959 0.0011724922 0.0031469655
-0.0044918037 0.0049898545 0.0114679225 0.008970848 0.059280757 0.019844675 0.013601204 0.009350773
0.045495987 0.0019580678 0.037622545 -0.004901993 0.022765052 0.019336643 0.019212605 0.023577109
0.02611402 0.02426822 0.023376359 0.02571075 -0.001287741 -0.012705069 0.0023263227 -0.023475925
-0.01069307 0.011704193 -0.033649445 -0.0009026757 -0.030657548 0.0016274853 -0.006647769 -0.00042908438
-0.016264481 -0.0042387825 -0.00017140317 -0.0015481182 0.0043732603 -0.016753802 -0.014395121 -0.019242382
0.0099367825 0.008614012 0.0012890508 0.012175336 0.053531487 -0.01877584 0.023646757 0.009630091
0.05481043 0.0009608176 0.011897654 0.003435209 0.00646686 0.0116855195 0.025263783 -0.0011433464
0.02354307 0.009948422 0.012849621 0.008446172

exp_avg_sq f4 [5, 20]
00000000: b295 dc37 8c92 0d37 8b25 8937 6567 8c37
00000010: 1bba 1d38 c497 a837 707e 4537 48f0 8e36
00000020: dcd8 ce38 86b0 6a34 a523 4238 7a3a 8337
00000030: e693 3c37 1312 e037 57ef cb37 d1c3 c537
00000040: d74e 7337 192a be37 a509 8337 2e49 ab37
00000050: 9a96 2438 3f3c fa37 6886 8b37 74cd 2638
00000060: 18bb 0138 bee3 0138 7dab 4038 357c 4e38
00000070: b0b6 9e38 ad27 be33 c79c 9b38 2bf0 cb37
00000080: 5f66 7337 ecb3 dd37 01ee b337 3d80 3437
00000090: af8e 9037 e74c 7838 9537 2e37 8065 5837
000000a0: de77 7536 aa27 5b38 58ea 0637 c81d 2837
000000b0: c4db 3139 45e7 b437 fca2 4a37 0578 0437
000000c0: 6bad e438 629e 0e35 370e 8138 210d 2c37
000000d0: 5fe5 ca37 b009 a237 c698 0738 bb0c aa37
000000e0: 636f 7b38 0ed8 5138 b6fa 4c38 1432 1138
000000f0: 289b f934 2b8b 2d37 15ac 1636 f3a6 a137
00000100: dd3a c637 fe85 5b37 3b73 2038 3ea9 b336
00000110: f845 0f38 316c 9334 8ca3 f537 1f4a bd36
00000120: 53f3 8c37 c8ce 1d36 e379 c937 a85f f736
00000130: 37fc fe36 eb94 3a37 0e7b 3737 074c e037
00000140: 7e2a 3d36 bd34 0037 bc22 0436 683e ce37
00000150: 3d4e cd38 388f b937 5987 0938 5ba1 8b36
00000160: a12a bc38 c8f3 1935 02fd c137 983a 9335
00000170: a516 fa36 8ad5 8837 b518 0538 ccde 9e36
00000180: fd7c 1938 ac05 5b36 680e 0737 c31e e437
2.6295751e-05 8.4383755e-06 1.6349155e-05 1.6737447e-05 3.760504e-05 2.0097832e-05 1.1771554e-05 4.259902e-06
9.863239e-05 2.1857167e-07 4.62864e-05 1.5643647e-05 1.12401085e-05 2.6711297e-05 2.4310937e-05 2.3575414e-05
1.4502285e-05 2.2669368e-05 1.5620908e-05 2.0418865e-05 3.9240906e-05 2.9830377e-05 1.6632679e-05 3.9768827e-05
3.093024e-05 3.0968098e-05 4.5936078e-05 4.9229904e-05 7.568055e-05 8.8547814e-08 7.420178e-05 2.4311323e-05
1.4507764e-05 2.6429036e-05 2.1449292e-05 1.0758694e-05 1.723258e-05 5.919943e-05 1.0384149e-05 1.2898236e-05
3.6577617e-06 5.225061e-05 8.041585e-06 1.0020514e-05 0.00016961904 2.1565365e-05 1.2078086e-05 7.895757e-06
0.00010904189 5.31296e-07 6.153847e-05 1.0255056e-05 2.4187086e-05 1.9316416e-05 3.232879e-05 2.0271507e-05
5.99468e-05 5.00307e-05 4.8870883e-05 3.4617333e-05 4.6492755e-07 1.0344006e-05 2.2451907e-06 1.9270437e-05
2.363085e-05 1.3084615e-05 3.825429e-05 5.354318e-06 3.415902e-05 2.7459603e-07 2.9282433e-05 5.6412678e-06
1.6802607e-05 2.3515186e-06 2.4017825e-05 7.3723095e-06 7.5991516e-06 1.1121137e-05 1.0936301e-05 2.6738284e-05
2.8187928e-06 7.641674e-06 1.968975e-06 2.4586174e-05 9.789735e-05 2.212041e-05 3.2789398e-05 4.161307e-06
8.972479e-05 5.735169e-07 2.3125209e-05 1.0969407e-06 7.4532168e-06 1.63119e-05 3.173268e-05 4.734704e-06
3.6594447e-05 3.2636844e-06 8.049981e-06 2.7194043e-05

exp_avg f4 [5]
00000000: 5c72 303b 3d6f 8ebc dfd5 8c3d ffb3 0fbd
00000010: ffb0 453d
0.0026923632 -0.017387027 0.0687673 -0.035083767 0.0482645

exp_avg_sq f4 [5]
00000000: 24b0 7239 fb0b 8a39 db40 a139 fa49 5c38
00000010: e1f7 1739
0.00023144536 0.00026330337 0.00030756634 5.2520983e-05 0.00014492824
