checkpoints/epoch=0-step=4-v1.ckpt (torch, 11504 bytes, 12 tensors)

network.0.weight f4 [20, 10]
0.024862286 -0.23726156 -0.2557067 -0.0049945293 0.30681866 -0.13046782 -0.0030722478 0.21651635
0.15176116 0.055499665 -0.065295085 0.30351713 0.05528773 -0.25530142 0.06482086 -0.06852555
-0.109850995 0.15015723 0.068844765 0.109758444 -0.23923853 0.2086922 0.089473374 -0.2216834
-0.08628903 -0.088915154 0.104498185 0.29080743 -0.086780705 0.045771655 -0.30633408 -0.24647805
0.27698058 -0.02913585 -0.22031555 0.105959654 0.031112287 -0.17347999 0.16100118 0.11893768
0.068027474 -0.06114263 0.17131813 0.054938506 0.23719482 0.022075975 0.29776275 -0.30469507
0.10272394 -0.06433627 -0.16339278 0.14542945 -0.3072024 -0.2113554 -0.23946191 0.29126728
0.043564066 -0.2851122 0.086117856 -0.19483164 0.27849025 0.25049466 -0.16121307 -0.0008209684
0.03741618 -0.30930418 -0.2126324 -0.18286535 -0.15715325 -0.28394723 -0.23016025 0.12626578
-0.015441472 -0.0619487 0.24203525 -0.24862668 -0.29096276 -0.19688635 -0.10978341 0.20730095
0.09050509 0.22002228 -0.21141176 -0.27711552 -0.31579325 0.25102168 -0.30120766 -0.13648559
0.16527984 -0.0724807 0.164416 0.17093556 -0.10070694 -0.21038237 0.1387206 -0.07675097
-0.090601675 0.04925162 -0.21719632 0.21969207 -0.09366438 -0.21740009 0.12993066 -0.24357167
-0.010772227 -0.035736136 0.24985327 0.28706524 0.0515175 -0.11995239 -0.15080625 -0.009680306
-0.061424617 -0.024425615 0.31305963 -0.12980628 0.19213906 0.2831841 0.252659 0.14338082
-0.02038155 0.25176135 -0.09314834 0.28814197 0.23788223 0.09361279 0.16405952 -0.12962805
0.23963074 -0.2837635 -0.092832945 0.07819275 0.11330879 0.090515524 -0.061539225 -0.10298208
-0.20532344 0.17294727 -0.21230605 0.008338607 0.14415519 0.24912125 -0.26027095 0.29667366
-0.052854795 -0.11002858 0.13942817 -0.16405033 0.17194238 0.002038517 0.02416205 -0.2687389
0.13837129 0.065234214 0.22519471 -0.19514416 -0.115410335 -0.2412912 -0.09344967 -0.2515842
-0.16118938 0.16137746 0.04747191 0.23755212 -0.06960909 0.11887446 0.2615797 -0.15867124
0.070493385 0.2169247 -0.05791981 -0.18591666 0.21995895 -0.15220118 0.015059144 -0.103705876
0.2081875 0.029554136 -0.25333834 0.08549457 0.0111019155 -0.011277555 -0.0020001966 -0.18193461
0.28220713 0.017572084 0.010825589 -0.30374762 -0.048065998 0.21657795 -0.143027 -0.27979743
0.035399217 0.16472256 -0.23285511 0.284507 0.29478264 0.06630588 0.062096607 0.30209184
00000000: feab cb3c b2f4 72be fdeb 82be 26a9 a3bb
00000010: 5617 9d3e 5b99 05be c457 49bb 76b6 5d3e
00000020: 4767 1b3e 9e53 633d 6eb9 85bd 9966 9b3e
00000030: 6375 623d deb6 82be cdc0 843d 2057 8cbd
00000040: 8ff9 e0bd d1c2 193e 7cfe 8c3d 09c9 e03d
00000050: f2fa 74be 68b3 553e d13d b73d f900 63be
00000060: 4eb8 b0bd 2619 b6bd 2503 d63d b6e4 943e
00000070: 15ba b1bd 0f7b 3b3d d2d7 9cbe be64 7cbe
00000080: 66d0 8d3e 4eae eebc 669a 61be 6001 d93d
00000090: 32df fe3c bda4 31be 7edd 243e 9995 f33d
000000a0: fd51 8b3d b270 7abd 056e 2f3e 3307 613d
000000b0: 33e3 723e add8 b43c 5c74 983e fe00 9cbe
000000c0: ee60 d23d bcc2 83bd 7050 27be 75eb 143e
000000d0: a249 9dbe 8d6d 58be 8135 75be fc20 953e
000000e0: 3c70 323d 3afa 91be 8f5e b03d f281 47be
000000f0: 4696 8e3e d640 803e 0a15 25be 4236 57ba
00000100: b541 193d 1e5d 9ebe 4fbc 59be 0e41 3bbe
00000110: c8ec 20be 8861 91be 21af 6bbe d14b 013e
00000120: 3afe 7cbc ecbd 7dbd 17d8 773e fe97 7ebe
00000130: 12f9 94be 939c 49be 20d6 e0bd b346 543e
00000140: bc5a b93d 854d 613e 537c 58be 16e2 8dbe
00000150: a7af a1be ea85 803e e437 9abe e1c2 0bbe
00000160: 1e3f 293e c370 94bd ab5c 283e bb09 2f3e
00000170: 713f cebd 7a6e 57be c60c 0e3e 9d2f 9dbd
00000180: 5f8d b9bd 11bc 493d b668 5ebe f5f6 603e
00000190: 1cd3 bfbd 219e 5ebe 8b0c 053e da6a 79be
000001a0: ff7d 30bc 0e60 12bd 89d9 7f3e 37fa 923e
000001b0: 0404 533d 99a9 f5bd f46c 1abe 259a 1ebc
000001c0: 6198 7bbd 3a18 c8bc 5a49 a03e f0eb 04be
000001d0: 1ac0 443e 82fd 903e 855c 813e 6cd2 123e
000001e0: 35f7 a6bc dde6 803e 8fc4 bebd 5887 933e
000001f0: 6697 733e 10b8 bf3d 38ff 273e 37bd 04be
00000200: c361 753e 7349 91be 331f bebd 8523 a03d
00000210: 700e e83d 3460 b93d 8e10 7cbd 45e8 d2bd
00000220: 4f40 52be 1719 313e c266 59be a79e 083c
00000230: 6b9d 133e a419 7f3e 3c42 85be 9ce5 973e
00000240: 457e 58bd aa56 e1bd 42c6 0e3e cffc 27be
00000250: aa11 303e a498 053b 7eef c53c 2598 89be
00000260: 34b1 0d3e 8499 853d 7199 663e dfd3 47be
00000270: 415c ecbd 0a15 77be 8a62 bfbd a5cf 80be
00000280: d40e 25be 2240 253e e871 423d dd40 733e
00000290: 368f 8ebd 7474 f33d c6ed 853e b77a 22be
000002a0: d65e 903d 8221 5e3e 533d 6dbd f060 3ebe
000002b0: eb3c 613e a0da 1bbe a1ba 763c bf63 d4bd
000002c0: 1b2f 553e 841b f23c 90b5 81be c717 af3d
000002d0: cfe4 353c 7ec5 38bc bb15 03bb 114d 3abe
000002e0: 747d 903e 55f3 8f3c d05d 313c cf84 9bbe
000002f0: dae0 44bd 9cc6 5d3e ab75 12be 9c41 8fbe
00000300: c5fe 103d 08ad 283e 9271 6ebe e7aa 913e
00000310: c0ed 963e 61cb 873d 0359 7e3d c8ab 9a3e

network.0.bias f4 [20]
0.02673156 0.10038464 -0.21396084 -0.062026165 -0.21153657 -0.27862367 0.14522937 -0.29961067
0.058352582 -0.2905616 0.30103 0.123557135 0.0060704728 0.26395112 -0.20564625 -0.005754994
-0.14221433 -0.25587535 -0.21188158 -0.28158802
00000000: 25fc da3c 7696 cd3d 8d18 5bbe 260f 7ebd
00000010: 0b9d 58be c3a7 8ebe 02b7 143e 9266 99be
00000020: 1e03 6f3d 7dc4 94be 9b20 9a3e 860b fd3d
00000030: d1ea c63b 9a24 873e ee94 52be 6494 bcbb
00000040: a2a0 11be 1802 83be 7cf7 58be 4e2c 90be

network.2.weight f4 [5, 20]
0.11206414 -0.13052759 -0.15681082 -0.15087193 0.0036713672 0.15224053 -0.0026972624 0.22035114
0.11583533 0.09763639 -0.008600922 0.20992102 0.10289552 0.18489134 -0.13995728 0.20835489
0.10353716 -0.031929377 -0.20446075 -0.040650874 0.103162915 -0.06483893 -0.12118243 0.19435546
-0.14917518 -0.20842406 -0.06244988 -0.12715653 0.09165204 -0.18712805 -0.1918137 -0.13394247
0.19163908 0.10260842 0.16474898 0.19802202 -0.07388318 -0.096587725 0.22001815 0.07493463
0.02961274 -0.1939179 -0.022825966 0.1661927 -0.049409483 -0.14574832 -0.08940376 0.026906978
0.21531644 0.15074024 0.10199975 0.17629746 0.029515766 0.043185823 0.18367499 -0.06693262
-0.18698655 0.077584796 0.11534621 -0.09707931 0.18139333 -0.09421594 -0.117821895 0.17113064
-0.0728928 -0.081036754 -0.18015388 0.18311074 0.076783724 0.07600304 0.110729314 0.22286984
0.22581638 0.19260998 -0.10776414 0.1511783 0.003122264 0.03641084 -0.11561602 -0.14234306
0.06879083 0.10887159 -0.06738182 0.15723597 0.0018162158 -0.08445598 0.11717741 -0.12961891
0.062068935 -0.017204631 -0.0864192 -0.17884009 0.21107072 0.15403982 0.07846824 0.0068261847
-0.1090207 0.22190194 -0.09623687 -0.06386081
00000000: e281 e53d 06a9 05be 0493 20be 2c7e 1abe
00000010: 529b 703b f1e4 1b3e 8ec4 30bb bba3 613e
00000020: 133b ed3d 96f5 c73d e2ea 0cbc 89f5 563e
00000030: e3ba d23d 2854 3d3e f650 0fbe fc5a 553e
00000040: 4a0b d43d 61c8 02bd 295e 51be 8881 26bd
00000050: 1447 d33d 46ca 84bd 7e2e f8bd 1e05 473e
00000060: 61c1 18be 1e6d 55be 72cb 7fbd 5235 02be
00000070: 11b4 bb3d 7f9e 3fbe d06a 44be 3728 09be
00000080: 093d 443e 5d24 d23d f5b3 283e 49c6 4a3e
00000090: 1150 97bd c9cf c5bd 704c 613e 5477 993d
000000a0: 6b96 f23c 6a92 46be 85fd babc 6b2e 2a3e
000000b0: 9961 4abd 0c3f 15be 5219 b7bd 066c dc3c
000000c0: ea7b 5c3e a65b 1a3e 3fe5 d03d 5287 343e
000000d0: 0ccb f13c 9ee3 303d 4c15 3c3e f813 89bd
000000e0: 6779 3fbe c7e4 9e3d a23a ec3d 84d1 c6bd
000000f0: 2cbf 393e 49f4 c0bd 9b4c f1bd df3c 2f3e
00000100: d248 95bd 99f6 a5bd 427a 38be 6281 3b3e
00000110: c940 9d3d 7ba7 9b3d 0dc6 e23d fe37 643e
00000120: 693c 673e 8d3b 453e 72b3 dcbd 7cce 1a3e
00000130: e69e 4c3b 8823 153d 18c8 ecbd 61c2 11be
00000140: 35e2 8c3d 11f8 de3d 7bff 89bd 7702 213e
00000150: 170e ee3a 42f7 acbd b6fa ef3d d2ba 04be
00000160: ff3b 7e3d baf0 8cbc 8dfc b0bd db21 37be
00000170: ec22 583e 9dbc 1d3e f5b3 a03d 30ae df3b
00000180: 3f46 dfbd 433a 633e d617 c5bd 75c9 82bd

network.2.bias f4 [5]
0.11491185 -0.16348416 -0.04486483 -0.21089408 -0.011827418
00000000: e756 eb3d 6468 27be 2fc4 37bd 9ef4 57be
00000010: c9c7 41bc

exp_avg f4 [20, 10]
-0.002352997 -0.00052034506 0.0002666894 -0.002503255 8.693046e-05 0.0013507219 0.002998704 0.0018714453
-7.1657036e-05 -0.0019713554 -0.0035876455 0.009278643 -0.0013594675 -0.003022417 -0.0014789723 -0.0062876623
0.0016480709 -0.008614834 0.0032576646 -0.013016855 0.00058472314 -0.0018981205 -0.0003320505 -0.0015955969
-0.0022252046 0.00097205327 0.0013397094 0.0031348788 0.002950758 0.0005786499 -0.0036759204 -0.006113185
-0.002085775 -0.001390833 0.006637574 0.007157089 -0.003973972 0.0013015557 0.0033160003 -0.0020788023
0.002303641 -0.000366326 -0.0037977758 -0.00045770901 -0.0009602916 -0.0013909276 -0.0031123355 -0.0021491782
0.0010027667 0.001135615 -0.002543739 0.0008395621 -0.0036455304 0.00018607083 -0.0017231664 -0.0005294512
-0.0008998135 -0.0013830542 0.0011230436 -0.001827832 -0.00026003068 0.005953182 -0.0016729052 -0.0017610721
0.0036527396 -0.0032058526 -0.006190244 -0.0038078688 0.004573019 -0.0046840706 -9.55015e-05 0.00623389
-0.005797146 0.0026204276 -0.006976769 -0.003929832 -0.0040998235 0.0027306564 -0.0006449804 0.0070176246
0.003155433 -0.01029595 0.001556937 -0.003803465 -0.00083876617 0.0007303895 -0.0035423057 0.005253406
-0.0021413988 0.004660388 0.0013040463 -0.00021153793 -4.6706728e-06 -0.00037224506 -0.00050817285 -0.002008523
-0.0029662843 0.0037707596 0.001059227 0.004273733 -0.0016254266 -0.006009115 0.00065634673 -0.0036242064
-0.00096709986 -0.0037675619 -0.0027465 0.009043755 -0.0002626279 0.003834179 -0.0033516316 -0.013903826
0.0021864315 0.00079278555 -0.0053887432 -0.008401029 -0.001284988 0.013164329 0.0008270698 0.0071347905
-0.0014137946 -0.00061255763 0.010777147 0.0005500067 0.0070423214 0.009053565 0.007665528 -0.0014051234
0.0007046128 -0.0008908426 -0.006108509 0.0056301137 -0.0013534769 -0.00075272616 -0.002887363 -0.0022974177
-0.004020897 -0.00014275407 -0.008310021 -0.012587481 0.0022235662 -0.006389639 0.004490606 -0.0061715674
-5.9133028e-05 0.010802937 0.010376904 -0.0024348858 -0.0014037819 -0.0060400073 -0.0017008109 0.0019595725
0.0029317623 -0.00055151933 0.0008040722 0.0043058195 0.0014440519 -0.0011967558 -0.0070928405 -0.0116910655
-0.0035831158 0.0018971871 -0.0007101254 2.5798421e-05 -0.00094715226 -0.0018205892 -0.00010692354 0.00078043225
0.0013926047 -5.1840205e-05 -0.00066683465 -0.004605978 -0.00044216387 -0.0014958689 -0.000830348 -0.0036768226
-2.916413e-05 0.0015557653 -0.0011135781 -0.0013008284 -0.0043549524 -0.008662623 -0.0005772348 0.001291247
-0.004107752 -0.0026547494 -0.004291182 0.0050506336 0.003099492 0.006843136 0.002272415 -0.00225188
0.0014614281 0.0010798519 -0.0012172181 -0.0022820255 0.0007572602 -0.0039589712 -0.0017615966 0.0031714535
00000000: bd34 1abb c467 08ba 72d2 8b39 a60d 24bb
00000010: 6f4e b638 b50a b13a e885 443b 494b f53a
00000020: 9446 96b8 db31 01bb b41e 6bbb 7305 183c
00000030: 2930 b2ba be13 46bb 13da c1ba bc08 cebb
00000040: 1504 d83a 3c25 0dbc 8b7e 553b a644 55bc
00000050: 1b48 193a 5bca f8ba 1017 aeb9 5923 d1ba
00000060: bdd4 11bb 64d1 7e3a 3099 af3a 8a72 4d3b
00000070: 8161 413b 8ab0 173a b6e7 70bb 1d51 c8bb
00000080: 7fb1 08bb 9c4c b6ba 0280 d93b 0486 ea3b
00000090: 1838 82bb f698 aa3a 4151 593b 843c 08bb
000000a0: aff8 163b 720f c0b9 1be4 78bb aaf8 efb9
000000b0: 14bc 7bba c94f b6ba 53f8 4bbb 3ad9 0cbb
000000c0: 446f 833a ebd8 943a dcb4 26bb 0f16 5c3a
000000d0: dae9 6ebb 021c 4339 dfdb e1ba deca 0aba
000000e0: 76e1 6bba 9947 b5ba 1733 933a dd93 efba
000000f0: ba54 88b9 e912 c33b 6245 dbba c6d3 e6ba
00000100: cd62 6f3b 4819 52bb 88d7 cabb 708d 79bb
00000110: 44d9 953b d57c 99bb fa47 c8b8 a945 cc3b
00000120: fcf5 bdbb 7bbb 2b3b 619d e4bb d2c5 80bb
00000130: d057 86bb d0f4 323b e713 29ba 1af4 e53b
00000140: 62cb 4e3b 58b0 28bc 2312 cc3a 8e43 79bb
00000150: a5e0 5bba 9c77 3f3a 0726 68bb c324 ac3b
00000160: b656 0cbb 2bb6 983b 88ec aa3a 48d0 5db9
00000170: c6b8 9cb6 e329 c3b9 e736 05ba 6da1 03bb
00000180: fe65 42bb d91e 773b c3d5 8a3a ac0a 8c3b
00000190: 440c d5ba 1ce8 c4bb af0e 2c3a 1884 6dbb
000001a0: f984 7dba 33e9 76bb a0fe 33bb 422c 143c
000001b0: 52b1 89b9 d946 7b3b 0ca7 5bbb dfcc 63bc
000001c0: 3c4a 0f3b f0d2 4f3a 0e94 b0bb 78a4 09bc
000001d0: 0b6d a8ba 33af 573c b7cf 583a f6ca e93b
000001e0: 134f b9ba 0c94 20ba a192 303c 532e 103a
000001f0: 46c3 e63b 6755 143c 1c2f fb3b 1e2c b8ba
00000200: c4b5 383a 6f87 69ba e329 c8bb d17c b83b
00000210: 2667 b1ba 9952 45ba ea39 3dbb 4690 16bb
00000220: bbc1 83bb 41b0 15b9 c126 08bc b93b 4ebc
00000230: 40b9 113b 2d60 d1bb ef25 933b dc3a cabb
00000240: 9b05 78b8 cdfe 303c e403 2a3c 9b92 1fbb
00000250: 1bff b7ba 41eb c5bb beed deba 2c6c 003b
00000260: cf22 403b d693 10ba 5fc8 523a d517 8d3b
00000270: 5746 bd3a 76dc 9cba 0f6b e8bb e28b 3fbc
00000280: b5d2 6abb 09ab f83a b527 3aba b069 d837
00000290: 504a 78ba d6a0 eeba 233c e0b8 ec95 4c3a
000002a0: 0f88 b63a ff6e 59b8 84ce 2eba beed 96bb
000002b0: 3bd2 e7b9 0811 c4ba b6ab 59ba d9f6 70bb
000002c0: 7ea5 f4b7 d2ea cb3a 7bf5 91ba 8f80 aaba
000002d0: fdb3 8ebb aded 0dbc 9251 17ba 0f3f a93a
000002e0: 529a 86bb 4efb 2dbb 0b9d 8cbb c97f a53b
000002f0: d920 4b3b 633c e03b ccec 143b 4794 13bb
00000300: 648d bf3a d189 8d3a 108b 9fba 098e 15bb
00000310: df82 463a 42ba 81bb 60e5 e6ba 29d8 4f3b

exp_avg_sq f4 [20, 10]
7.017954e-07 5.9203253e-06 2.8461782e-06 2.8467036e-07 3.1456093e-06 7.757166e-07 7.853194e-07 2.1123824e-06
7.694388e-07 2.373723e-06 1.2331508e-06 4.8397283e-06 1.4248513e-06 3.4945631e-07 1.7859054e-06 1.6016315e-06
3.6664414e-06 4.588049e-06 9.742769e-07 8.240138e-06 3.787021e-07 2.2098591e-07 6.566595e-07 1.8254279e-07
2.3030049e-07 1.8874935e-06 1.466368e-06 8.39522e-07 9.382426e-07 4.2499585e-07 3.7603402e-06 6.1674e-06
3.528089e-06 1.2434523e-06 3.6718013e-06 2.0646687e-06 1.3398344e-06 5.970267e-07 9.082551e-07 4.45054e-06
2.1254141e-07 9.528399e-07 5.333237e-07 3.685093e-07 1.0228803e-06 6.078032e-07 8.117609e-07 2.8309793e-07
3.8391764e-07 1.4411194e-07 1.4334971e-06 9.167396e-07 8.937702e-07 4.744264e-07 1.2008367e-06 2.0428608e-07
9.568474e-07 2.075349e-07 1.0344185e-06 2.2769571e-07 4.6172116e-07 1.6589546e-06 1.1381245e-06 1.4431976e-07
4.155517e-06 2.5462218e-06 3.4786433e-06 1.1185332e-06 1.5272041e-06 3.7924337e-06 3.2108375e-07 4.569348e-06
2.8612424e-06 2.9294126e-06 6.336984e-06 6.6273765e-07 4.9588825e-06 7.0102664e-07 1.2909038e-06 1.1039796e-05
6.666037e-07 9.767079e-06 1.5015596e-06 2.0430145e-06 4.2875868e-07 2.3532848e-06 4.416714e-06 1.8147899e-06
1.184592e-06 1.5142284e-06 2.820511e-07 3.0111002e-07 3.4999965e-07 1.4322104e-07 1.3546658e-07 1.5292862e-06
1.8961923e-06 9.877305e-07 2.1812303e-07 2.9573437e-06 1.7794017e-07 4.175893e-06 2.8783077e-06 6.1135063e-07
4.8527945e-06 4.2412257e-06 2.334096e-06 3.283868e-06 1.2529573e-06 5.361814e-06 1.148372e-06 1.7707473e-05
1.0687111e-05 1.4022983e-06 2.069404e-05 9.391493e-06 3.5354196e-06 6.01803e-06 1.920664e-06 2.9090219e-05
4.1868393e-06 2.8324664e-06 6.386781e-06 5.5045905e-07 3.2254072e-06 5.8505566e-06 1.3446658e-05 2.8685572e-06
1.4789192e-07 4.3815003e-06 2.9411592e-06 4.766422e-06 2.0634004e-06 8.9575235e-07 2.8228465e-06 2.6760047e-06
4.016521e-06 1.6882034e-06 2.8075801e-06 5.633634e-06 3.5927158e-07 6.0638836e-06 2.4236874e-06 3.5133123e-06
1.1321082e-06 5.1841616e-06 8.119954e-06 7.7354815e-07 6.171578e-07 2.1411313e-06 1.7101723e-06 2.9909577e-06
1.8026487e-06 7.43835e-07 1.2222167e-06 1.961521e-06 1.0548682e-06 1.913133e-06 5.84355e-06 5.5957935e-06
7.746271e-07 4.2304995e-07 1.7826811e-07 2.192007e-07 3.310921e-08 2.8221598e-07 2.4294246e-07 1.5355766e-07
5.862145e-07 2.8620977e-07 3.7252363e-07 2.8310885e-06 1.7081314e-06 1.5826795e-07 5.7290623e-07 1.3146783e-06
4.884304e-07 1.5081432e-06 1.0730116e-06 3.871197e-07 1.355184e-06 5.428116e-06 1.7627203e-06 1.2980996e-06
8.927932e-07 2.3580883e-06 1.6404305e-06 2.0595862e-06 3.939958e-06 4.302533e-06 6.382566e-07 1.8800201e-06
8.238439e-07 3.6008015e-07 1.0269686e-06 2.398121e-07 5.892978e-07 1.1945059e-06 1.096243e-07 1.5779661e-06
00000000: 0363 3c35 35a7 c636 f800 3f36 ccd4 9834
00000010: 2819 5336 d73a 5035 bdce 5235 74c2 0d36
00000020: 6f8b 4e35 404c 1f36 bd82 a535 f364 a236
00000030: 853d bf35 e99c bb34 3eb3 ef35 a4f7 d635
00000040: fc0c 7636 0af3 9936 e6c3 8235 203f 0a37
00000050: 6c50 cb34 2548 6d34 4c45 3035 fb00 4434
00000060: 8448 7734 c855 fd35 05d0 c435 835b 6135
00000070: 8adb 7b35 fc2a e434 275a 7c36 90f1 ce36
00000080: 1cc4 6c36 b2e4 a635 1169 7636 bd8e 0a36
00000090: 5cd4 b335 5d43 2035 d1ce 7335 d955 9536
000000a0: f036 6434 a9c6 7f35 ba29 0f35 88d7 c534
000000b0: e649 8935 eb27 2335 c9e7 5935 affc 9734
000000c0: 3d1d ce34 30bd 1a34 9666 c035 de15 7635
000000d0: 6ceb 6f35 abb4 fe34 6f2c a135 bb59 5b34
000000e0: 076d 8035 c2d6 5e34 59d6 8a35 857c 7434
000000f0: 79e2 f734 3fa9 de35 a9c1 9835 50f6 1a34
00000100: 9f6f 8b36 c2df 2a36 a372 6936 8220 9635
00000110: 55fa cc35 8481 7e36 6a61 ac34 6752 9936
00000120: c503 4036 ed96 4436 47a2 d436 fce6 3135
00000130: 7a64 a636 2f2e 3c35 1e43 ad35 9037 3937
00000140: a8f0 3235 49dd 2337 3289 c935 b91a 0936
00000150: 2530 e634 20ed 1d36 4933 9436 b593 f335
00000160: 45fe 9e35 7e3c cb35 cf6c 9734 3fa8 a134
00000170: 96e7 bb34 4dc8 1934 c574 1134 e041 cd35
00000180: ac80 fe35 2992 8435 3435 6a34 c776 4636
00000190: d20f 3f34 a61e 8c36 f328 4136 b21b 2435
000001a0: 30d5 a236 da4f 8e36 77a3 1c36 6c60 5c36
000001b0: 492b a835 a2e9 b336 c321 9a35 828a 9437
000001c0: cb4c 3337 9a36 bc35 1d98 ad37 2890 1d37
000001d0: 0c42 6d36 7cee c936 c2e4 0036 c506 f437
000001e0: ad7c 8c36 6715 3e36 084e d636 42c3 1335
000001f0: 1374 5836 e64f c436 f598 6137 7081 4036
00000200: 39cc 1e34 cd04 9336 bb60 4536 41ef 9f36
00000210: f378 0a36 a273 7035 2270 3d36 6995 3336
00000220: a7c5 8636 3a96 e235 dc69 3c36 8c08 bd36
00000230: e9e1 c034 5d78 cb36 a2a6 2236 3fc6 6b36
00000240: f1f2 9735 9cf3 ad36 f03a 0837 d3a5 4f35
00000250: c3aa 2535 5bb0 0f36 1389 e535 43b8 4836
00000260: 8af2 f135 f4ab 4735 0c0b a435 ada2 0336
00000270: ff94 8d35 6063 0036 b613 c436 80c3 bb36
00000280: f8ef 4f35 8b1f e334 f769 3f34 6e5d 6b34
00000290: f633 0e33 7883 9734 c26d 8234 9ce1 2434
000002a0: 5b5c 1d35 5fa8 9934 42ff c734 bbfd 3d36
000002b0: f342 e535 5df0 2934 d1c9 1935 0174 b035
000002c0: ae1c 0335 686b ca35 6604 9035 54d5 cf34
000002d0: c5e3 b535 2923 b636 9c96 ec35 5d3a ae35
000002e0: 48a8 6f35 a63f 1e36 c32c dc35 6c37 0a36
000002f0: fb33 8436 7a5e 9036 a954 2b35 0055 fc35
00000300: 1f26 5d35 0a51 c134 5fd6 8935 86bf 8034
00000310: 3d30 1e35 e952 a035 996a eb33 81ca d335

exp_avg f4 [20]
8.6814805e-05 1.4541251e-05 -0.00095752045 -0.0022339297 -0.0013709223 0.002714059 0.0050988914 0.0011619912
0.0035055706 0.0018429682 0.003029607 0.0073406994 0.008497638 0.009738584 -0.004405475 0.006649395
0.0031518682 0.0020734177 -0.00088959787 0.0002287688
00000000: 5810 b638 33f6 7337 1c02 7bba 1f67 12bb
00000010: 85b0 b3ba 5bde 313b 9a14 a73b f44d 983a
00000020: b7bd 653b c08f f13a 5f8c 463b 408a f03b
00000030: ad39 0b3c 958e 1f3c ce5b 90bb 2be3 d93b
00000040: 938f 4e3b 2de2 073b e733 69ba a8e1 6f39

exp_avg_sq f4 [20]
1.4423695e-06 2.5214706e-06 1.0042392e-06 3.9575816e-06 1.3182428e-07 1.5840228e-06 2.3771156e-06 1.1602746e-06
1.6375528e-06 7.2154893e-07 1.598893e-06 4.6450114e-06 3.0318442e-06 1.1926952e-05 4.166359e-06 5.3009862e-06
8.5271506e-07 2.9824691e-06 5.540546e-07 4.853703e-07
00000000: 7097 c135 8936 2936 65c9 8635 5ecb 8436
00000010: 958b 0d34 9c9a d435 8986 1f36 bbba 9b35
00000020: e3c9 db35 77b0 4135 8c99 d635 58dc 9b36
00000030: b076 4b36 de19 4837 c0cc 8b36 20df b136
00000040: 22e6 6435 6e26 4836 58ba 1435 654a 0235

exp_avg f4 [5, 20]
0.0050638625 0.011262772 0.00081419037 -0.00056763925 0.006400797 0.002334742 0.028390106 0.010606357
0.015994804 0.0058873664 0.017242968 0.009122452 0.011893649 0.028863845 0.00500373 0.014418909
0.0031874184 0.0050702346 0.004180521 -0.0016407529 -0.007595836 -0.010760872 -0.011265896 0.0019069676
0.0028081995 -0.0014375545 -0.01137137 -0.009631411 -0.0011043454 -0.0014612242 -0.013020835 -0.008792791
-0.0010185381 -0.0146873705 -0.0041702394 -0.0014954711 0.0013113365 -0.0057746638 0.0011876002 0.00476282
0.017989803 -0.005442136 -0.0004538022 0.0040330146 -0.00066066 -0.012655838 -0.017878737 -0.010389563
-0.018422106 -0.0006516349 0.014292231 0.012183364 -0.011780892 -0.0006235281 -0.0076838555 0.0071727014
-0.0033901148 0.0030300634 -0.0041393833 0.0050070323 -0.00052970013 0.0017870587 -0.0010341795 -0.001529997
0.0050074295 -0.010097636 -0.0032625298 0.0015141038 -0.0052996697 0.0032150084 0.017219516 0.0060120393
-0.0032777584 0.004021503 0.0007822408 0.0034412222 0.00082140416 0.0015012331 0.00091406895 -0.0065092337
-0.0015914218 0.011872281 0.0066756057 0.004215944 0.0062761884 0.01704579 0.027881647 0.01331774
0.025321284 0.0014600697 0.009766431 0.00564502 0.016788283 0.0105032865 -0.00044668303 0.012215111
0.006313529 0.0017368324 0.0024307333 -0.000701798
00000000: c2ee a53b 7d87 383c 646f 553a a0cd 14ba
00000010: c7bd d13b 7902 193b 5e92 e83c 49c6 2d3c
00000020: 8907 833c cfea c03b 2041 8d3c 5676 153c
00000030: 94dd 423c df73 ec3c 54f6 a33b 4a3d 6c3c
00000040: 02e4 503b 3624 a63b c0fc 883b 880e d7ba
00000050: 7ee6 f8bb 5e4e 30bc 9894 38bc 37f3 f93a
00000060: c509 383b 536c bcba fc4e 3abc 11cd 1dbc
00000070: afbf 90ba 8c86 bfba 5755 55bc a30f 10bc
00000080: 7880 85ba 4ca3 70bc 81a6 88bb af03 c4ba
00000090: 27e1 ab3a 6439 bdbb 40a9 9b3a 6e11 9c3b
000000a0: 5a5f 933c f253 b2bb 4dec edb9 6127 843b
000000b0: 2430 2dba 6f5a 4fbc 6e76 92bc fc38 2abc
000000c0: f5e9 96bc 7ad2 2aba f629 6a3c bb9c 473c
000000d0: a404 41bc 4374 23ba dac8 fbbb fb08 eb3b
000000e0: b02c 5ebb 0794 463b aaa3 87bb 0812 a43b
000000f0: 93db 0aba bd3b ea3a 4e8d 87ba 2e8a c8ba
00000100: 5d15 a43b 8e70 25bc 2bd0 55bb e574 c63a
00000110: daa8 adbb e4b2 523b f10f 8d3c a400 c53b
00000120: a9cf 56bb d0c6 833b 4b0f 4d3a 2186 613b
00000130: 8053 573a 06c5 c43a 219e 6f3a 694b d5bb
00000140: 4197 d0ba f583 423c 0abf da3b e725 8a3b
00000150: 7ca8 cd3b 9da3 8b3c 0d68 e43c a632 5a3c
00000160: 956e cf3c cf5f bf3a 6103 203c dcf9 b83b
00000170: 9587 893c fa15 2c3c c830 eab9 e421 483c
00000180: b8e1 ce3b 6da6 e33a f04c 1f3b def8 37ba

exp_avg_sq f4 [5, 20]
5.0727494e-06 6.0916627e-06 1.3762653e-06 8.7191364e-07 3.698224e-06 9.83628e-07 4.0802028e-05 5.3875556e-06
1.2002246e-05 1.456879e-06 1.2831459e-05 9.752676e-06 6.681544e-06 3.5969948e-05 3.3991416e-06 9.779531e-06
8.049389e-07 1.1451795e-06 1.3715135e-06 5.991375e-07 3.2721869e-06 5.598399e-06 4.8421775e-06 5.4266684e-06
2.4502172e-06 1.4359466e-05 1.1780251e-05 5.7150714e-06 1.2098456e-05 1.4787959e-07 1.2968317e-05 3.2545427e-06
1.9430545e-06 1.8760002e-05 1.6097714e-06 3.683228e-06 3.8379567e-06 4.831167e-06 5.432889e-07 1.9209626e-06
1.6112856e-05 2.6822402e-06 3.8306698e-07 7.1853306e-06 3.2223966e-06 7.494864e-06 2.3417882e-05 1.4378814e-05
1.8495886e-05 4.9454246e-07 9.775131e-06 1.15239e-05 1.056148e-05 5.3151184e-06 4.58772e-06 1.2287064e-05
2.1355377e-06 6.9527044e-07 2.2988563e-06 4.9662854e-06 1.6423493e-05 9.4308525e-06 8.8466703e-07 6.1344786e-06
3.4825775e-06 3.2275053e-05 2.4504368e-05 3.484642e-06 4.2497162e-05 5.166825e-07 4.20394e-05 2.5392728e-05
6.560859e-06 1.7406584e-05 5.90161e-06 1.4459224e-05 3.058671e-06 1.7994084e-06 4.3824517e-07 3.570052e-06
3.1644167e-06 5.685292e-06 3.2651005e-06 8.532849e-07 4.2786173e-06 1.3869318e-05 3.4227316e-05 6.67682e-06
3.262378e-05 5.098635e-07 9.77119e-06 2.728049e-06 1.05624e-05 1.4207399e-05 1.8159594e-07 1.0571685e-05
2.4341327e-06 2.2886222e-06 1.0534794e-06 2.1209728e-06
00000000: 9636 aa36 fc66 cc36 1eb8 b835 730d 6a35
00000010: 012f 7836 3305 8435 d822 2b38 c0c6 b436
00000020: 415d 4937 fb89 c335 b246 5737 6d9f 2337
00000030: 0732 e036 70de 1638 cf1c 6436 c412 2437
00000040: fb12 5835 11b4 9935 d814 b835 6ad4 2035
00000050: be97 5b36 e2d9 bb36 fd79 a236 ba16 b636
00000060: 696e 2436 70e9 7037 cba3 4537 17c4 bf36
00000070: 79fa 4a37 d5c8 1e34 7f92 5937 9e68 5a36
00000080: 6c65 0236 cc5e 9d37 530f d835 602d 7736
00000090: ccc7 8036 691b a236 87d6 1135 e3e9 0036
000000a0: 182a 8737 8900 3436 53a8 cd34 8519 f136
000000b0: 5a40 5836 647c fb36 8571 c437 893c 7137
000000c0: 9d27 9b37 b3c0 0435 deff 2337 c656 4137
000000d0: 3631 3137 8558 b236 37f0 9936 8a24 4e37
000000e0: 4250 0f36 9fa2 3a35 0d46 1a36 11a4 a636
000000f0: 2fc5 8937 3439 1e37 db79 6d35 c5d6 cd36
00000100: 3ab6 6936 135f 0738 bb8e cd37 b2d9 6936
00000110: fb3e 3238 27b2 0a35 7653 3038 7802 d537
00000120: 5a25 dc36 5b04 9237 7206 c636 e595 7237
00000130: 9143 4d36 3483 f135 f547 eb34 0795 6f36
00000140: 445c 5436 49c4 be36 001e 5b36 4b0d 6535
00000150: 0b91 8f36 44b0 6837 4d8f 0f38 7209 e036
00000160: 84d5 0838 8edd 0835 f1ee 2337 8613 3736
00000170: 2a35 3137 505c 6e37 b6fc 4234 0b5d 3137
00000180: 155a 2336 3b96 1936 4765 8d35 0956 0e36

exp_avg f4 [5]
0.04902105 -0.015632223 -0.0012740693 0.006971313 0.029600384
00000000: 4cca 483d 260f 80bc acfe a6ba 9d6f e43b
00000010: 817c f23c

exp_avg_sq f4 [5]
0.00010320261 2.2412736e-05 4.2362088e-05 6.384965e-05 5.7816513e-05
00000000: 7b6e d838 fc02 bc37 f2ad 3138 05e7 8538
00000010: 0280 7238
