checkpoints/epoch=0-step=4-v2.ckpt (torch, 11504 bytes, 12 tensors)

network.0.weight f4 [20, 10]
0	0xbbe4b2ef	-0.0069793384
1	0x3df0f14f	0.11764776
2	0x3e3dca1c	0.1853413
3	0xbdc82067	-0.09771805
4	0xbe9e2208	-0.3088534
5	0x3e879562	0.26481158
6	0xbe93d776	-0.2887532
7	0xbe8ffc9d	-0.28122416
8	0x3bf58ac6	0.0074933497
9	0x3e8d8066	0.27637023
10	0xbe51e503	-0.20497517
11	0x3dbe7a55	0.09300677
12	0xbddbeebb	-0.107388936
13	0xbd67a893	-0.05655725
14	0xbe8ecf87	-0.27892706
15	0x3e2521a9	0.16126122
16	0x3e5bbbca	0.21458355
17	0x3dfe4c78	0.12416929
18	0xbe48f8f3	-0.19626217
19	0xbe7aff51	-0.24511458
20	0xbd5f3c49	-0.05450085
21	0xbe9d2704	-0.3069383
22	0x3e4bf779	0.19918622
23	0xbd867800	-0.06565857
24	0xbab1bc56	-0.0013560157
25	0x3e875fe4	0.26440346
26	0x3db6d3f8	0.089271486
27	0x3d8c6453	0.06855073
28	0x3da2ef39	0.07955784
29	0xbe43d921	-0.19125797
30	0xbd3bda43	-0.045862447
31	0xbd727fc6	-0.059203885
32	0x3e696d89	0.2279569
33	0xbe8ea329	-0.27858856
34	0xbe73a1a8	-0.23792136
35	0x3e0929ad	0.13394804
36	0xbe8a17be	-0.2697124
37	0x3c8f27dc	0.017475061
38	0x3b3a4109	0.0028420112
39	0x3e17fa6d	0.14841624
40	0x3e6ed5d3	0.23323755
41	0x3dab9210	0.083774686
42	0x3e9646a6	0.29350775
43	0xbd53a72b	-0.051673096
44	0xbe7b90e7	-0.24566995
45	0x3e1877b0	0.14889407
46	0x3da5469d	0.08070109
47	0xbe6e44b3	-0.23268394
48	0xbe2fcd50	-0.17168164
49	0xbd54098f	-0.05176693
50	0x3c24f0de	0.010067193
51	0x3e6057f8	0.21908557
52	0x3e8b6b6a	0.27230388
53	0x3e8a5829	0.27020386
54	0x3d7df253	0.061998677
55	0x3d5d60ba	0.054047324
56	0x3e22882d	0.1587226
57	0x3e691fe1	0.22766067
58	0x3e9f98e8	0.31171346
59	0xbde8667f	-0.113476746
60	0x3e030434	0.12794572
61	0xbe90808e	-0.2822308
62	0xbe8ac31c	-0.27101982
63	0xbbbaf7ad	-0.005705795
64	0xbe606cbf	-0.21916483
65	0xbcbf4b03	-0.023351198
66	0xbe6b9322	-0.23005345
67	0xbe4164de	-0.18886134
68	0x3d54844c	0.05188398
69	0xbe65db04	-0.22446829
70	0x3c8d9cf0	0.017286748
71	0xbe34c6b6	-0.17653927
72	0xbdfab0c2	-0.12240745
73	0xbe6f728b	-0.23383538
74	0xbe400e67	-0.18755494
75	0xbe4b92bf	-0.19880198
76	0xbe0e97ca	-0.1392509
77	0xbd7824d1	-0.060581986
78	0x3c359677	0.011083237
79	0xbd481672	-0.04884953
80	0xbe4004e7	-0.1875187
81	0x3e883f31	0.2661071
82	0x3e75d7f9	0.24008168
83	0x3e79cdcb	0.2439491
84	0x3a3063dc	0.00067287474
85	0xbe8f510b	-0.27991518
86	0x3e85d854	0.26141608
87	0x3e5e3e6e	0.21703503
88	0x3c4e55c2	0.012593688
89	0xbe13c885	-0.14431961
90	0xbe5ac270	-0.21363235
91	0xbe06d5ae	-0.1316745
92	0x3e93b0b7	0.2884576
93	0x3df30f1b	0.118681155
94	0xbe43c169	-0.19116749
95	0x3c286f8a	0.010280499
96	0xbe24146a	-0.16023412
97	0x3e68bb41	0.22727682
98	0xbce89f90	-0.028396398
99	0x3e12d3db	0.14338629
100	0xbe2cd52c	-0.16878194
101	0x3e0f71c3	0.1400824
102	0xbe8803a9	-0.26565292
103	0x3e8ba6b5	0.27275625
104	0x3e1ee92d	0.15518637
105	0x3d43f981	0.047845367
106	0x3c46e3bd	0.012139258
107	0x3bee4110	0.0072709396
108	0x3ca9ad09	0.020712392
109	0x3e684f8e	0.22686598
110	0xbe754447	-0.23951827
111	0x3e9a3bca	0.3012374
112	0xbe66349e	-0.2248101
113	0xbe8ecf15	-0.27892366
114	0x3d807548	0.062723696
115	0x3e9aa53c	0.3020419
116	0x3de254cb	0.11051329
117	0x3d85e777	0.06538289
118	0x3e13836f	0.14405607
119	0xbc4df37e	-0.01257026
120	0xbd0fc4f8	-0.035099953
121	0x3e67925b	0.22614424
122	0x3e2ed8f0	0.17074943
123	0xbe23fe7e	-0.1601505
124	0x3e06cd8c	0.13164347
125	0xbe360f48	-0.17779267
126	0x3e9d3a9e	0.30708784
127	0xbe5db2eb	-0.21650283
128	0x3e8f6bbe	0.28011888
129	0xbe749ed2	-0.2388871
130	0x3e0d150f	0.13777564
131	0x3e9f1f2a	0.31078464
132	0xbe952d73	-0.29136238
133	0xbe9f31d7	-0.31092712
134	0x3e954571	0.29154542
135	0xbe3c2122	-0.18372014
136	0xbe426884	-0.18985182
137	0x3df16d05	0.11788372
138	0x3de0a842	0.10969593
139	0x3e99cf76	0.30041093
140	0xbe93a174	-0.28834116
141	0x3dab6d2c	0.08370432
142	0xbb8816d6	-0.004153113
143	0x3e38830a	0.18018737
144	0x3e8fd580	0.28092575
145	0x3e463829	0.19357361
146	0xbe91fdcf	-0.28513953
147	0x3e58128a	0.21100822
148	0xbdde5707	-0.10856443
149	0x3d7d5490	0.061848223
150	0xbd19a62d	-0.037511993
151	0x3c3c3af5	0.011488666
152	0x3e15e6b3	0.14638786
153	0xbe330b2e	-0.17484733
154	0xbe9b559a	-0.30338746
155	0xbd86517c	-0.06558511
156	0x3e74a390	0.23890519
157	0x3d165f00	0.036711693
158	0xbe927e54	-0.28612006
159	0xbd54d0aa	-0.05195681
160	0xbe72b630	-0.23702312
161	0xbd93a26e	-0.072087154
162	0xbe9d4998	-0.3072021
163	0x3e8cdaf9	0.27510813
164	0xbcd9d05e	-0.026588615
165	0x3e995f15	0.29955354
166	0x3d8cd249	0.06876046
167	0x3cbf30b8	0.02333866
168	0xbe89eb6c	-0.26937425
169	0xbe0875fa	-0.13326254
170	0x3e7662e0	0.24061155
171	0xbe8c251a	-0.27372056
172	0x3e87f2d1	0.26552442
173	0xbe9e3cab	-0.3090566
174	0x3e1335f4	0.1437605
175	0x3e0de4db	0.13856833
176	0x3d09bb6e	0.033626013
177	0x3e95d412	0.2926336
178	0x3e3d3c8b	0.18480127
179	0xbbe317f8	-0.0069303475
180	0x3e905e82	0.28197104
181	0xbe4b3a70	-0.19846511
182	0xbd9775dd	-0.073955275
183	0x3d2df4b4	0.042469695
184	0xbe7a3727	-0.24435101
185	0xbd0659b1	-0.03280038
186	0xbe95519e	-0.2916383
187	0xbcd74157	-0.026276274
188	0xbdf7d78e	-0.12101661
189	0xbe761b16	-0.2403377
190	0xbd62450c	-0.05524163
191	0x3dc6d6d7	0.09708946
192	0xbcbdb4ba	-0.023157466
193	0xbe0e37fc	-0.13888544
194	0x3d6124a3	0.05496658
195	0xbe6a1a2b	-0.22861545
196	0x3e040633	0.1289299
197	0x3e9ce0a1	0.30640128
198	0x3e9ebced	0.31003514
199	0xbe55653f	-0.20839404

network.0.bias f4 [20]
0	0x3e0e6a8a	0.13907829
1	0x3e3e5617	0.18587528
2	0xbd8280a1	-0.0637219
3	0x3e6f0970	0.23343444
4	0x3d4d38ea	0.050103106
5	0xbe7d952b	-0.24763934
6	0x3e04a39d	0.12953039
7	0xbe84e15a	-0.2595318
8	0x3e2104de	0.15724513
9	0xbd29de5b	-0.04147182
10	0x3e1d2312	0.1534541
11	0x3d4d2e30	0.050092876
12	0xbdf7d7ee	-0.12101732
13	0xbe7a1235	-0.24421008
14	0xbd0ab785	-0.033866424
15	0xbd7c440e	-0.06158834
16	0xbdd9b142	-0.10629512
17	0x3e155f02	0.14587024
18	0xbdcaad44	-0.09896329
19	0x3dab9d7f	0.08379649

network.2.weight f4 [5, 20]
0	0xbd19aecf	-0.037520226
1	0xbdc86f6c	-0.09786877
2	0xbd8eff15	-0.06982247
3	0xbe2205a8	-0.1582247
4	0x3d2e6aa7	0.04258218
5	0x3da61199	0.08108825
6	0x3db448b1	0.08802927
7	0x3e5184a5	0.20460756
8	0xbe3736eb	-0.17892043
9	0xbd92c897	-0.07167166
10	0x3de73637	0.112896375
11	0xbd90ac4f	-0.07064115
12	0x3e0a0eaf	0.13482164
13	0x3dfc67a0	0.123244524
14	0xbe5e240d	-0.2169344
15	0x3e27fb38	0.16404426
16	0xbe13684e	-0.14395258
17	0x3e4bfca8	0.199206
18	0xbe066bd4	-0.1312707
19	0x3da1a3bb	0.07892557
20	0x3e44f691	0.19234683
21	0x3dcc17ba	0.09965463
22	0x3e5bb38d	0.21455212
23	0xbe51a20b	-0.2047197
24	0xbe4af417	-0.19819675
25	0x3e0987f1	0.13430764
26	0x3e00ca55	0.12577184
27	0xbd218ad8	-0.039439052
28	0xbc3c7205	-0.011501794
29	0x3e35c48f	0.17750762
30	0xbdb3fc33	-0.087883376
31	0xbc1f84f6	-0.00973629
32	0x3e0803a0	0.13282633
33	0x3db3e6de	0.08784269
34	0x3d80da71	0.062916644
35	0xbe19865e	-0.14992663
36	0x3dd5eb09	0.1044522
37	0xbdb79f80	-0.08965969
38	0xbe2db259	-0.16962565
39	0xbd72f307	-0.0593138
40	0xbd4f09f1	-0.05054659
41	0x3e4494a2	0.19197324
42	0xbe61f77b	-0.22067063
43	0xbddf293b	-0.10896536
44	0xbd4c3f79	-0.04986522
45	0xbe40ec47	-0.18840133
46	0xbdd8ed0a	-0.105920866
47	0x3da94121	0.082643755
48	0x3dbd4610	0.09241879
49	0xbe463403	-0.19355778
50	0xbdacdde1	-0.084407575
51	0xbe2e7966	-0.17038497
52	0xbd7fa9aa	-0.062417664
53	0x3deff921	0.117174394
54	0xbd8e6df5	-0.069545664
55	0xbd6c7232	-0.057726093
56	0x3c3c4bb5	0.011492659
57	0x3c616c31	0.013758705
58	0x3e1a99e2	0.15097764
59	0xbdfc01a7	-0.12305003
60	0x3e52b60f	0.20577262
61	0x3b5053eb	0.00317883
62	0x3e292a7d	0.16520114
63	0xbe5ff19c	-0.2186951
64	0xbda75e64	-0.081723005
65	0x3d3c6e5c	0.046003684
66	0xbe4d94ca	-0.2007629
67	0x3e2a409c	0.16626209
68	0xbd96ecfc	-0.0736942
69	0xbdca8f82	-0.09890653
70	0xbcaec58d	-0.021334434
71	0xbc552883	-0.013010147
72	0x3e27e041	0.1639414
73	0x3dbd35e7	0.09238797
74	0x3d4756dd	0.048666824
75	0x3e18f964	0.14938885
76	0xbdf16c8a	-0.1178828
77	0x3e3fdab7	0.18735777
78	0x3e4f557c	0.20247453
79	0xbe0ac9cc	-0.13553542
80	0x3dab5bc2	0.08367111
81	0x3e515739	0.20443429
82	0xbc11b3d8	-0.008892976
83	0x3e3b5243	0.18293099
84	0xbe37dba7	-0.17954884
85	0xbe4e1bf0	-0.20127845
86	0xbcb810cc	-0.022468947
87	0x3e571d21	0.21007206
88	0xbb8edaf1	-0.004359596
89	0x3daae146	0.08343749
90	0xbe25517d	-0.16144367
91	0x3e49883e	0.19680879
92	0xbdf46302	-0.11932947
93	0xbdee8f03	-0.11648371
94	0xbe4c5d5e	-0.19957492
95	0xbc49abd8	-0.012309037
96	0x3dbae56d	0.09125791
97	0x3e2883d9	0.16456546
98	0xbde085c2	-0.10963012
99	0x3d1b850c	0.03796868

network.2.bias f4 [5]
0	0x3e601879	0.21884336
1	0x3e3d9ba1	0.18516399
2	0x3d1b1f25	0.0378715
3	0x3d5440c7	0.05181959
4	0x3d8fc0c1	0.07019187

exp_avg f4 [20, 10]
0	0x3b9e9fa8	0.00484081
1	0x3b71f688	0.0036920626
2	0x3b618ee7	0.0034417452
3	0xbb1b60ee	-0.0023708898
4	0xbb314ae4	-0.0027052695
5	0xbacc1618	-0.0015570549
6	0xbb5e631f	-0.0033933592
7	0xbb1e9170	-0.0024195574
8	0xbb17965e	-0.0023130397
9	0xbb1d2e34	-0.0023983838
10	0x3a2d5a9b	0.00066129275
11	0x3ba4eaed	0.005032888
12	0x3be467ec	0.0069703963
13	0x3abcbb7e	0.0014399139
14	0xb9f265b2	-0.00046233606
15	0xbb3eea50	-0.002913136
16	0x3c26d2b3	0.010182071
17	0x3bc482af	0.005997024
18	0xbc2a6ebf	-0.0104023805
19	0x3bb0eee2	0.005399571
20	0xbb064728	-0.002048919
21	0xbbea10c0	-0.00714311
22	0x3884656b	6.313141e-05
23	0x3beb8d54	0.0071884785
24	0xbc104367	-0.0088051325
25	0x3bde8b72	0.0067915255
26	0xb9547881	-0.00020262787
27	0xb9ab8bbf	-0.0003271978
28	0x3aae397b	0.0013292277
29	0xbbde7eca	-0.006790017
30	0x3a6d29e2	0.00090470735
31	0x3b0cb2c4	0.0021468857
32	0xbb68dbb1	-0.0035531337
33	0x3bf64781	0.007515848
34	0xbadd6d01	-0.0016893448
35	0xbb1195cf	-0.0022214537
36	0xbaea906f	-0.0017895828
37	0xbc0ce427	-0.008599318
38	0x3b42f32e	0.0029746997
39	0xba9330aa	-0.0011229713
40	0xbbc71a32	-0.006076121
41	0xbb6b7ca2	-0.0035932441
42	0xbb459d93	-0.0030153736
43	0xbb66b8de	-0.0035205404
44	0x3aaa4bf6	0.0012992609
45	0x3b1f7384	0.0024330327
46	0x3b00e856	0.0019669733
47	0x3b362332	0.0027791974
48	0x3bd3958e	0.0064570373
49	0xba885df3	-0.0010403976
50	0x3bdf6210	0.00681711
51	0x3b877022	0.0041332403
52	0xbbd09e15	-0.006366501
53	0x3c051b6a	0.008124212
54	0x3b1f3d47	0.0024297999
55	0xbbf60542	-0.007507951
56	0x3b4e2b64	0.0031458968
57	0xbb467fa1	-0.0030288475
58	0x3bb95fb3	0.00565716
59	0xbb9d6003	-0.0048027053
60	0x3a8abc5c	0.00105847
61	0x3c077c94	0.008269448
62	0xbbdccc85	-0.006738248
63	0x3afa5b3f	0.001910068
64	0xbb6d3f9a	-0.003620124
65	0xbc664acf	-0.014055922
66	0xbbb47ec1	-0.0055082743
67	0x3b41a4f2	0.0029547778
68	0x3b63720e	0.0034705433
69	0xbc1c69b0	-0.009546682
70	0x3b7431d5	0.0037261148
71	0xbb5d1325	-0.0033733335
72	0x3b652495	0.0034964432
73	0xbb688562	-0.0035479893
74	0xbb3c359e	-0.0028718482
75	0xb9bc8c39	-0.00035962628
76	0x3a887073	0.0010409489
77	0x3a3939c5	0.0007065798
78	0x3a6b3e35	0.0008973808
79	0xbb35738a	-0.0027687275
80	0xbac0eebb	-0.0014719585
81	0xbbd9e982	-0.0066501508
82	0x3af7562b	0.0018870285
83	0x3b0355e6	0.0020040213
84	0xbabd248e	-0.001443045
85	0x3ba34f88	0.004983846
86	0x3bd9076b	0.0066231987
87	0xba9111f0	-0.0011067968
88	0xbc01fe4f	-0.007934167
89	0x3bb7a24a	0.005604063
90	0xbb000421	-0.001953371
91	0x3a671c51	0.000881617
92	0x3a58ede7	0.00082751963
93	0x3a70cc27	0.00091856945
94	0xbbc965ed	-0.0061461837
95	0xba615727	-0.00085960556
96	0xbaf39c35	-0.0018585982
97	0x3b32e83b	0.0027299065
98	0x3af3314a	0.0018554118
99	0x39e2f8d2	0.00043291465
100	0x39431ed8	0.0001860814
101	0xbb07cda0	-0.0020721927
102	0xbbba22fb	-0.0056804395
103	0x3b66a388	0.0035192687
104	0xbac0cf95	-0.0014710302
105	0xbadf54ce	-0.0017038824
106	0xbbc530b3	-0.0060177683
107	0xbb601170	-0.003419008
108	0x3c1d8e3b	0.00961643
109	0x3a36ccfd	0.00069732947
110	0x38a4aef2	7.8527155e-05
111	0x398df01e	0.00027072517
112	0x3b0a8b45	0.002114014
113	0x3baeb887	0.005332056
114	0xbbe25a03	-0.006907703
115	0x3bb631b2	0.0055601234
116	0xbb6f7687	-0.0036539154
117	0xbafae5ab	-0.0019141933
118	0x3be207ad	0.0068978877
119	0xbb1cc4f2	-0.00239211
120	0x3b63c6bb	0.0034755904
121	0x3b52e0af	0.003217738
122	0xba716a5a	-0.0009209268
123	0x3b058f6a	0.002037967
124	0x3b96b86f	0.004599623
125	0xbb19c1c4	-0.002346144
126	0x3b864622	0.004097716
127	0x39bdb9fd	0.0003618746
128	0xb85523b0	-5.0816394e-05
129	0xbb8a303d	-0.004217176
130	0xbafbd1e3	-0.0019212331
131	0x3b857616	0.004072915
132	0x3b7c63a8	0.0038511548
133	0xbc161237	-0.009159616
134	0x3bb8ce55	0.005639831
135	0xbb108dc4	-0.0022057155
136	0x3b28c26c	0.002575065
137	0x3bcbdb34	0.0062211994
138	0xbb8e257a	-0.0043379636
139	0x3b5c63ee	0.0033628899
140	0xbb257e7d	-0.0025252395
141	0xbaf39cf1	-0.0018586201
142	0xbbff233e	-0.0077861836
143	0x3b27509d	0.0025530227
144	0xbaf70f61	-0.0018849188
145	0xbb43393b	-0.002978875
146	0x3a60e19b	0.000857854
147	0xbaef6ac0	-0.0018266067
148	0xbb4e1aa2	-0.003144898
149	0x3ab04a93	0.0013449959
150	0x3a26e548	0.0006366563
151	0x39dbce3c	0.00041924592
152	0xbb151b14	-0.0022751736
153	0xbbfba9cd	-0.007680154
154	0x3ba24c0b	0.0049529127
155	0x3b4f48a0	0.0031628981
156	0x3b9aa668	0.004719544
157	0x3a2ae342	0.00065188494
158	0x3b997529	0.004683156
159	0xbb0b3ba0	-0.0021245256
160	0xbb88a6f2	-0.004170292
161	0x3bd4eea2	0.006498174
162	0x3be9a4a8	0.0071302243
163	0xba87137f	-0.0010305493
164	0x38beb61c	9.0938265e-05
165	0xba96aacf	-0.0011494997
166	0x3907bc52	0.00012944758
167	0x3b46a060	0.0030307993
168	0xbbc62201	-0.006046534
169	0x3a75e33b	0.0009379868
170	0x3b8102c1	0.003937096
171	0xbb470b50	-0.0030371733
172	0x38ae9ecc	8.326545e-05
173	0xbc4c10a2	-0.012455137
174	0x3bec9a64	0.0072205532
175	0xbaaeb614	-0.001332941
176	0x3bc9c84b	0.00615791
177	0x3c16c19b	0.009201433
178	0x3b896bfa	0.00419378
179	0xba380636	-0.00070199685
180	0xbba8b466	-0.0051484583
181	0xbb85f272	-0.0040877396
182	0x3c007bdc	0.00784203
183	0xbb07f31e	-0.0020744274
184	0x3bbe18b5	0.005801285
185	0x3c89ee87	0.016837372
186	0x3ba9c2cb	0.005180692
187	0xbbd6b184	-0.006551923
188	0xbbc0bf24	-0.0058821607
189	0x3c0ca58c	0.008584391
190	0x3b8ffff4	0.0043945257
191	0x3a4a0f5e	0.00077079784
192	0xbb15db85	-0.002286644
193	0x39d7a6f9	0.000411324
194	0xba9482d7	-0.0011330497
195	0xbb0653b0	-0.002049666
196	0xbb59d894	-0.0033240663
197	0xbb3c447f	-0.002872735
198	0x3bff1fb9	0.007785764
199	0xbbba7537	-0.0056902426

exp_avg_sq f4 [20, 10]
0	0x35c04f0d	1.4328122e-06
1	0x369f9b0d	4.7566195e-06
2	0x3525c3c7	6.1752183e-07
3	0x3465929c	2.1380623e-07
4	0x3555d5e9	7.9659964e-07
5	0x34e4e966	4.263813e-07
6	0x363a6972	2.7777537e-06
7	0x3533200e	6.672934e-07
8	0x35ef51b2	1.7830664e-06
9	0x35c74bf3	1.484876e-06
10	0x35c7df64	1.4891671e-06
11	0x36bc3170	5.608592e-06
12	0x360edaed	2.128708e-06
13	0x36e4bd2a	6.816951e-06
14	0x34900eed	2.683295e-07
15	0x3650c328	3.1108011e-06
16	0x36cb84c9	6.0653297e-06
17	0x3651b5fd	3.1249358e-06
18	0x3738052b	1.0968458e-05
19	0x369e4e61	4.7178914e-06
20	0x36815e32	3.8554654e-06
21	0x369d0e1b	4.6806067e-06
22	0x35f1f93f	1.8028439e-06
23	0x37122217	8.710215e-06
24	0x370dc485	8.450011e-06
25	0x367da1fe	3.779423e-06
26	0x364f634e	3.0903207e-06
27	0x349f22ee	2.9641473e-07
28	0x361343dd	2.1944209e-06
29	0x362b54d9	2.5530373e-06
30	0x36826032	3.8855005e-06
31	0x36a13142	4.8039083e-06
32	0x35fa596e	1.8652479e-06
33	0x370d9622	8.43921e-06
34	0x35834ee1	9.783217e-07
35	0x366ecbda	3.558342e-06
36	0x36434406	2.909686e-06
37	0x36aed868	5.210797e-06
38	0x36a6c175	4.969707e-06
39	0x36d9f06b	6.4950923e-06
40	0x364c44bd	3.043838e-06
41	0x36a59ce5	4.935648e-06
42	0x355ae1fc	8.154018e-07
43	0x357854b1	9.251044e-07
44	0x3544a827	7.3260384e-07
45	0x3593571c	1.0977706e-06
46	0x3613dce1	2.2033275e-06
47	0x353ae7b2	6.962756e-07
48	0x368c90b4	4.189171e-06
49	0x34cc78f5	3.808597e-07
50	0x35ff589d	1.902477e-06
51	0x35a2a11d	1.2116831e-06
52	0x368a59b0	4.1231615e-06
53	0x36950be4	4.4419303e-06
54	0x36487d4d	2.9875257e-06
55	0x368cf0bc	4.2003503e-06
56	0x361392ec	2.1990227e-06
57	0x34bdd3a2	3.5357976e-07
58	0x362666b2	2.4795704e-06
59	0x35a39dfc	1.2190426e-06
60	0x34d8f443	4.041086e-07
61	0x36e19812	6.723226e-06
62	0x36c1a45b	5.7709817e-06
63	0x34185497	1.4186877e-07
64	0x35970bf5	1.1253857e-06
65	0x3701140b	7.693666e-06
66	0x35b50b09	1.3488763e-06
67	0x356c1478	8.7946637e-07
68	0x358baef3	1.0407224e-06
69	0x372d5586	1.0331516e-05
70	0x3693b639	4.402155e-06
71	0x3646fd48	2.9651728e-06
72	0x3693274e	4.385517e-06
73	0x35c5abaf	1.472761e-06
74	0x34f08ce3	4.4805992e-07
75	0x35f3dcdd	1.816919e-06
76	0x350779bd	5.046857e-07
77	0x3424d99e	1.5352859e-07
78	0x349034b0	2.6860425e-07
79	0x3586b329	1.003592e-06
80	0x366b68b6	3.5078679e-06
81	0x3621e770	2.4125584e-06
82	0x359c2360	1.1633201e-06
83	0x3667dbec	3.4549694e-06
84	0x3555314b	7.9420414e-07
85	0x368572d5	3.977077e-06
86	0x36a6f201	4.9753585e-06
87	0x34f03ed1	4.4749189e-07
88	0x369b7aa8	4.633639e-06
89	0x3661c0a9	3.3639756e-06
90	0x3591a198	1.0850372e-06
91	0x365d5de0	3.2986209e-06
92	0x3579985b	9.2981435e-07
93	0x3658d788	3.2311964e-06
94	0x361f4740	2.373432e-06
95	0x357303e0	9.0530193e-07
96	0x3523a3d2	6.096062e-07
97	0x364a4dc2	3.0145607e-06
98	0x3647a6fe	2.9750513e-06
99	0x352c1a60	6.4113374e-07
100	0x358200e4	9.686014e-07
101	0x353d3a59	7.0492894e-07
102	0x35a41314	1.2224505e-06
103	0x36c0c06d	5.744447e-06
104	0x34f63bcd	4.5864581e-07
105	0x35e081b8	1.6727054e-06
106	0x35c20c25	1.4457661e-06
107	0x35883094	1.0146928e-06
108	0x37196a6c	9.144289e-06
109	0x3524a0d4	6.1328797e-07
110	0x35f636f3	1.8344421e-06
111	0x35bd053c	1.4083121e-06
112	0x358637f9	1.0000068e-06
113	0x3665f20d	3.4264551e-06
114	0x35fe426a	1.8943804e-06
115	0x362a3a71	2.5365991e-06
116	0x35974a70	1.1272041e-06
117	0x36050c3b	1.9825663e-06
118	0x3645a2fd	2.945016e-06
119	0x3526ac51	6.209057e-07
120	0x357bf89d	9.3866566e-07
121	0x34c96f87	3.7520314e-07
122	0x35cbdfbb	1.5189793e-06
123	0x35807c3c	9.5729e-07
124	0x35c6c334	1.4808961e-06
125	0x35eb6868	1.7539251e-06
126	0x369539eb	4.4472886e-06
127	0x351fd90c	5.954796e-07
128	0x35af82c4	1.3076574e-06
129	0x35a55633	1.2318545e-06
130	0x345b6cf7	2.0435606e-07
131	0x359cdcda	1.1687182e-06
132	0x358fc654	1.0712051e-06
133	0x369d8632	4.694587e-06
134	0x36007507	1.9141605e-06
135	0x356e308e	8.8732565e-07
136	0x35a3c347	1.220128e-06
137	0x35ee1a5d	1.7740055e-06
138	0x35631120	8.458901e-07
139	0x35c0a3a1	1.4352737e-06
140	0x357602fc	9.1646484e-07
141	0x35ded921	1.6603482e-06
142	0x370126f3	7.698068e-06
143	0x3532ad2e	6.6562177e-07
144	0x35bc6c35	1.4038584e-06
145	0x3636a788	2.721763e-06
146	0x353d89b6	7.060838e-07
147	0x34505aac	1.9404496e-07
148	0x35759ec9	9.1500675e-07
149	0x34767a6d	2.2955074e-07
150	0x35c6a5ba	1.4800382e-06
151	0x34df2a68	4.1567841e-07
152	0x3620117c	2.3852035e-06
153	0x3690971d	4.3091263e-06
154	0x357de6ff	9.458599e-07
155	0x35e8e970	1.7353286e-06
156	0x35f59b2f	1.8299087e-06
157	0x35c3ad9e	1.4579161e-06
158	0x36d22914	6.26327e-06
159	0x34d7c9ef	4.0193797e-07
160	0x361dcfd9	2.3515806e-06
161	0x365d6ed8	3.2996086e-06
162	0x36137ceb	2.1977419e-06
163	0x368b4d25	4.1515036e-06
164	0x34b98033	3.4552212e-07
165	0x34fd7da6	4.7216344e-07
166	0x34e36272	4.2353673e-07
167	0x36327921	2.6594573e-06
168	0x36bc0711	5.6036592e-06
169	0x3356102d	4.984047e-08
170	0x363635df	2.715147e-06
171	0x372f3ba8	1.0444703e-05
172	0x369371c7	4.394187e-06
173	0x375002b2	1.2398394e-05
174	0x36877129	4.036487e-06
175	0x35ccdd18	1.5263531e-06
176	0x35b363b9	1.3365562e-06
177	0x36b2dc9d	5.330496e-06
178	0x36bbec38	5.6005338e-06
179	0x342a582a	1.5864558e-07
180	0x369f38c7	4.745179e-06
181	0x36880320	4.0534796e-06
182	0x3722f02c	9.711872e-06
183	0x356e3e25	8.875234e-07
184	0x35da9ab1	1.6287287e-06
185	0x374cc369	1.2204845e-05
186	0x35b01e95	1.3121922e-06
187	0x361c05c5	2.324917e-06
188	0x36824dee	3.883374e-06
189	0x375ae40b	1.3046908e-05
190	0x35baf53b	1.3929451e-06
191	0x3543d9aa	7.2959904e-07
192	0x354dac9a	7.661962e-07
193	0x354205d7	7.227913e-07
194	0x34f2bbd8	4.5212687e-07
195	0x3585463e	9.929715e-07
196	0x35df7e94	1.6651634e-06
197	0x34f7d18a	4.6159795e-07
198	0x3648c41d	2.9916475e-06
199	0x36445868	2.9257735e-06

exp_avg f4 [20]
0	0x3bd9e51a	0.0066496255
1	0x3a5ce2bf	0.0008426122
2	0x3b89a249	0.004200254
3	0xbc1ad56a	-0.009450296
4	0xbba71fed	-0.0051002414
5	0x3c0829ee	0.008310778
6	0x3bd0649f	0.006359651
7	0x3ba5a786	0.0050553707
8	0xbbd634f0	-0.0065370724
9	0x3a39f6a9	0.0007093945
10	0xba07ac5c	-0.0005175525
11	0xb92d03a2	-0.00016499919
12	0x3bf2a3dd	0.007404788
13	0x3bc35a6e	0.005961708
14	0xb9e5faac	-0.0004386505
15	0x39fda260	0.000483769
16	0xbb737e02	-0.0037153964
17	0x3c5f8193	0.013641733
18	0xbc36dc27	-0.011160887
19	0x3b542061	0.0032367932

exp_avg_sq f4 [20]
0	0x3604faea	1.9815584e-06
1	0x36134c5a	2.194915e-06
2	0x369ce0ee	4.6753476e-06
3	0x367ced88	3.7689188e-06
4	0x36408a3c	2.8690692e-06
5	0x36a53a6a	4.9241835e-06
6	0x363ec785	2.8428342e-06
7	0x361d38bd	2.342785e-06
8	0x3680018a	3.8148764e-06
9	0x36247946	2.4508495e-06
10	0x364655b3	2.9554183e-06
11	0x35b27d06	1.329842e-06
12	0x365ca9b4	3.2881335e-06
13	0x3606608b	2.0023751e-06
14	0x3516584f	5.600786e-07
15	0x35e6785f	1.7171368e-06
16	0x364fb8b5	3.0952917e-06
17	0x3772e281	1.4477061e-05
18	0x37016558	7.712595e-06
19	0x35a4ff48	1.2293249e-06

exp_avg f4 [5, 20]
0	0x3c39f16f	0.011349066
1	0x3c00d69a	0.007863665
2	0x3c10fea4	0.008849774
3	0x3cbec933	0.023289299
4	0xbb05dc00	-0.002042532
5	0x3affffe9	0.0019531223
6	0x3cd9d31b	0.02658992
7	0x3bab18f6	0.0052214814
8	0x3c130a87	0.008974678
9	0x3c06b1e1	0.008221121
10	0x3bddc08e	0.006767339
11	0x3c9a8eb3	0.018866872
12	0x3caff075	0.021476964
13	0x3cd876e6	0.026423883
14	0x3b9de103	0.0048180833
15	0x3c41b554	0.011823017
16	0x3b000b9e	0.0019538174
17	0x3d27e6bd	0.040991534
18	0x3c5dc3c5	0.013535445
19	0x3cdb80f7	0.026794894
20	0x3c0c368e	0.008557929
21	0x3c8f8be1	0.017522754
22	0x3bb6de5f	0.005580708
23	0x3c433570	0.011914596
24	0x3c1b1d4e	0.009467436
25	0x3bd6a581	0.0065504913
26	0x3ca62641	0.020281913
27	0x3bfa7fb7	0.0076446193
28	0x3cc07a74	0.02349589
29	0x3c2e0004	0.010620121
30	0x3c2912eb	0.010319452
31	0x3c01f16d	0.007931096
32	0x3bb315b2	0.0054652328
33	0x3c039b62	0.008032652
34	0x3c1578a3	0.009123
35	0x3c0f7d82	0.008757951
36	0x3ba5ec93	0.0050636022
37	0xb9cddca4	-0.00039265037
38	0x3c47365d	0.012158957
39	0x3c9f29f8	0.019429192
40	0xbc6b925e	-0.014378158
41	0x3b74fd5f	0.0037382466
42	0xbc2f95ac	-0.010716837
43	0xbc5310a9	-0.01288239
44	0xbb0559fd	-0.0020347827
45	0xbc0b3083	-0.008495453
46	0xbce3361e	-0.027735766
47	0xbbae0903	-0.005311133
48	0xbabeeb82	-0.0014566036
49	0xbb9c2444	-0.0047650654
50	0xbc5a8ee0	-0.013339728
51	0xbb8af35f	-0.004240438
52	0xbbd6f5b4	-0.006560052
53	0x3b4d2996	0.0031305305
54	0x3a8913bb	0.0010458151
55	0x3c600ecc	0.013675403
56	0x3b0c3e7c	0.0021399548
57	0xbb855d0e	-0.004069931
58	0xbc83d3dd	-0.016092235
59	0xbc4737a9	-0.0121592665
60	0x3bbd60d6	0.005779366
61	0x3b15efed	0.0022878603
62	0x3c3734c9	0.011182019
63	0x3bd0ac8f	0.006368227
64	0x39a9818c	0.00032330712
65	0xbaa6fd51	-0.0012740289
66	0x3c888a3f	0.016667483
67	0x3ac71814	0.0015189671
68	0x3b9ae567	0.004727054
69	0xbac4d53b	-0.0015017161
70	0x3bef4734	0.0073021892
71	0x3bf13a97	0.007361721
72	0xbbbc1e1b	-0.0057408935
73	0xb81475c4	-3.5395627e-05
74	0x3b5582c9	0.0032579175
75	0xbb7e1af0	-0.003877338
76	0x3b86bf3f	0.004112154
77	0x3c706957	0.0146735525
78	0x3c12c334	0.008957673
79	0x3a0fc0af	0.0005483729
80	0x3ba965fe	0.005169629
81	0x3bceecb4	0.0063148383
82	0x3b288f60	0.0025720224
83	0x3bc320a6	0.0059548197
84	0x3c503da7	0.012710012
85	0x3bd37232	0.006452822
86	0xbb552fcf	-0.0032529717
87	0xba96e316	-0.0011511769
88	0x3c8f62f9	0.017503249
89	0x3b81ea44	0.003964694
90	0xbbf30031	-0.0074157943
91	0x3b498d6f	0.0030754467
92	0x3bb6557d	0.00556439
93	0x3aec8259	0.0018044218
94	0xba375afe	-0.0006994455
95	0x3c0e5797	0.008687875
96	0xba697de4	-0.0008907004
97	0x3bf6c574	0.0075308625
98	0x3b55632a	0.0032560327
99	0x3c250c5d	0.010073748

exp_avg_sq f4 [5, 20]
0	0x36fcb53c	7.5312837e-06
1	0x36a3a34b	4.8767884e-06
2	0x36b8fa9f	5.5128035e-06
3	0x37c233c1	2.3150702e-05
4	0x373df543	1.1322382e-05
5	0x3658251e	3.2208113e-06
6	0x37fe9c2e	3.0351886e-05
7	0x35eb57a4	1.7534371e-06
8	0x379ab5ac	1.8442828e-05
9	0x36a242a6	4.835735e-06
10	0x379e6bda	1.888529e-05
11	0x3763aa2e	1.3569877e-05
12	0x3842a0ce	4.6402965e-05
13	0x3826f5f9	3.9806564e-05
14	0x3594d673	1.1089272e-06
15	0x375d543e	1.3192241e-05
16	0x365faee5	3.3331391e-06
17	0x38bea3a8	9.090389e-05
18	0x37184133	9.075086e-06
19	0x3829ddcf	4.0499315e-05
20	0x3727b5f6	9.996342e-06
21	0x37cd87d0	2.4501147e-05
22	0x375fd6bd	1.3341833e-05
23	0x37a1c245	1.928316e-05
24	0x36fd5e34	7.5509543e-06
25	0x36441338	2.9217463e-06
26	0x3866e0f9	5.5045795e-05
27	0x368c7b5e	4.186687e-06
28	0x383b6a2d	4.468316e-05
29	0x37b6eeed	2.180735e-05
30	0x3764f9f0	1.3648052e-05
31	0x36d3da56	6.3137077e-06
32	0x360e723b	2.122614e-06
33	0x36f00c9f	7.1540267e-06
34	0x3705b491	7.969459e-06
35	0x376d08f8	1.4128389e-05
36	0x36d709bc	6.4086325e-06
37	0x37ab7f79	2.0444148e-05
38	0x37569b93	1.2791616e-05
39	0x382147b9	3.8452188e-05
40	0x36f94bd4	7.429606e-06
41	0x37b0ad6f	2.1061596e-05
42	0x370cf756	8.402238e-06
43	0x371873f2	9.086902e-06
44	0x36e37f7c	6.7799683e-06
45	0x36aa1482	5.0687822e-06
46	0x385809f8	5.1507697e-05
47	0x3622f407	2.4281924e-06
48	0x383deec8	4.5283494e-05
49	0x35d10847	1.5574122e-06
50	0x379c09b3	1.8601166e-05
51	0x36a0fd37	4.7978497e-06
52	0x36becb64	5.686119e-06
53	0x36412425	2.878028e-06
54	0x34b07c4b	3.287299e-07
55	0x3789d01e	1.6428585e-05
56	0x36d8c9aa	6.4607784e-06
57	0x380fbab0	3.4267723e-05
58	0x379439dc	1.7669918e-05
59	0x37ee7637	2.8426859e-05
60	0x366c397e	3.5200205e-06
61	0x35ccbd37	1.5254253e-06
62	0x379029a9	1.7185537e-05
63	0x370b8d88	8.317998e-06
64	0x35dd37f5	1.6482069e-06
65	0x36478e95	2.9736304e-06
66	0x37b3fa16	2.1454918e-05
67	0x3590a166	1.0775809e-06
68	0x3702d6dc	7.79863e-06
69	0x36dbabe1	6.546718e-06
70	0x36b688f1	5.4399648e-06
71	0x36b00662	5.245952e-06
72	0x37128312	8.732795e-06
73	0x350d023e	5.2529856e-07
74	0x35ef06a7	1.7808824e-06
75	0x362a8c2d	2.5413567e-06
76	0x35e50292	1.7062578e-06
77	0x37f13b57	2.8757071e-05
78	0x36fe0552	7.5704093e-06
79	0x36ba7246	5.556535e-06
80	0x374d5d2e	1.2240647e-05
81	0x35fe26b3	1.8935738e-06
82	0x360a4f6b	2.060983e-06
83	0x374126f2	1.1512764e-05
84	0x37bba6d0	2.2369815e-05
85	0x37393440	1.1039025e-05
86	0x370d71a7	8.430717e-06
87	0x35dc1e5c	1.6400113e-06
88	0x37baec5b	2.228299e-05
89	0x35ef7a11	1.7842414e-06
90	0x36816974	3.856776e-06
91	0x36ef984e	7.1404856e-06
92	0x37296d3e	1.009862e-05
93	0x359fea84	1.1914676e-06
94	0x36883e53	4.0603713e-06
95	0x36ccdbe2	6.1052715e-06
96	0x3690d724	4.31658e-06
97	0x37a16a25	1.9242123e-05
98	0x36f424ba	7.276042e-06
99	0x376fc1b0	1.42906065e-05

exp_avg f4 [5]
0	0x3d533be2	0.05157078
1	0x3d2cf9b6	0.04223033
2	0xbcd67bb9	-0.026182042
3	0x3cc845b0	0.024447292
4	0x3c7eeafa	0.015558952

exp_avg_sq f4 [5]
0	0x3929bfcb	0.00016188544
1	0x393d91d7	0.00018078774
2	0x38bccca1	9.002654e-05
3	0x3897b14e	7.233267e-05
4	0x3846da5e	4.741025e-05
